model.pth (torch, 6139 bytes, 7 tensors)

weight f4 [16, 3]
0	0x3f02c940	0.51088333
1	0xbe69cbc4	-0.22831637
2	0x3e0ef437	0.13960348
3	0x3ead5aa1	0.33858207
4	0x3e0d5838	0.13803184
5	0xbd9325af	-0.07184922
6	0x3dbe29ce	0.09285317
7	0xbea7b905	-0.32758346
8	0x3ec73fef	0.38915965
9	0x3dc8e6c8	0.09809643
10	0xbbb54cf6	-0.005532856
11	0xbe5e1db2	-0.21691015
12	0xbe3a4565	-0.18190534
13	0x3f072997	0.52797836
14	0xbcae0135	-0.02124081
15	0x3edbcd1b	0.4292992
16	0x3ed70e22	0.4200297
17	0x3f11165f	0.5667476
18	0x3f0137d3	0.50475806
19	0xbe9e83dd	-0.3095998
20	0x3e9b3c74	0.3031956
21	0xbe2fce70	-0.17168593
22	0x3e4c4fe5	0.19952352
23	0x3dff9a6e	0.12480627
24	0x3ed208db	0.4102238
25	0xbebf8494	-0.37405837
26	0x3ed224ce	0.41043705
27	0x3d877ff5	0.06616203
28	0x3e9f495e	0.31110662
29	0x3dcecf0e	0.10098086
30	0xbeb7cd94	-0.3589903
31	0x3e5c6459	0.21522655
32	0xbe42481b	-0.18972819
33	0xbe58e1c2	-0.2117987
34	0x3e242b4e	0.16032144
35	0x3e86f502	0.263588
36	0xbe94a190	-0.29029512
37	0x3e8065f7	0.25077793
38	0x3ebd4158	0.36963916
39	0xbea98ea1	-0.3311663
40	0x3e5316ba	0.20614138
41	0xbeb0ccbb	-0.34531197
42	0xbec91a3c	-0.39277828
43	0x3f06dc6b	0.5268008
44	0x3e808995	0.25104967
45	0x3f0b7c3a	0.5448643
46	0xbe340816	-0.1758121
47	0x3f121662	0.57065403

bias f4 [16]
0	0x3eb64575	0.35599867
1	0xbe293329	-0.16523422
2	0xbed0a05d	-0.40747347
3	0xbe93479c	-0.2876557
4	0x3ed3fa80	0.41402054
5	0xbe9219a9	-0.28535202
6	0xbcf3f029	-0.029777603
7	0xbefc69db	-0.4929951
8	0xbf13b2a0	-0.57694435
9	0xbe67834b	-0.22608678
10	0x3ed50b34	0.4161011
11	0x3dc71bd4	0.09722105
12	0xbdebc31c	-0.115118235
13	0x3efb7176	0.4911
14	0xbe5145fa	-0.2043685
15	0xbef0f0d7	-0.47058746

weight f4 [16, 16]
0	0xbdb83de8	-0.08996183
1	0x3d7e3be3	0.06206883
2	0x3ca96496	0.020677846
3	0x3e887f71	0.2665973
4	0x3d175b38	0.036952227
5	0x3dad03b5	0.08447973
6	0x3e36f38a	0.1786634
7	0xbddd3112	-0.10800375
8	0x3e5dcb71	0.21659638
9	0x3cf2bba9	0.029630499
10	0x3d13379b	0.0359417
11	0xbd2985b8	-0.04138729
12	0xbdf9ac0c	-0.121910185
13	0x3e699644	0.22811228
14	0xbdc3cb59	-0.0956027
15	0x3d2dd616	0.042440496
16	0xbe3f1ce3	-0.18663363
17	0xbddf335a	-0.108984664
18	0x3e3facc2	0.18718246
19	0x3d7661fa	0.06015203
20	0x3d90791b	0.07054349
21	0xbdde9025	-0.10867337
22	0x3e31cea8	0.1736399
23	0xbc10b970	-0.008833274
24	0x3d9ce061	0.076599844
25	0xbde9ed36	-0.114221975
26	0xbe370419	-0.17872657
27	0x3d906db6	0.07052176
28	0x3e26a27a	0.16272917
29	0xbd0d76e8	-0.034537226
30	0x3dfb773e	0.12278603
31	0x3df60961	0.12013508
32	0x3de34af5	0.11098281
33	0xbe5e17b3	-0.21688728
34	0x3e407ce6	0.18797645
35	0xbdec6eac	-0.115445465
36	0xbd5a7143	-0.05333067
37	0x3e090b8e	0.13383314
38	0xbd870823	-0.06593349
39	0xbe5610bf	-0.20904826
40	0x3dd2b78f	0.10288917
41	0x3d7c15a7	0.061544087
42	0x3d9d8f07	0.07693296
43	0x3e02e04b	0.12780873
44	0xbde362dc	-0.1110284
45	0xbe05b9ff	-0.13059233
46	0xbe364a30	-0.17801738
47	0x3df00600	0.117198944
48	0xbdcaeac6	-0.09908061
49	0x3d7a47f3	0.061103772
50	0x3e71e00a	0.2362062
51	0xbd4fdc39	-0.05074713
52	0xbd83ce1a	-0.06435795
53	0xbd8e2ff3	-0.06942739
54	0x3e120506	0.14259729
55	0x3e911526	0.28336447
56	0xbdfad8f6	-0.12248413
57	0x3c92eed0	0.01793614
58	0xbdf0b1e5	-0.11752681
59	0x3e42738b	0.18989389
60	0xbe0b767a	-0.13619414
61	0x3e5b5682	0.21419719
62	0xbd82e3d6	-0.063911125
63	0x3cda017e	0.02661204
64	0x3e737497	0.23774944
65	0x3e628ea7	0.2212473
66	0x3d3a5244	0.04548861
67	0x3d972670	0.07380378
68	0xbdf21053	-0.1181952
69	0x3e5ee481	0.21766855
70	0x3d666bfd	0.05625533
71	0xbe0d565e	-0.13802478
72	0x3cd73eea	0.026275117
73	0x3d843a5c	0.06456444
74	0xbdf08169	-0.11743433
75	0x3cd0d581	0.025492432
76	0x3e16699d	0.14688726
77	0x3e4ec20c	0.2019121
78	0xbe23b27f	-0.1598606
79	0xbd31d21a	-0.04341326
80	0xbd31c1a6	-0.04339757
81	0xbcb21a36	-0.021741014
82	0xbd7080b7	-0.058716502
83	0xbd71c3a7	-0.05902448
84	0xbd209bfc	-0.03921126
85	0xbdad5ba9	-0.084647484
86	0xbc7ee079	-0.015556448
87	0x3d8a5906	0.06755261
88	0x3e5a1333	0.21296386
89	0xbc9501d0	-0.01818934
90	0x3dd220fd	0.10260198
91	0x3bef9163	0.0073110326
92	0x3d9247a4	0.071425706
93	0x3e6c6dd9	0.23088779
94	0x3d5ab211	0.053392474
95	0x3e037a6b	0.12839667
96	0xbdd97bf9	-0.10619349
97	0xbcc3cef5	-0.023902396
98	0xba2ba338	-0.0006547454
99	0xbd3a7b41	-0.0455277
100	0xbc09a9a5	-0.008402263
101	0x3e228eeb	0.15874831
102	0x3dd3f9ec	0.10350403
103	0xbd481428	-0.048847347
104	0x3e0bd358	0.1365484
105	0x3d671a8e	0.05642181
106	0xbe31653d	-0.17323776
107	0xbd05fe91	-0.032713477
108	0xbdd2ae6d	-0.10287175
109	0xbd3d8c23	-0.046276223
110	0x3e36c263	0.1784759
111	0xbe609821	-0.21933033
112	0xbdb1ea50	-0.0868727
113	0x3e56479e	0.20925757
114	0x3e3d65e4	0.184959
115	0xbe224c73	-0.15849476
116	0xbd3e2f56	-0.04643186
117	0x3e01ed30	0.12688136
118	0x3db1c377	0.0867986
119	0xbcdc82fa	-0.026917923
120	0x3ddc03f9	0.10742945
121	0x3e1ba27a	0.15198699
122	0x3cc43860	0.023952663
123	0x3c30ef63	0.010799262
124	0x3d46572b	0.048422974
125	0xbe3ef672	-0.18648699
126	0xbe211beb	-0.15733306
127	0x3e17aa4d	0.14811058
128	0x3e12a865	0.1432205
129	0x3e474511	0.1945994
130	0xbd0b53a6	-0.03401532
131	0x3df51ca3	0.11968353
132	0xbdeb80bb	-0.11499163
133	0x3d98ab14	0.074545056
134	0x3cac411f	0.021027146
135	0xbe7e4bac	-0.24833554
136	0xbe3756f8	-0.1790427
137	0x3d66203a	0.056183077
138	0xbf8ab1e5	-1.0835539
139	0x3dc0b109	0.09408767
140	0x3e205ddf	0.15660809
141	0x3e46d355	0.19416554
142	0xbddae21e	-0.1068766
143	0xbd091a69	-0.033472452
144	0xbd86f1ce	-0.06589089
145	0xbe4b3fc4	-0.19848543
146	0x3e282b48	0.1642276
147	0xbef48814	-0.4776007
148	0x3e1243f6	0.14283738
149	0xbe2c3456	-0.1681684
150	0x3d3c9af5	0.046046216
151	0xbe10c43f	-0.14137362
152	0x3db26413	0.08710494
153	0xbd2d4a1c	-0.042307004
154	0xbdb908d4	-0.09034887
155	0x3e578a9a	0.21048966
156	0x3de0ab40	0.10970163
157	0x3c58c040	0.01322943
158	0xbe1daf53	-0.15398912
159	0x3e225486	0.15852556
160	0x3dd7f62e	0.10545002
161	0xbba260c5	-0.0049553835
162	0x3e32c0d3	0.17456369
163	0x3e877291	0.26454595
164	0xbcd1c8e7	-0.025608493
165	0x3e20322e	0.15644142
166	0x3d3ba4f5	0.045811612
167	0x3de57334	0.11203614
168	0xbb32f4d3	-0.002730657
169	0x3e061f4f	0.13097881
170	0x3d1338bc	0.035942778
171	0xbdf41b84	-0.11919311
172	0xbe5a1389	-0.21296515
173	0x3da79370	0.08182418
174	0x3d7dc60c	0.06195645
175	0xbe434d18	-0.19072378
176	0xbd1d5c0d	-0.038417865
177	0xbe6fd3f3	-0.23420696
178	0x3e23d61e	0.15999648
179	0x3ed7cc6f	0.42148158
180	0xbd93bebd	-0.07214115
181	0x3e1b1680	0.15145302
182	0xbd984a54	-0.07436052
183	0x3dfc6e7d	0.123257615
184	0x3cbb4648	0.022860661
185	0xbe314154	-0.17310077
186	0xbe349d64	-0.17638165
187	0xbe18b74c	-0.14913672
188	0x3e6e150a	0.23250213
189	0xbe9578dc	-0.2919377
190	0xbe113378	-0.1417979
191	0x3e65a5a9	0.22426476
192	0x3e5caa51	0.21549346
193	0xbe506a25	-0.20352991
194	0x3d4c5a11	0.04989058
195	0x3deabe6d	0.11462102
196	0x3ddc7d39	0.10766072
197	0xbde6dd3a	-0.11272664
198	0xbdde880d	-0.108657934
199	0x3e6ccf31	0.23125912
200	0x3c41f034	0.011837054
201	0xbcc20ffa	-0.023689259
202	0xbdcf96cb	-0.10136183
203	0xbdf8993c	-0.12138602
204	0xbda56d4f	-0.080774896
205	0xbc58d429	-0.013234177
206	0x3dfb8087	0.12280374
207	0x3e2f1e46	0.17101392
208	0x3d69f411	0.057117525
209	0x3da39911	0.079881795
210	0x3e156bc0	0.14591885
211	0xbd16c45b	-0.036808353
212	0xbdc3fb59	-0.09569425
213	0xbe25e547	-0.16200744
214	0x3b62ccba	0.003460689
215	0x3d9903be	0.07471417
216	0x3d816649	0.063183375
217	0x3dbe1568	0.09281427
218	0x3dc3d13d	0.095613934
219	0xbd4a4373	-0.04938073
220	0x3e0dab0c	0.1383478
221	0x3d2dbe03	0.042417537
222	0x3e820675	0.2539555
223	0xbe3cd2fc	-0.18439859
224	0xbe0576f3	-0.13033657
225	0xbe0478d6	-0.1293672
226	0xbe2a9117	-0.1665691
227	0xbe7ab433	-0.24482803
228	0x3ac0afc1	0.0014700816
229	0xbe2186ad	-0.15774031
230	0x3cfb8373	0.030702328
231	0xbd3263b4	-0.043552116
232	0x3dbf05be	0.09327267
233	0xbe82d2aa	-0.2555135
234	0x3e7c9746	0.24667081
235	0xbdd3c262	-0.1033981
236	0x3e59cbd3	0.21269159
237	0xbeb4b4bd	-0.35294142
238	0x3e3d15e1	0.18465377
239	0x3e72ad7d	0.23698993
240	0x3de38de1	0.11111046
241	0x3e27771e	0.16354033
242	0xbe15dd1e	-0.14635131
243	0x3dde6644	0.10859349
244	0xbdb3ece7	-0.0878542
245	0x3de4b1e7	0.11166745
246	0xbe202918	-0.15640676
247	0xbe3f7496	-0.18696818
248	0x3d4c8410	0.049930632
249	0xbdc14578	-0.09437078
250	0x3e8752eb	0.2643045
251	0xbdaf7c3e	-0.08568619
252	0xbcc19744	-0.0236317
253	0x3e1c016f	0.15234922
254	0xbca564fb	-0.020189753
255	0xbca270bf	-0.019829152

bias f4 [16]
0	0xbd764df8	-0.06013295
1	0xbdc6b700	-0.09702873
2	0x3e81e224	0.25367844
3	0xbc6d558c	-0.014485728
4	0xbd86c4ac	-0.06580481
5	0x3d3a316f	0.0454573
6	0x3e0a79dd	0.1352305
7	0x3a4b6f82	0.00077604514
8	0xbd55cf62	-0.05219973
9	0xbdb8e81c	-0.09028646
10	0x3e19a293	0.15003423
11	0xbe2b5ed6	-0.16735396
12	0x3bf676cc	0.007521486
13	0x3e9779d3	0.29585132
14	0xbe4a9efb	-0.19787209
15	0x3de3b7a1	0.11119009

weight f4 [16, 16]
0	0xbe39e706	-0.18154535
1	0xbc841cac	-0.016126953
2	0xbdd552b3	-0.10416164
3	0xbd59304e	-0.053024583
4	0x3e5d5dc0	0.21617794
5	0xbe144996	-0.14481196
6	0xbe6d6d07	-0.23186122
7	0x3d16adfd	0.036787022
8	0x3dd8f63b	0.1059384
9	0x3ded0f48	0.1157518
10	0x3dfbcec6	0.12295298
11	0xbd206166	-0.039155386
12	0x3c92a51f	0.017901001
13	0x3dc3e0c2	0.095643535
14	0x3e230c7d	0.15922733
15	0x3e70d527	0.23518811
16	0xbe1228b1	-0.14273335
17	0x3de53641	0.11191989
18	0x3d7213f8	0.059101075
19	0xbe5b18f3	-0.21396236
20	0x3e31443f	0.1731119
21	0xbe8067b3	-0.25079116
22	0xbda8f7c3	-0.08250382
23	0x3e4769fe	0.19474027
24	0x3e4ec763	0.20193247
25	0xbe21bcdb	-0.15794699
26	0x3df40b4f	0.119162194
27	0xbe36b1d2	-0.1784127
28	0xbc8207c8	-0.015872851
29	0x3d9fd063	0.078034185
30	0x3da84640	0.08216524
31	0x3e51c867	0.20486604
32	0xbd8a0afc	-0.06740376
33	0xbddad245	-0.10684637
34	0x3ea6346d	0.32461873
35	0xbe7de81a	-0.24795571
36	0x3dafeece	0.0859047
37	0xbe465606	-0.19368753
38	0xbe3e6311	-0.18592478
39	0xbe4596a5	-0.19295748
40	0x3de39acf	0.11113512
41	0x3dc918d3	0.09819188
42	0xbe06f717	-0.13180195
43	0xbe2e17d1	-0.17001273
44	0x3d522fde	0.05131518
45	0x3c84a1cf	0.016190438
46	0x3e1b6fe3	0.151794
47	0x3e34e819	0.17666663
48	0x3c25b51d	0.010113982
49	0x3e1eb031	0.15496899
50	0x3cfa28e1	0.03053707
51	0x3e2b72f4	0.1674307
52	0xbcebd3d4	-0.028787531
53	0xbe7aff45	-0.2451144
54	0x3ded1bff	0.115776055
55	0x3e153654	0.14571506
56	0xbe35a46d	-0.17738505
57	0x3d926295	0.07147709
58	0xbde95a46	-0.113941714
59	0xbe756aab	-0.23966472
60	0xbe32e744	-0.17471033
61	0xbc32bd05	-0.010909324
62	0x3c670f5d	0.014102784
63	0x3d4fbfdf	0.050720092
64	0xbdb45773	-0.08805742
65	0xbdcf0466	-0.10108261
66	0x3d8c3b55	0.06847254
67	0xbdf0211a	-0.117250636
68	0x3c547051	0.012966231
69	0x3b161644	0.0022901455
70	0x3e2f9bee	0.17149326
71	0x3e67b584	0.22627836
72	0x3e31169a	0.17293778
73	0xbe0126cc	-0.12612456
74	0x3d7ad595	0.061238844
75	0xbd810234	-0.06299248
76	0xbe474429	-0.19459595
77	0x3d423a28	0.047418743
78	0x3d6bf772	0.05760903
79	0xbdb1706b	-0.0866402
80	0xbe361a59	-0.17783488
81	0x3dfa0e8a	0.12209804
82	0x3e0e45f6	0.13893875
83	0xbe1e3e03	-0.15453343
84	0x3e028185	0.1274472
85	0xbe179d5f	-0.14806126
86	0xbe3a4bb4	-0.18192941
87	0x3ce17548	0.027521744
88	0x3cd05159	0.025429415
89	0x3e67e3ce	0.22645494
90	0xbe533f01	-0.20629503
91	0x3ddb3149	0.1070276
92	0xbe1d5dce	-0.15367815
93	0xbd3ecf77	-0.046584573
94	0xbbbd78db	-0.0057822294
95	0xbd9bd980	-0.07609844
96	0xbe1d2a98	-0.1534828
97	0xbdf350ce	-0.11880647
98	0xbe1b4f0f	-0.15166877
99	0xbebff002	-0.374878
100	0x3d424c06	0.047435783
101	0x3ad8154b	0.0016485838
102	0x3e7ae58f	0.24501632
103	0x3d5445af	0.051824268
104	0x3e3dce06	0.18535623
105	0x3c67364f	0.014112069
106	0xbe049ab7	-0.12949644
107	0xbd217916	-0.039422117
108	0x3e8658e1	0.26239684
109	0x3e8a2409	0.26980618
110	0x3dc009f3	0.09376898
111	0xba8dea09	-0.0010827194
112	0xbe00a26f	-0.12561963
113	0x3dcff5b4	0.10154286
114	0xbde3b067	-0.111176305
115	0x3c9b78ac	0.01897844
116	0xbe19035c	-0.14942688
117	0x3ddd879e	0.108168826
118	0x3e688b87	0.22709475
119	0x3d4b38fd	0.049614895
120	0xbe96ffdc	-0.2949208
121	0x3dc30452	0.095223084
122	0xbe466ec0	-0.19378185
123	0xbd8e1b6a	-0.069388226
124	0x3e3c8a6f	0.18412183
125	0xbcb10cb8	-0.02161251
126	0x3e36d134	0.17853242
127	0x3f03d546	0.51497304
128	0xbd848ce2	-0.06472184
129	0xbe87ee8b	-0.2654918
130	0x3e390c60	0.18071127
131	0xbd2937b9	-0.041312907
132	0x3e50ce94	0.20391303
133	0xbf1ee4a1	-0.6206761
134	0x3db18730	0.08668363
135	0xbe66ffed	-0.22558565
136	0x3dec6d0e	0.11544238
137	0x3daea7ca	0.08528097
138	0xbc9e3ff6	-0.019317608
139	0xbc359671	-0.011083231
140	0xbee0d84f	-0.4391503
141	0x3c83d378	0.016092047
142	0x3e747439	0.2387246
143	0xbe41c681	-0.1892338
144	0x3d872130	0.06598127
145	0x3d7b0a26	0.061288975
146	0xbed8cd55	-0.42344156
147	0x3e5ef379	0.21772565
148	0xbe539757	-0.206632
149	0xbc130537	-0.008973411
150	0xbdb06311	-0.086126454
151	0x3df9409e	0.12170528
152	0xbea2b1c6	-0.31776255
153	0xbdca030b	-0.09863862
154	0x3deda301	0.11603356
155	0x3d45114a	0.04811219
156	0xbe43bbc2	-0.19114593
157	0x3cfa0b22	0.030522887
158	0x3d74b432	0.05974216
159	0xbe0dc259	-0.13843669
160	0x3e698939	0.22806253
161	0x3e540cc4	0.20707995
162	0x3c062275	0.008186926
163	0x3d1d64f2	0.038426347
164	0xbe1dbfa9	-0.15405144
165	0x3e09fef9	0.1347617
166	0xbe01fd7d	-0.12694354
167	0x3e6a2522	0.22865728
168	0x3e856063	0.260501
169	0xbe5d2fe8	-0.21600306
170	0x3c78ad6f	0.015178069
171	0x3e25d5d5	0.16194852
172	0xbcbb7e84	-0.022887476
173	0xbe198583	-0.14992337
174	0x3d04639c	0.032321557
175	0xbe00f9e8	-0.12595332
176	0xbd900835	-0.07032815
177	0xbe38131b	-0.17976038
178	0x3d75b62c	0.059988186
179	0xbd1e1466	-0.038593672
180	0x3db356be	0.08756779
181	0xbdfd1fc0	-0.123595715
182	0xbe52c8fd	-0.20584483
183	0x3ddd0bcf	0.10793268
184	0x3de698a2	0.11259581
185	0x3d8cc87a	0.06874175
186	0xbd0b3832	-0.03398914
187	0xbdb98c8b	-0.090600096
188	0xbe5208c0	-0.2051115
189	0x3de82cc4	0.11336663
190	0xbd4bd4e3	-0.04976357
191	0x3d35e30d	0.044405986
192	0x3d1e1dbf	0.038602587
193	0xbe5ce494	-0.2157157
194	0x3e1570bb	0.14593785
195	0x3e4a4757	0.19753776
196	0xbd846a41	-0.06465579
197	0x3c3076cf	0.010770514
198	0xbd85a002	-0.0652466
199	0xbe121d21	-0.14268924
200	0xbc984a10	-0.018590003
201	0xbdd99c8a	-0.106255606
202	0x3e160010	0.14648461
203	0x3e2613bd	0.16218467
204	0x3e43d12b	0.1912276
205	0xbe0b987c	-0.13632387
206	0xbe7dbd97	-0.24779354
207	0xbca23903	-0.019802576
208	0xbe5f6eec	-0.21819657
209	0xbe22655e	-0.15858981
210	0xbe68ad1e	-0.22722289
211	0xbe5abd52	-0.21361282
212	0x3d938840	0.07203722
213	0x3cdeb3f0	0.02718541
214	0x3c769ee0	0.015052527
215	0x3cd4b510	0.025965244
216	0x3cc0b020	0.023521483
217	0x3e37162e	0.17879555
218	0xbe4bf4d0	-0.19917607
219	0x3cfbcd60	0.030737579
220	0x3bd98580	0.006638229
221	0xbdf2350c	-0.11826524
222	0x3e4afd6c	0.19823235
223	0x3dae28b0	0.08503854
224	0x3e4de2e6	0.20106086
225	0x3e3d90ce	0.1851227
226	0xbe03c45a	-0.12867871
227	0xbe341f2e	-0.17590019
228	0xbe130ed0	-0.1436112
229	0x3d1c8e68	0.038221747
230	0xbe3200d8	-0.17383134
231	0xbe7320e6	-0.23743019
232	0x3e77f74e	0.24215433
233	0xbd0d7140	-0.03453183
234	0xbe086200	-0.13318634
235	0x3d7f0460	0.06226003
236	0x3e2f5ca0	0.17125177
237	0xbe580c04	-0.21098334
238	0x3e259564	0.16170269
239	0xbe15330c	-0.14570254
240	0xbe6a0ce7	-0.22856484
241	0xbe6bfca0	-0.23045588
242	0x3ced9dc0	0.029005885
243	0xbdac720f	-0.084201925
244	0x3e76293b	0.24039166
245	0x3e5d013a	0.21582499
246	0xbd44431d	-0.047915567
247	0x3e77f627	0.24214993
248	0x3df1513f	0.117830746
249	0xbe2bb2c7	-0.16767417
250	0xbe0d4c01	-0.13798524
251	0x3e21f548	0.15816224
252	0x3e0ded21	0.13859989
253	0x3e319eb7	0.17345701
254	0x3e3e15b7	0.18562971
255	0x3e0afa95	0.13572152

bias f4 [16]
0	0xbc40c09b	-0.011764671
1	0x3db226dd	0.08698819
2	0x3def9f5e	0.11700319
3	0xbe9154c2	-0.28384978
4	0xbdb37b3f	-0.08763742
5	0x3e8c8fc0	0.27453423
6	0xbe551873	-0.20810108
7	0xbecd0f9b	-0.4005097
8	0x3ec0b58a	0.37638503
9	0x3ec43d6e	0.38328117
10	0x3bb31661	0.0054653143
11	0xbe46a3b1	-0.19398381
12	0xbdbcc4b1	-0.092172034
13	0xbe24ee7c	-0.161066
14	0xbe199d02	-0.150013
15	0x3e8825da	0.26591378

weight f4 [1, 16]
0	0x3df97591	0.12180627
1	0xbe34efc0	-0.17669582
2	0x3d701968	0.05861798
3	0x3e0a0e95	0.13482125
4	0x3e360e6c	0.17778939
5	0xbe24632c	-0.16053456
6	0x3b9f6dcb	0.0048653833
7	0x3d57a930	0.052651584
8	0xbd0e1b10	-0.034693778
9	0xbe01d6c3	-0.12679581
10	0x3e4cca28	0.19998991
11	0x3dbdb87b	0.092637025
12	0xbe344140	-0.17603016
13	0x3db5dfa8	0.0888055
14	0x3e0b10b8	0.13580596
15	0xbe35af25	-0.17742594
