model.pth (torch, 13201 bytes, 15 tensors)

weight f4 [16, 3]
0	0xbef20939	-0.4727266
1	0xbe2791f0	-0.16364264
2	0x3e04b6b8	0.12960327
3	0xbe659cc5	-0.22423084
4	0xbe83991e	-0.25702757
5	0x3f10f60a	0.56625426
6	0x3eb763d5	0.35818353
7	0x3ef4b3d4	0.47793448
8	0xbee90478	-0.45511222
9	0x3eb43e3b	0.35203728
10	0x3ea53424	0.32266343
11	0xbdee4c21	-0.11635614
12	0x3eb0b72e	0.34514755
13	0x3ecf540e	0.40493816
14	0x3e3e8e58	0.18608987
15	0xbe95be13	-0.29246578
16	0x3d0ea41b	0.034824472
17	0x3d66c8f9	0.056344006
18	0xbe478ebb	-0.19488041
19	0xbefb7e1b	-0.49119648
20	0xbcc6b450	-0.024255902
21	0xbd580cb6	-0.052746497
22	0xbe37dff2	-0.17956522
23	0xbebebf28	-0.37255216
24	0x3e982719	0.2971733
25	0xbe276fbf	-0.16351222
26	0xbe3c144e	-0.1836712
27	0xbedfabbb	-0.43685707
28	0x3e7c95f3	0.24666576
29	0x3e4411a9	0.19147362
30	0xbe3207f0	-0.1738584
31	0xbea9a504	-0.3313371
32	0x3f091237	0.5354342
33	0x3d8729b8	0.06599754
34	0xbda623ea	-0.08112319
35	0x3cf41294	0.029794015
36	0x3ec943ee	0.3930964
37	0x3ebdbc2e	0.37057632
38	0xbf0f06f6	-0.55869997
39	0x3f07a65e	0.5298823
40	0xbe23044d	-0.1591961
41	0x3e4fffea	0.20312467
42	0x3eb28794	0.34869063
43	0xbef9e1a4	-0.48804963
44	0x3e255c10	0.161484
45	0x3ee53229	0.44764832
46	0x3d3a8487	0.045536544
47	0xbe87797e	-0.2645988

bias f4 [16]
0	0x3f0090dd	0.50221044
1	0x3cb0353e	0.021509763
2	0x3c4460c6	0.011985963
3	0xbec62c11	-0.38705495
4	0xbefc357f	-0.49259564
5	0xbec0fa0a	-0.37690765
6	0x3f11700c	0.56811595
7	0x3ecfe215	0.40602174
8	0xbdbd7c1a	-0.09252186
9	0xbee66239	-0.44996813
10	0xbe8001b0	-0.25001287
11	0xbe9b8324	-0.3037349
12	0x3edc3132	0.43006283
13	0xbf011741	-0.5042611
14	0x3f06e918	0.5269942
15	0x3ef9ec6a	0.48813182

weight f4 [16, 16]
0	0xbe07db1c	-0.13267177
1	0x3dfcb220	0.12338662
2	0xbbe08f80	-0.006853044
3	0x3d492210	0.04910475
4	0xbe541514	-0.20711166
5	0xbd5cbb60	-0.053889632
6	0x3e2d29a0	0.1691041
7	0x3da83ef4	0.08215132
8	0xbe20cb3c	-0.15702528
9	0xbdeed51c	-0.11661741
10	0xbe5931e0	-0.21210432
11	0x3e6025ce	0.21889421
12	0x3e118998	0.14212644
13	0x3e55ced0	0.20879674
14	0x3e4afa68	0.19822085
15	0xbe482fa6	-0.19549426
16	0x3a34ce00	0.00068971515
17	0x3c216660	0.009851068
18	0xbdb96eac	-0.09054312
19	0x3decca08	0.11561972
20	0xbe611e0c	-0.21984118
21	0xbe33e3e0	-0.17567396
22	0xbe4ad38c	-0.19807261
23	0x3cc10970	0.02356407
24	0x3e060f88	0.13091862
25	0x3e73605c	0.23767227
26	0xbe7449b6	-0.23856243
27	0xbe70a60e	-0.23500845
28	0xbd872cb8	-0.06600326
29	0xbda20f7c	-0.0791311
30	0x3e1ff0a4	0.15619141
31	0x3e216f26	0.15765056
32	0xbe787108	-0.24261868
33	0xbdad8ce8	-0.08474141
34	0xbdbc376c	-0.091902584
35	0xbd8001b8	-0.06250328
36	0x3dcb4948	0.09926087
37	0x3e4d090e	0.20022985
38	0xbe2b1c2a	-0.16709962
39	0xbcb9e230	-0.022690862
40	0x3d0d6000	0.03451538
41	0x3e7e077a	0.2480754
42	0x3e67ed6e	0.22649166
43	0xbcfb9120	-0.03070885
44	0x3cd13570	0.025538176
45	0xbbb7ef00	-0.005613208
46	0x3da6aacc	0.08138046
47	0xbe118b62	-0.14213327
48	0x3e338794	0.17532188
49	0xbe7801cc	-0.24219435
50	0x3cf62fc0	0.030052066
51	0xbe64ebe2	-0.22355607
52	0x3ca1d280	0.019753695
53	0xbe2491d8	-0.1607126
54	0x3d956ca0	0.07296109
55	0xbda8a844	-0.08235219
56	0xbe772086	-0.241335
57	0x3e277a7c	0.16355318
58	0xbc619ca0	-0.0137702525
59	0x3d9d0788	0.07667452
60	0x3daa0174	0.083010584
61	0x3e4f14b8	0.20222747
62	0x3e60ce5a	0.21953717
63	0xbdf850fc	-0.121248215
64	0x3d276320	0.040866017
65	0x3e47cbe8	0.19511378
66	0x3da7ab34	0.08186951
67	0xbe0f3a06	-0.13986978
68	0xbda88820	-0.08229089
69	0x3d9b271c	0.07575819
70	0x3d789508	0.060689002
71	0xbe524c2c	-0.2053687
72	0x3e2ceafe	0.16886517
73	0xbd454ca0	-0.04816878
74	0x3df69958	0.12040967
75	0xbde27b14	-0.110586315
76	0x3e3c8a24	0.18412071
77	0x3d8157a4	0.06315544
78	0x3e160a04	0.14652258
79	0x3e2be964	0.1678825
80	0xbe3c5f5c	-0.18395752
81	0x3e01707a	0.12640563
82	0x3cf096b0	0.029368728
83	0xbdb30778	-0.08741659
84	0x3dae1f64	0.08502081
85	0xbe64f45c	-0.2235884
86	0xbe74fcb2	-0.2392452
87	0x3c1c26a0	0.009530693
88	0x3e2c4d5a	0.16826382
89	0xbdca80b8	-0.098878324
90	0x3d0bb060	0.03410375
91	0x3d6c37c0	0.057670355
92	0xbdc0ad60	-0.09408069
93	0x3e77cb0e	0.24198553
94	0xbd6544a8	-0.05597368
95	0xbe0919e0	-0.13388777
96	0x3cb6cd50	0.022314698
97	0xbe6ec85c	-0.23318619
98	0x3de82158	0.11334485
99	0x3dd7e108	0.10540968
100	0xbda75c24	-0.08171871
101	0xbe4ee360	-0.20203924
102	0xbe3a7e78	-0.18212306
103	0xbe21f268	-0.15815127
104	0xbd080160	-0.033204436
105	0x3e70112a	0.23444048
106	0xbe08d02c	-0.13360661
107	0xbda7ae6c	-0.08187565
108	0xbd8ba06c	-0.068177074
109	0x3e6653ec	0.22492951
110	0xbdb17da0	-0.08666539
111	0xbe5cf522	-0.21577886
112	0xbdd009f8	-0.101581514
113	0xbe37bfee	-0.17944309
114	0x3e7b8c9c	0.24565357
115	0x3dd8a684	0.10578635
116	0x3d0ca788	0.034339458
117	0x3e0bc2f6	0.1364859
118	0x3e4f691a	0.20254937
119	0xbe08e4da	-0.1336855
120	0xbe7c56b8	-0.24642456
121	0x3cef82f0	0.02923724
122	0xbcfb7730	-0.030696481
123	0x3cf05460	0.029337108
124	0x3e6922a2	0.22767118
125	0xbe31212a	-0.17297807
126	0xbdbeec58	-0.09322423
127	0x3e64dc9c	0.22349781
128	0xbdc46164	-0.09588888
129	0xbd5ae2a0	-0.053438783
130	0xbdd6508c	-0.10464582
131	0xbd4919a0	-0.049096704
132	0x3e5b91d2	0.21442345
133	0xbe7d2532	-0.2472122
134	0xbe781404	-0.24226385
135	0xbe2616f6	-0.16219696
136	0x3e36f298	0.1786598
137	0xbe7867d0	-0.24258351
138	0x3e7d0d24	0.24712044
139	0x3c08a000	0.008338928
140	0xbe0bda70	-0.13657546
141	0x3e393c84	0.18089491
142	0xbe58f3e6	-0.2118679
143	0xbdd39dac	-0.10332808
144	0x3e51fd66	0.2050682
145	0x3e0f50ee	0.13995716
146	0xbd243e00	-0.04009819
147	0x3c8232d0	0.01589337
148	0x3decb8cc	0.11558685
149	0xbe7a9c68	-0.24473727
150	0xbde31cd4	-0.11089483
151	0xbe6a3736	-0.22872624
152	0xbe72001e	-0.23632857
153	0x3e40ea98	0.1883949
154	0xbe315d16	-0.17320666
155	0xbe7a860c	-0.24465197
156	0x3b461780	0.003022641
157	0xbe6c00a4	-0.2304712
158	0xbd69e7c0	-0.05710578
159	0x3e66c820	0.22537279
160	0xbcb6c4f0	-0.022310704
161	0xbd7608d0	-0.060066998
162	0xbe5c92ec	-0.21540421
163	0xbe7ef18a	-0.24896827
164	0x3da07e28	0.078365624
165	0x3d91fe0c	0.07128534
166	0xbe05ccf4	-0.13066465
167	0xbe431b3c	-0.19053358
168	0x3db197c0	0.08671522
169	0x3d230338	0.03979799
170	0xbe49dab4	-0.19712335
171	0x3e3ad4f6	0.182453
172	0xbe5bd22a	-0.2146689
173	0xbd7b0d28	-0.061291844
174	0x3ddc0480	0.10743046
175	0x3e39f084	0.18158156
176	0x3e298926	0.16556224
177	0x3db50d94	0.088404804
178	0xbdbc8cfc	-0.09206578
179	0xbe3e39ee	-0.18576786
180	0x3de27bf8	0.110588014
181	0x3dbec360	0.093146086
182	0xbe7680a6	-0.24072513
183	0x3e279ea0	0.16369104
184	0xbe5e2f44	-0.21697718
185	0x3ddaab68	0.106772244
186	0xbdb0b6b4	-0.08628598
187	0xbe20198e	-0.15634748
188	0x3dc34644	0.095348865
189	0xbe7009a2	-0.23441175
190	0x3e6db49a	0.23213425
191	0xbdda7810	-0.10667431
192	0x3d7d1488	0.06178716
193	0xbd9c805c	-0.0764167
194	0xbd315f00	-0.04330349
195	0xbd8a7550	-0.06760657
196	0x3e257530	0.16157985
197	0xbe69838c	-0.22804087
198	0xbde3210c	-0.110902876
199	0x3df24040	0.11828661
200	0x3d87ace8	0.06624776
201	0x3e3192e0	0.17341185
202	0x3e182500	0.14857864
203	0xbc1c5460	-0.009541601
204	0xbe56e972	-0.2098749
205	0xbe713162	-0.23553994
206	0xbe28429e	-0.16431662
207	0x3e4fcd50	0.20293164
208	0xbd5fb340	-0.054614305
209	0x3c16d700	0.009206533
210	0xbdb9fe40	-0.090816975
211	0xbdb6c6cc	-0.08924636
212	0xbe433b42	-0.19065574
213	0xbe7fd222	-0.24982503
214	0x3e7aa8a4	0.24478394
215	0x3e4d81da	0.20069066
216	0x3dba51d4	0.09097639
217	0xba003e00	-0.0004892051
218	0xbd8eaf00	-0.06966972
219	0x3e1e02e8	0.15430796
220	0x3e7bcb92	0.24589375
221	0x3e1a81f2	0.15088633
222	0xbe215db2	-0.15758398
223	0x3d172890	0.036903918
224	0x3e2b7510	0.16743875
225	0x3e784f14	0.24248916
226	0xbdfaa058	-0.122376144
227	0xbdb1d10c	-0.08682451
228	0xbe07084a	-0.13186756
229	0xbe6c0d02	-0.23051837
230	0xbe7c8f32	-0.24664
231	0xbe740ac2	-0.23832229
232	0x3dc48168	0.09594995
233	0x3e7d2f40	0.24725056
234	0xbd88b0a0	-0.066743135
235	0x3dc1c5e8	0.09461576
236	0xbda6e700	-0.081495285
237	0xbdfc3084	-0.12313941
238	0xbe220f70	-0.15826201
239	0x3d072dd8	0.033002704
240	0x3dcf60ec	0.10125908
241	0x3e24987e	0.16073796
242	0x3c41c880	0.011827588
243	0xbdc0eff0	-0.094207644
244	0x3e0e0122	0.1386762
245	0xbd9b6890	-0.07588303
246	0xbe70dc6c	-0.23521584
247	0xbd9dabd4	-0.07698789
248	0xbb206380	-0.002447337
249	0x3d18a870	0.03727001
250	0xbe751224	-0.23932701
251	0xbdebfd70	-0.11522949
252	0x3e5f9ec6	0.21837911
253	0xbe729c9e	-0.23692557
254	0x3cbd3020	0.023094237
255	0x3e5ca79e	0.21548316

bias f4 [16]
0	0xbe5f503c	-0.2180795
1	0x3e63661c	0.2220692
2	0x3db5f590	0.08884728
3	0xbe10c674	-0.14138204
4	0x3d5d2828	0.053993374
5	0xbd2e8e78	-0.042616338
6	0x3d29f598	0.041493982
7	0xbd740e08	-0.059583694
8	0xbe30bbf2	-0.17259195
9	0xbe6ee83a	-0.23330775
10	0x3e509690	0.20369935
11	0x3dcf784c	0.10130367
12	0x3dafb2d8	0.085790336
13	0xbdb1a1f8	-0.08673471
14	0x3e22a9a4	0.15885025
15	0x3c97ab50	0.018514305

weight f4 [16, 16]
0	0x3c93b840	0.018032193
1	0x3e07088a	0.13186851
2	0xbda5d964	-0.080981046
3	0x3d77e798	0.0605236
4	0xbe68e652	-0.2274411
5	0xbcec5940	-0.028851151
6	0x3e14ff80	0.1455059
7	0x3e6722f0	0.22571921
8	0x3db53eec	0.08849892
9	0xbd81bea0	-0.06335187
10	0xbda3388c	-0.0796977
11	0xbd6e6ad8	-0.058207363
12	0xbd14d900	-0.03633976
13	0x3e382790	0.17983842
14	0x3e5d2fca	0.21600261
15	0x3e0a6da2	0.13518384
16	0xbdbefae8	-0.093252
17	0xbdb34f78	-0.08755392
18	0x3bb5fd40	0.0055538714
19	0x3e22f5f2	0.15914133
20	0xbe667444	-0.2250529
21	0x3d4e4548	0.05035904
22	0xbdfabb28	-0.122427285
23	0xbe4d3c82	-0.20042613
24	0x3e44e79c	0.19228977
25	0xbd9d1ae4	-0.076711446
26	0xbc363320	-0.011120588
27	0xbe108240	-0.14112186
28	0x3da5c950	0.08095038
29	0x3d899b10	0.06719029
30	0xbe5ea1f0	-0.21741462
31	0x3ded8f6c	0.11599621
32	0x3dc25710	0.09489262
33	0x3da310dc	0.079622
34	0x3e755a34	0.23960191
35	0xbe074e7a	-0.1321353
36	0x3d701448	0.05861309
37	0x3ca201d0	0.019776255
38	0x3d1f2428	0.03885284
39	0x3dccf2b0	0.100072265
40	0x3d8d3884	0.06895545
41	0x3e31528c	0.17316645
42	0xbdd89f68	-0.10577279
43	0xbe765ba2	-0.24058393
44	0x3e7cd930	0.24692225
45	0xbe440296	-0.19141611
46	0xbd98aff8	-0.074554384
47	0x3bd46200	0.006481409
48	0x3e40a304	0.18812186
49	0x3de3fb98	0.11131972
50	0x3b5e4780	0.003391713
51	0xbe698756	-0.22805533
52	0x3e4be204	0.19910437
53	0xbc1ddc20	-0.009635001
54	0x3e1fd746	0.15609464
55	0x3d847fd0	0.06469691
56	0xbe01d1c8	-0.12677681
57	0xbd8dfaac	-0.069325775
58	0x3dd20e1c	0.102565974
59	0x3d94d2d8	0.07266778
60	0xbe4b3068	-0.19842684
61	0x3e53962e	0.20662758
62	0x3e77f238	0.24213493
63	0x3e7f67f8	0.24942005
64	0xbd69a588	-0.05704263
65	0x3ae14400	0.0017186403
66	0x3cdf1400	0.027231216
67	0xbd343500	-0.043995857
68	0x3e4705ac	0.19435757
69	0x3e251978	0.16122997
70	0xbe6d1a98	-0.23154676
71	0x3d2f5ee8	0.04281512
72	0x3e60b72e	0.21944878
73	0x3990d400	0.00027623773
74	0x3d07d2d0	0.03316003
75	0xbe40cbc8	-0.18827736
76	0xbcf23230	-0.029564947
77	0xbe2c9ee2	-0.16857484
78	0x3da57348	0.08078629
79	0xbe12e784	-0.14346129
80	0x3d77c400	0.060489655
81	0x3d78a110	0.060700476
82	0x3e7fe2a4	0.249888
83	0x3cd78030	0.026306242
84	0xbe6e7cca	-0.23289791
85	0x3d8037bc	0.062606305
86	0xbc1398a0	-0.009008557
87	0xbc00fe20	-0.007873088
88	0xbe7546ec	-0.23952836
89	0xbe368c66	-0.17826995
90	0xbe50ecf0	-0.20402884
91	0xbd35ee90	-0.044416964
92	0xbd2b7058	-0.041855186
93	0xbd8090bc	-0.06277606
94	0x3e691af0	0.22764182
95	0xbe71a118	-0.23596609
96	0x3c87f790	0.01659754
97	0xbe2bfd66	-0.16795883
98	0x3e4697ce	0.19393846
99	0xbdb0e9c8	-0.0863834
100	0x3de941e4	0.11389521
101	0xbd5e47d0	-0.054267704
102	0xbcc86cc0	-0.024465919
103	0xbe145fb8	-0.14489639
104	0xbd33eb00	-0.043925285
105	0xbdbc4b74	-0.09194079
106	0x3d52b330	0.051440418
107	0xbe27548c	-0.16340846
108	0x3e2e896e	0.17044613
109	0x3c7fb020	0.015605956
110	0xbdbf352c	-0.093363136
111	0x3dddae40	0.10824251
112	0x3e532b38	0.20621955
113	0x3e48855e	0.19582126
114	0x3d1bf888	0.038078815
115	0xbdb66020	-0.08905053
116	0xbe2a1904	-0.16611105
117	0x3db182dc	0.086675376
118	0x3dfcaa8c	0.12337217
119	0xbe62a34a	-0.22132602
120	0xbe571a56	-0.2100614
121	0x3e16c112	0.14722088
122	0xbe77d0d0	-0.2420075
123	0x3ca74b10	0.020421535
124	0x3ddabac8	0.10680157
125	0xbe6013ac	-0.21882504
126	0xbe212862	-0.15738061
127	0x3d040478	0.032230824
128	0xbe07146c	-0.13191384
129	0xbe28ff36	-0.16503605
130	0x3c958620	0.018252432
131	0xbc583540	-0.01319629
132	0xbe6d7266	-0.23188171
133	0x3de0d4a0	0.10978055
134	0x3cc1aa20	0.023640692
135	0xbca8ebd0	-0.020620257
136	0x3d2ad668	0.04170838
137	0x3e283aa6	0.16428623
138	0xbe4af472	-0.19819811
139	0xbe3d4402	-0.18482974
140	0x3e589200	0.21149445
141	0xbd247bb0	-0.04015702
142	0xbe5f1cc2	-0.21788314
143	0xbe0b0b1e	-0.1357846
144	0xbd4edfc0	-0.050506353
145	0xbe7da8ae	-0.24771377
146	0xbc142ba0	-0.009043604
147	0x3dba2c28	0.090904534
148	0xbdb5c520	-0.08875489
149	0xbc48ba40	-0.012251437
150	0xbd33c2a8	-0.04388681
151	0x3de1cb94	0.110251576
152	0xbcda5190	-0.02665022
153	0x3e228b68	0.15873492
154	0xbdcaa754	-0.098951966
155	0xbd6f4d40	-0.05842328
156	0x3d18bc28	0.037288815
157	0xbe35d8dc	-0.17758507
158	0xbddb1e1c	-0.10699102
159	0xbddbafa0	-0.10726857
160	0x3d352190	0.04422146
161	0x3d9e74a8	0.07737094
162	0x3e720912	0.23636273
163	0x3e2fc960	0.17166662
164	0x3e7cf5ce	0.24703142
165	0x3e20a03a	0.15686122
166	0xbe39178e	-0.18075392
167	0xbe6cc74e	-0.23122904
168	0x3e6dbb18	0.23215902
169	0x3e046f58	0.129331
170	0x3e7806da	0.24221364
171	0xbda460a4	-0.08026245
172	0x3ba86c80	0.0051398873
173	0x3df2b7b8	0.11851448
174	0x3cebf570	0.028803557
175	0xbe1b9948	-0.15195191
176	0x3c534200	0.012894154
177	0x3ca4ffd0	0.020141512
178	0x3d840920	0.06447053
179	0x3e2111c6	0.15729436
180	0xbd3200e0	-0.043457866
181	0xbdb00c70	-0.08596122
182	0x3e3ef996	0.18649897
183	0x3d1ef240	0.038805246
184	0x3e485ebe	0.19567391
185	0x3d87fc50	0.06639922
186	0xbe451642	-0.19246772
187	0xbe307858	-0.17233407
188	0xbe45aff2	-0.19305399
189	0x3e65242c	0.2237708
190	0x3ddc548c	0.107583135
191	0x3d7ebb70	0.062190473
192	0x3e4c4802	0.19949344
193	0xbe7df182	-0.24799159
194	0xbd8ba590	-0.06818688
195	0xbc270240	-0.010193408
196	0x3e388eb0	0.18023181
197	0xbe275b24	-0.16343361
198	0xbe2029e8	-0.15640986
199	0x3e3ef210	0.18647027
200	0xbe32fc56	-0.17479071
201	0xbbba7e80	-0.0056913495
202	0xbe159a36	-0.14609608
203	0xbe0334ca	-0.12813106
204	0xbe78b5fc	-0.24288172
205	0xbdec0be4	-0.115257055
206	0xbd9205c4	-0.07130006
207	0x3e58ebc8	0.21183693
208	0xbd018498	-0.031620592
209	0xbe5fcf88	-0.2185651
210	0xbe46f1e6	-0.19428214
211	0xbd37a4f0	-0.04483503
212	0x3e75fa78	0.24021327
213	0x3e13e0ce	0.14441225
214	0xbdad6ce4	-0.08468035
215	0xbd189cd8	-0.037258953
216	0x3d734f28	0.05940166
217	0xbe303e1e	-0.17211196
218	0x3e088de2	0.13335374
219	0xbe0a8bcc	-0.13529891
220	0xbde071fc	-0.10959241
221	0xbe606962	-0.219152
222	0x3c5b4aa0	0.013384491
223	0x3e7ba818	0.24575841
224	0x3da1b770	0.07896316
225	0xbe3ecb96	-0.1863235
226	0xbe1916c8	-0.14950097
227	0xbd8ce2c8	-0.068791926
228	0x3d11ae48	0.0355666
229	0xbdf1c24c	-0.11804637
230	0xbe1b853c	-0.15187544
231	0x3d92e34c	0.0717226
232	0x3dd01ea4	0.10162094
233	0x3b229c00	0.0024812222
234	0x3e21c510	0.1579783
235	0xbcf815a0	-0.03028375
236	0x3e1aa95c	0.15103668
237	0xbd00f1f8	-0.03148076
238	0x3e1d50a8	0.15362799
239	0xbcc7dff0	-0.024398774
240	0xbe55b536	-0.20869908
241	0x3db51d5c	0.088434905
242	0x3e637316	0.2221187
243	0xbe3e1188	-0.18561375
244	0x3d411af8	0.04714486
245	0xbda8471c	-0.08216688
246	0xbb807f80	-0.003921449
247	0xbe67622e	-0.22596046
248	0xbe27e0ca	-0.16394344
249	0xbe65fb5c	-0.22459167
250	0xbe7dfffa	-0.24804679
251	0x3ded96c8	0.11601025
252	0x3cefba70	0.029263705
253	0x3d1ef9e8	0.038812548
254	0x3e74da80	0.23911476
255	0xbe76160a	-0.24031845

bias f4 [16]
0	0xbe12494e	-0.14285776
1	0xbdbd5b48	-0.09245926
2	0x3d9b8384	0.07593444
3	0xbe60b964	-0.21945721
4	0x3d3470e0	0.04405296
5	0x3dd18a80	0.10231495
6	0x3e275a9c	0.16343158
7	0x3da26e38	0.07931179
8	0xbe10e9c4	-0.14151675
9	0x3da5e3e4	0.08100107
10	0xbe189b00	-0.14902878
11	0x3e5876a6	0.21139011
12	0xbe52cc2c	-0.20585698
13	0xbcedf8e0	-0.029049337
14	0xbe421ee2	-0.18957093
15	0xbc849a10	-0.016186744

weight f4 [16, 16]
0	0xbda4549c	-0.080239505
1	0xbd8bb6e8	-0.06821996
2	0x3ddf627c	0.10907456
3	0x3c2efbc0	0.010680139
4	0xbd696fa0	-0.05699122
5	0x3b954bc0	0.0045561492
6	0xbe3966e0	-0.1810565
7	0xbe246310	-0.16053414
8	0xbe3a8b68	-0.18217242
9	0xbdb444e4	-0.08802202
10	0x3e1f17ee	0.15536472
11	0x3e1cb710	0.15304208
12	0xbe42a098	-0.19006574
13	0x3e1d119c	0.15338749
14	0xbe542082	-0.20715526
15	0xbe65b6fc	-0.22433084
16	0x3e0e4b3c	0.13895887
17	0xbe1c65fc	-0.15273279
18	0xbce37a30	-0.027768224
19	0xbe078432	-0.13234022
20	0x3d208a00	0.039194107
21	0x3e13bc00	0.14427185
22	0x3cfbf6d0	0.030757338
23	0xbe1d6e06	-0.15374002
24	0x3e6ac2e6	0.2292591
25	0x3e7da12a	0.2476851
26	0x3d41d8a8	0.04732576
27	0xbd657740	-0.05602193
28	0xbdbe4e88	-0.092923224
29	0xbe00d396	-0.12580714
30	0x3e2ca00e	0.16857931
31	0x3e7c6522	0.24647954
32	0xbd3188e8	-0.043343455
33	0x3e3ad76c	0.1824624
34	0xbdc0ba28	-0.094105065
35	0xbe574da2	-0.21025708
36	0xbe35bf70	-0.17748809
37	0xbe32e7c2	-0.17471221
38	0x3e26808c	0.16259974
39	0xbe2f11bc	-0.17096609
40	0xbe6d2c0c	-0.23161334
41	0xbe3aa2e8	-0.18226206
42	0xbde68bf0	-0.1125716
43	0x3e5d7c26	0.2162939
44	0x3e7d90e2	0.247623
45	0xbd6a5258	-0.057207435
46	0xbe3f5e66	-0.18688354
47	0x3da90cc0	0.08254385
48	0xbe60392a	-0.21896806
49	0x3da8ab3c	0.08235785
50	0x3e765e4a	0.24059406
51	0xbd2dc680	-0.042425632
52	0x3d855868	0.06511003
53	0x3da48dd0	0.08034861
54	0x3e6cdbd8	0.23130739
55	0xbdea922c	-0.11453661
56	0xbe7e74ea	-0.24849287
57	0x3da0863c	0.07838103
58	0x3d50bd38	0.050961703
59	0x3d1214f0	0.0356645
60	0xbe455350	-0.19270062
61	0x3e10bef0	0.14135337
62	0xbe7d3728	-0.24728072
63	0x3e066f2c	0.13128346
64	0xbe6d25c8	-0.23158944
65	0x3e70dd58	0.23521936
66	0x3d82f6d8	0.06394738
67	0xbe0b132c	-0.13581532
68	0xbc790700	-0.015199423
69	0xbdae13ec	-0.084998935
70	0xbe33dd5a	-0.17564908
71	0x3e319894	0.1734336
72	0x3de03998	0.10948485
73	0x3dceaa9c	0.10091135
74	0xbd577d98	-0.05261001
75	0xbe7caf3e	-0.24676225
76	0xbdfdca08	-0.1239205
77	0x3e3684a2	0.17824033
78	0xbe11c46e	-0.14235088
79	0x3d423370	0.047412336
80	0x3dc5b158	0.09652966
81	0xbe47c926	-0.19510326
82	0xbcd40b40	-0.02588427
83	0xbd6a7ce0	-0.057247996
84	0x3dab228c	0.08356199
85	0x3e0d5b14	0.13804275
86	0xbcce3c10	-0.025175124
87	0x3dc409f8	0.09572214
88	0xbe0bc708	-0.13650143
89	0x3d8a3b0c	0.067495435
90	0x3e22434e	0.15845987
91	0xbe07fb10	-0.13279366
92	0x3e5ad9a8	0.21372092
93	0xbcb47cd0	-0.022032171
94	0xbd93290c	-0.071855634
95	0x3e75a71e	0.23989531
96	0x3e3f8f1c	0.18706936
97	0xbe55b052	-0.20868042
98	0xbccee040	-0.025253415
99	0xbddff128	-0.10934669
100	0xbe03c76c	-0.12869042
101	0x3e1da0f2	0.15393427
102	0x3e14a6c0	0.14516735
103	0x3d86dc5c	0.06584999
104	0xbe4d1684	-0.2002812
105	0x3e40c376	0.18824562
106	0xbe1f355c	-0.15547699
107	0xbdef4d60	-0.1168468
108	0x3e705c5a	0.2347273
109	0xbe1e9238	-0.15485466
110	0xbd48f8e8	-0.0490655
111	0xbe0bb710	-0.13644052
112	0xbd8c1fd0	-0.06842005
113	0x3e55f780	0.20895195
114	0xbdb7bcac	-0.08971533
115	0xbe0a8634	-0.13527757
116	0x3c9885e0	0.018618524
117	0xbd0c3920	-0.034234166
118	0x3e6f89b0	0.23392367
119	0xbe344aba	-0.17606631
120	0xbdf6f3bc	-0.120582074
121	0xbe555990	-0.20834947
122	0xbcdb4290	-0.026765138
123	0x3da3ed20	0.080042124
124	0xbe3eb34e	-0.18623087
125	0xbe0dc0ce	-0.1384308
126	0xbe5ef8a4	-0.21774536
127	0x3e19ddec	0.15026063
128	0xbd0b0810	-0.033943236
129	0xbe07ed58	-0.13274133
130	0x3de9c0c4	0.1141372
131	0x3d912650	0.07087386
132	0xbdef2be0	-0.1167829
133	0x3e2c58f8	0.16830814
134	0x3cc5ec90	0.024160653
135	0xbdbb648c	-0.09150037
136	0xbc8355f0	-0.01603219
137	0x3e5b05d8	0.21388948
138	0x3ca338b0	0.019924492
139	0xbdc752c8	-0.09732586
140	0x3e46dc2c	0.19419926
141	0xbdc4aa58	-0.09602803
142	0x3d4bf998	0.049798578
143	0x3e35693e	0.17715928
144	0x3de1c108	0.11023146
145	0xbe310f86	-0.17291078
146	0x3e1bbf06	0.15209588
147	0xbd806a1c	-0.06270239
148	0x3c105000	0.008808136
149	0x3e68a5b8	0.22719467
150	0xbe7101e2	-0.23535874
151	0x3e4a4b26	0.1975523
152	0xbe05ebce	-0.13078234
153	0xbd79a1b0	-0.060945213
154	0xbe098866	-0.13430938
155	0x3e0173fc	0.12641901
156	0x3c89f920	0.016842425
157	0x3e3d710e	0.18500158
158	0xbe4b5e90	-0.19860291
159	0xbd458450	-0.048221886
160	0xbe1bd916	-0.1521953
161	0x3dec9fe8	0.11553937
162	0xbe511ab0	-0.20420337
163	0xbd99f9c0	-0.07518339
164	0xbe5a9f58	-0.21349847
165	0x3e2147c8	0.15750039
166	0x3de61354	0.11234155
167	0x3ca5da50	0.020245701
168	0xbd8a12f8	-0.06741899
169	0x3d0c9158	0.034318298
170	0x3e017550	0.12642407
171	0x3e748050	0.23877072
172	0xbb613280	-0.0034362376
173	0xbe2778ca	-0.16354671
174	0xbdff6154	-0.12469736
175	0xbd29a640	-0.041418314
176	0xbe54243e	-0.2071695
177	0xbd815b84	-0.06316283
178	0xbd21a948	-0.03946808
179	0xbddbcdac	-0.10732588
180	0xbdae1158	-0.08499402
181	0x3df377c0	0.11888075
182	0xbe648520	-0.22316408
183	0x3e7c2a2a	0.2462546
184	0x3e0045a2	0.12526563
185	0xbe2d2a42	-0.16910651
186	0xbe0855e8	-0.1331402
187	0x3e4dd208	0.20099652
188	0xbe1a351e	-0.15059325
189	0xbca36f20	-0.01995045
190	0x3d7b6b08	0.06138137
191	0xbceaf200	-0.028679848
192	0xbb957ec0	-0.004562229
193	0xbe6c3058	-0.23065317
194	0x3d1c09f8	0.038095444
195	0xbdea8438	-0.11451
196	0xbe04b194	-0.12958366
197	0x3d7bf950	0.06151706
198	0xbe342f0c	-0.17596072
199	0xbe581b62	-0.21104196
200	0x3df85ab0	0.12126672
201	0x3e679692	0.22616032
202	0x3e217958	0.15768945
203	0x3e6ab1f6	0.22919449
204	0xbcb09230	-0.021554083
205	0x3e18e45e	0.14930865
206	0x3c986ce0	0.018606603
207	0xbe2668d6	-0.16250929
208	0xbe229cb0	-0.15880084
209	0x3dc61df0	0.09673679
210	0xbe3ec910	-0.18631387
211	0xbe133ba0	-0.14378214
212	0x3df25bbc	0.11833903
213	0x3e6b6a06	0.22989663
214	0xbde3fa38	-0.1113171
215	0xbe1e30be	-0.15448281
216	0xbe576626	-0.2103506
217	0xbe7f7f76	-0.24950966
218	0x3e7abfc4	0.24487215
219	0xbdce4158	-0.10071057
220	0xbd40d838	-0.047081202
221	0xbe2086ec	-0.15676469
222	0xbe654d7e	-0.22392842
223	0x3e2ea92e	0.17056724
224	0x3e171c7e	0.14756963
225	0xbd94ce18	-0.07265872
226	0xbd953eb4	-0.0728735
227	0x3d22d138	0.039750308
228	0x3e5193c8	0.2046653
229	0xbde0eb64	-0.10982397
230	0x3e7d36f4	0.24727994
231	0x3e10486e	0.1409013
232	0xbcf54a00	-0.029942513
233	0xbe400d7e	-0.18755147
234	0x3e5e3638	0.2170037
235	0xbe02ff36	-0.12792668
236	0xbcd72100	-0.026260853
237	0xbd47f820	-0.048820615
238	0xbe36cbb8	-0.1785115
239	0x3da09b18	0.07842082
240	0x3d923008	0.071380675
241	0xbd9178f8	-0.07103151
242	0xbdfbadd0	-0.122890115
243	0x3d5816c8	0.0527561
244	0x3dcf375c	0.10117981
245	0x3e511d6c	0.2042138
246	0xbe40c558	-0.1882528
247	0xbe130036	-0.14355549
248	0xbdc6d0dc	-0.097078055
249	0x3db62df0	0.08895481
250	0x3e56b1c8	0.20966256
251	0xbe7e33e0	-0.24824476
252	0xbe125d34	-0.14293367
253	0x3e0ae11a	0.13562432
254	0x3c7b9a40	0.0153566
255	0xbddac5d4	-0.10682264

bias f4 [16]
0	0xbe1ffade	-0.15623042
1	0xbcb71340	-0.022348046
2	0xbd99073c	-0.07472083
3	0xbe77f08e	-0.24212858
4	0xbde4345c	-0.11142799
5	0xbcef8fa0	-0.02924329
6	0xbde4ce5c	-0.111721724
7	0x3e4654e8	0.19368327
8	0x3de30f0c	0.11086854
9	0xbe17e016	-0.14831576
10	0xbd1e6ee8	-0.038679987
11	0xbdb86994	-0.090045124
12	0xb992ec00	-0.00028023124
13	0xbe1d197e	-0.15341756
14	0xbe5dd00a	-0.21661392
15	0xbd4f73a0	-0.050647378

weight f4 [16, 16]
0	0x3dd91dd8	0.10601395
1	0xbd2895f0	-0.041158617
2	0x3e4e90ae	0.20172378
3	0xbdbfb374	-0.093604
4	0xbe5c5306	-0.21516046
5	0x3e1c146e	0.15242168
6	0xbd8499d4	-0.06474653
7	0x3cda1180	0.026619673
8	0xbe4ca81c	-0.19986004
9	0xbdce8714	-0.10084358
10	0xbe15c9fe	-0.14627835
11	0xbdcb25c0	-0.099193096
12	0x3e759e38	0.23986137
13	0x3e371f94	0.1788314
14	0xbd6dafe8	-0.058029085
15	0x3ddc3648	0.10752541
16	0xbe3c4ef2	-0.1838949
17	0x3d385590	0.045003474
18	0xbdf97234	-0.12179986
19	0x3cf94380	0.030427694
20	0x3d8d3434	0.068947226
21	0xbda38a8c	-0.0798541
22	0xbd9962bc	-0.07489535
23	0x3e2fd0ca	0.1716949
24	0x3d0aa510	0.033848822
25	0x3e45e000	0.1932373
26	0xbdaf2bd8	-0.085532844
27	0x3db1cec4	0.086820155
28	0x3d82fdbc	0.06396052
29	0x3e572df0	0.21013618
30	0xbe6057ce	-0.21908495
31	0xbe25068a	-0.16115776
32	0x3de0ce4c	0.10976848
33	0x3e38e40e	0.18055746
34	0x3c9e61e0	0.01933378
35	0x38f30000	0.00011587143
36	0xbe5fff0e	-0.2187464
37	0x3c912610	0.017718345
38	0xbe214b10	-0.1575129
39	0x3cd50510	0.02600339
40	0x3e09e84a	0.13467517
41	0xbe1656ee	-0.14681599
42	0x3ce3e1a0	0.027817547
43	0x3dee747c	0.116433114
44	0xbd98b218	-0.07455844
45	0xbe7861ca	-0.24256054
46	0x3dd2f070	0.10299766
47	0xbdc7f288	-0.09763056
48	0x3e7483f8	0.23878467
49	0x3cb737b0	0.022365421
50	0xbe406e58	-0.18792093
51	0x3c04c500	0.008103609
52	0xbdae0ad4	-0.08498159
53	0x3db4db1c	0.08830854
54	0x3e7d69b8	0.2474736
55	0x3e0b601c	0.13610882
56	0x3e518fd8	0.20465028
57	0x3dc7c124	0.097536355
58	0xbe787328	-0.24262679
59	0x3e55b35c	0.20869201
60	0x3e41f3d4	0.1894067
61	0x3e20b2a6	0.15693149
62	0xbe4330b8	-0.19061553
63	0x3df3c998	0.11903685
64	0x3b54ec00	0.00324893
65	0x3e4df7da	0.20114079
66	0x3e68ff8e	0.22753736
67	0xbdba8a08	-0.091083586
68	0x3c7a2dc0	0.015269697
69	0x3e743f7a	0.2385234
70	0xbda4f7e4	-0.08055094
71	0xbc14f360	-0.009091228
72	0xbde803c4	-0.11328843
73	0xbc3da6a0	-0.011575371
74	0xbe2d5fc2	-0.1693106
75	0xbe5e4c2a	-0.21708742
76	0x3e781ac0	0.24228954
77	0x3e03f7d0	0.12887502
78	0xbe661d3a	-0.22472087
79	0xbe25dcee	-0.16197559
80	0xbdf79330	-0.12088621
81	0x3e4f0114	0.20215255
82	0xbe294b68	-0.16532671
83	0xbdd845b0	-0.10560167
84	0x3de2a1b4	0.11065999
85	0xbe461ef0	-0.19347739
86	0xbdcd77d0	-0.10032618
87	0x3d1b45e0	0.037908435
88	0x3dcb5388	0.09928042
89	0xbe241a76	-0.16025719
90	0xbdb576d8	-0.08860558
91	0xbe115e68	-0.1419617
92	0x3e06b3e2	0.13154557
93	0xbe709da4	-0.23497635
94	0x3dec7428	0.115455925
95	0x3d680300	0.056643486
96	0xbe4bf778	-0.1991862
97	0x3e212704	0.1573754
98	0x3d9bc53c	0.07605979
99	0xbe12b474	-0.1432665
100	0x3d2b0cf8	0.041760415
101	0xbe38603c	-0.1800546
102	0x3e3a48ca	0.1819183
103	0xbe116384	-0.14198118
104	0xbdd0b8b8	-0.10191482
105	0x3df8fc74	0.121575266
106	0x3e7fcd06	0.24980554
107	0x3d846920	0.064653635
108	0xbe2ee464	-0.17079312
109	0xbe7045a6	-0.23464069
110	0xbe4b0c9c	-0.19829029
111	0xbd574360	-0.05255449
112	0xbe6bb596	-0.23018488
113	0xbc9e3ef0	-0.01931712
114	0xbca51430	-0.020151228
115	0x3d8700bc	0.06591937
116	0xbe497766	-0.19674453
117	0x3e36a244	0.17835337
118	0x3d2fa250	0.042879403
119	0xbc1f72c0	-0.009731948
120	0x3d54a070	0.051910818
121	0x3c313d20	0.010817796
122	0x3e62c358	0.2214483
123	0xbd9a3840	-0.0753026
124	0xbdbafe78	-0.09130567
125	0xbdc4e2e0	-0.096135855
126	0x3c035d40	0.008017838
127	0x3e6fce5a	0.2341856
128	0x3e74acd4	0.23894054
129	0xbd0cff10	-0.034422934
130	0xbe501476	-0.20320305
131	0xbe36c04e	-0.17846796
132	0xbd411940	-0.04714322
133	0x39772800	0.00023570657
134	0xbe090964	-0.13382488
135	0xbe1b789a	-0.15182725
136	0xbd830f80	-0.06399441
137	0x3cde2e50	0.027121693
138	0x3e67a7b2	0.22622564
139	0x3dcac084	0.09900001
140	0x3e0d4624	0.13796288
141	0xbe3c4a5c	-0.18387741
142	0xbcb03180	-0.021507978
143	0xbdad3a74	-0.08458415
144	0xbe12de28	-0.14342558
145	0xbe23ae96	-0.15984568
146	0xbe3c36ee	-0.18380329
147	0x3e75ecf4	0.24016172
148	0xbda3adc8	-0.079921305
149	0x3e0400e0	0.12890959
150	0x3defa444	0.11701253
151	0x3dde5484	0.10855964
152	0x3e10066a	0.14064947
153	0xbe5e54f0	-0.21712089
154	0xbd6fb810	-0.058525145
155	0x3b5b3500	0.0033448339
156	0xbdf89f48	-0.121397555
157	0x3ddf9780	0.10917568
158	0xbe744c92	-0.23857334
159	0x3e7ef30a	0.248974
160	0x3d8bbe58	0.068234146
161	0x3e051b46	0.12998685
162	0x3e5fd7f8	0.2185973
163	0x3d8cf538	0.06882709
164	0x3c8cf510	0.017206699
165	0xbe33636a	-0.17518392
166	0xbe5482e0	-0.2075305
167	0x3e788974	0.24271184
168	0x3e42da9a	0.19028702
169	0xbd9ef618	-0.077617824
170	0x3da574f4	0.08078948
171	0x3e44edce	0.1923134
172	0x3e12ac7a	0.14323607
173	0xbe13305c	-0.14373916
174	0xbd2bba38	-0.04192564
175	0x3e3f2db4	0.18669778
176	0xbbea5300	-0.0071510077
177	0x3be19340	0.0068840086
178	0x3dbcdc34	0.09221688
179	0x3e6cf0a4	0.23138672
180	0x3da15c00	0.07878876
181	0xbd1a4de8	-0.037671953
182	0x3dc4364c	0.09580669
183	0x3a1fc600	0.0006094873
184	0xbe7ac526	-0.24489269
185	0xbe67ffe2	-0.22656205
186	0x3e0b0a0a	0.13578048
187	0x3e02301a	0.12713662
188	0xbdd10fcc	-0.10208091
189	0xbc6ef400	-0.014584541
190	0xbdbef300	-0.09323692
191	0xbd166ce0	-0.036724925
192	0x3e6094e4	0.21931797
193	0xbc861dd0	-0.016371638
194	0xbe4be5c8	-0.19911873
195	0x3d8da9c0	0.06917143
196	0x3d06c4f0	0.032902658
197	0xbe7b6e5a	-0.24553815
198	0xbe247e1e	-0.16063735
199	0x3de0bb50	0.10973227
200	0x3e39b3de	0.1813502
201	0x3dc7b54c	0.097513765
202	0xbe4a5c24	-0.19761711
203	0xbd9f4474	-0.07776728
204	0xbe7f077a	-0.24905196
205	0x3e3f0f56	0.18658194
206	0xbe45882a	-0.19290224
207	0x3cc11a30	0.023572057
208	0x3d4fa868	0.050697714
209	0x3e69150e	0.22761938
210	0x3e0b73d8	0.1361841
211	0xbd6d0fa8	-0.05787626
212	0xbd7199b0	-0.05898446
213	0xbe3b6574	-0.1830042
214	0xbd717588	-0.058949977
215	0x3d60cc58	0.054882377
216	0xbdc84db4	-0.09780446
217	0xbc432b40	-0.011912167
218	0xbe0633d0	-0.13105702
219	0x3caf9920	0.02143532
220	0xbe500d56	-0.20317587
221	0x3ddeee44	0.10885289
222	0xbe27c69c	-0.16384357
223	0xbae87c00	-0.001773715
224	0x3df9fffc	0.12207028
225	0x3ce236b0	0.027613968
226	0xbe1d09ae	-0.15335724
227	0xbe48ef3c	-0.1962251
228	0xbdf6a6c0	-0.12043524
229	0x3e109e5a	0.14122906
230	0x3e0ca906	0.13736352
231	0xbd85d434	-0.06534615
232	0xbe59c56e	-0.2126672
233	0x3e6749ea	0.2258679
234	0x3d8c3de8	0.06847745
235	0xbcff0a80	-0.031132936
236	0x3d694e58	0.05695948
237	0x3e775ece	0.24157259
238	0xbe037fc0	-0.12841702
239	0xbd9234a8	-0.0713895
240	0xbc38bba0	-0.011275202
241	0x3e731cbc	0.2374143
242	0xbd9739f8	-0.073841035
243	0xbddd97bc	-0.10819957
244	0x3e453524	0.19258553
245	0x3e1745c0	0.14772701
246	0x3e6a9a96	0.22910532
247	0xbdb03200	-0.08603287
248	0x3d374250	0.044740975
249	0x3e272374	0.16322118
250	0xbe3de160	-0.18543005
251	0xbe2cfa28	-0.16892302
252	0xbe2d9b4a	-0.1695377
253	0xbe13a370	-0.14417815
254	0x3de41ef0	0.11138713
255	0xbcdcf960	-0.02697438

bias f4 [16]
0	0x3e68d5b2	0.22737768
1	0xbd82c70c	-0.063856214
2	0xbe401416	-0.18757662
3	0xbc9e1aa0	-0.019299805
4	0x3e63bba8	0.22239554
5	0x3e2d30fc	0.16913217
6	0xbd833ba0	-0.06407857
7	0xbe161a2c	-0.14658421
8	0x3e16a48c	0.14711207
9	0x3c7aebc0	0.015314996
10	0x3d71bb90	0.059016764
11	0xbcf88d80	-0.03034091
12	0xbe0bbbd4	-0.1364587
13	0xbe194b4a	-0.14970127
14	0xbdd0fb48	-0.10204178
15	0x3db2006c	0.08691487

weight f4 [16, 16]
0	0xbd0e9308	-0.03480819
1	0xbdf69ff0	-0.120422244
2	0x3e1afb8c	0.1513502
3	0x3e5e6d9c	0.217215
4	0x3d33ac70	0.04386562
5	0xbb0f7d00	-0.0021894574
6	0xbe5668da	-0.20938435
7	0x3e30798c	0.17233866
8	0xbe2f7b3a	-0.17136851
9	0xbd5d1a90	-0.05398041
10	0xbd7c0de0	-0.06153667
11	0x3dec0e64	0.11526182
12	0x3e7285f2	0.23683909
13	0xbe5fdb78	-0.21861064
14	0x3e088d46	0.13335142
15	0x3da1e18c	0.07904348
16	0xbdf89178	-0.12137121
17	0x3e1496e8	0.14510691
18	0xbe630554	-0.22170001
19	0x3df2a7d8	0.1184842
20	0xbe6ef916	-0.23337206
21	0x3b98bcc0	0.0046611726
22	0x3d892f74	0.06698504
23	0x3c2a18c0	0.010381877
24	0xbd02a2e0	-0.03189361
25	0xbe7d76ca	-0.24752346
26	0x3e590b46	0.21195707
27	0xbdbeb078	-0.093110025
28	0x3e7d8e18	0.24761236
29	0x3e710770	0.23537993
30	0x3ca77740	0.020442605
31	0x3e25d8f2	0.1619604
32	0xbd4ba608	-0.049718887
33	0xbe7dfaf0	-0.24802756
34	0x3d285158	0.0410932
35	0x3c332340	0.010933697
36	0x3e766b26	0.24064311
37	0xbd0acae8	-0.033884913
38	0x3e447a94	0.19187385
39	0xbdcf0994	-0.10109249
40	0xbdff50b4	-0.12466565
41	0x3dd16694	0.10224643
42	0xbca85880	-0.020550013
43	0x3e0946b0	0.13405871
44	0x3e2c032c	0.16798085
45	0x3e7d0d24	0.24712044
46	0xbe08bd3e	-0.1335344
47	0x3e28a25a	0.16468182
48	0xbc9abb40	-0.018888116
49	0x3cccc5c0	0.024996638
50	0xbe248c42	-0.16069129
51	0x3e6439c4	0.22287661
52	0x3e392efc	0.1808433
53	0x3df4ac1c	0.1194689
54	0x3e0e818c	0.13916606
55	0xbe155042	-0.14581397
56	0x3c96cc00	0.018407822
57	0x3d81ea48	0.06343514
58	0x3e44bf58	0.19213617
59	0x3dd7c3bc	0.1053538
60	0x3e575e48	0.21032059
61	0x3e5fd2b0	0.21857715
62	0x3e2eb750	0.17062116
63	0x3dd2730c	0.1027585
64	0x3e130546	0.1435748
65	0xbc515240	-0.012775958
66	0x3e33cf3a	0.1755952
67	0xbd690e30	-0.056898296
68	0x3dcb8fbc	0.099395245
69	0x3e2b3d82	0.16722682
70	0xbddb24c8	-0.10700375
71	0x3e22b5be	0.15889642
72	0xbc04cfa0	-0.008106142
73	0xbe353340	-0.17695332
74	0xbe05dc62	-0.1307235
75	0xbd2b3dd8	-0.041807026
76	0x3e57d9d8	0.21079195
77	0x3e273cd2	0.16331795
78	0xbe7e5532	-0.24837187
79	0xbd8d20c8	-0.06891018
80	0xbd72c1f0	-0.059266984
81	0x3dd93fd8	0.1060788
82	0xbdfeb184	-0.12436202
83	0x3e687506	0.22700891
84	0x3e2cf26e	0.16889355
85	0xbe703c78	-0.23460567
86	0xbd0e9070	-0.034805715
87	0x3e70be68	0.23510134
88	0x3e6e9162	0.23297647
89	0xbd9e6e0c	-0.077358335
90	0x3dfb5790	0.122725606
91	0xbe7c5932	-0.246434
92	0xbda1c64c	-0.0789915
93	0xbe117c56	-0.14207587
94	0xbe7cf778	-0.24703777
95	0x3e0c70ca	0.137149
96	0xbc3547a0	-0.01106444
97	0x3e07acd8	0.13249528
98	0x3e4a91e4	0.19782215
99	0xbd02f7c0	-0.031974554
100	0xbe6225b8	-0.22084701
101	0xbe3e1332	-0.1856201
102	0xbc4baaa0	-0.012430817
103	0xbd9bf3f4	-0.0761489
104	0x3e7ac814	0.24490386
105	0x3df0ce80	0.11758137
106	0xbe333bf6	-0.17503342
107	0x3d6d8b60	0.057994246
108	0xbdbbe06c	-0.091736645
109	0xbdf58a68	-0.119892895
110	0x3da1e7f8	0.07905573
111	0xbd665b30	-0.056239307
112	0x3e465cea	0.19371381
113	0x3d93d310	0.07217991
114	0x3d39be50	0.04534751
115	0xbe4f9b90	-0.20274186
116	0xbe06d052	-0.13165405
117	0x3e0b1d0c	0.13585299
118	0xbe555252	-0.20832184
119	0xbe747f72	-0.23876742
120	0x3de7971c	0.11308119
121	0x3b58ff80	0.0033111274
122	0xbe72488e	-0.2366049
123	0x3e61354e	0.2199299
124	0x3e442384	0.19154173
125	0xbe7f72d6	-0.2494615
126	0x3e7d7848	0.24752915
127	0x3e32aa88	0.17447865
128	0x3e4b007a	0.198244
129	0x3e2d7964	0.16940838
130	0x3d94f360	0.072729826
131	0xbd570ff0	-0.052505434
132	0x3da177a0	0.07884145
133	0x3e3029b0	0.17203403
134	0x3e50251c	0.20326656
135	0x3e4b08fe	0.19827649
136	0xbe28a300	-0.1646843
137	0x3e77df90	0.24206376
138	0x3d9d8e5c	0.076931685
139	0xbdd208c0	-0.10255575
140	0xbe6f5c2a	-0.23375002
141	0x3e77782a	0.24166933
142	0x3e2374f4	0.15962583
143	0xbe707c10	-0.23484826
144	0xbdb47074	-0.08810511
145	0x3e2ecb1c	0.17069668
146	0x3e790db6	0.24321637
147	0xbe79ec76	-0.24406609
148	0x3e3c0b10	0.18363595
149	0xbc8ebb60	-0.017423332
150	0x3e3f0d70	0.1865747
151	0xbc94ddd0	-0.018172175
152	0xbe17325c	-0.14765304
153	0x3dff7ad8	0.124746025
154	0x3d7a9220	0.061174512
155	0x3ca6ae40	0.02034676
156	0xbe0aea2a	-0.13565889
157	0xbe0b6fb8	-0.13616836
158	0xbe388020	-0.18017626
159	0x3dfa7fc4	0.122314006
160	0xbe77debe	-0.24206063
161	0xbe5081f0	-0.20362067
162	0xbe4b5990	-0.19858384
163	0xbd080a60	-0.03321302
164	0xbd620e08	-0.055189162
165	0x3db06c1c	0.0861437
166	0x3e1928d2	0.14956978
167	0x3de33514	0.11094108
168	0x3dba1ce4	0.09087542
169	0xbd8a74dc	-0.067605704
170	0x3e4eb35c	0.20185608
171	0xbdde626c	-0.10858616
172	0xbe4af8ae	-0.19821426
173	0x3e1276e0	0.1430316
174	0x3e0c3820	0.13693285
175	0xbc04aca0	-0.008097798
176	0xbdd2bc64	-0.10289839
177	0xbe345440	-0.17610264
178	0xbde87d3c	-0.113520116
179	0xbe301cdc	-0.17198509
180	0x3d85f794	0.065413624
181	0xbe248ee4	-0.16070133
182	0xbe07d098	-0.13263166
183	0x3e51a70c	0.2047388
184	0x3e0444dc	0.12916893
185	0xbe793206	-0.24335489
186	0x3e5109c4	0.20413882
187	0xbe46832c	-0.19385976
188	0xbdf0eecc	-0.11764297
189	0x3e77e1b0	0.24207187
190	0x3c79a6e0	0.01523754
191	0xbda351b0	-0.07974565
192	0x3e5af82c	0.21383733
193	0x3c66d5c0	0.014089048
194	0xbc0673a0	-0.008206278
195	0x3c456d60	0.012050003
196	0xbe4b6ca8	-0.19865668
197	0x3deb7220	0.11496377
198	0x3d026890	0.031838
199	0xbd863ab0	-0.065541625
200	0x3e686e62	0.22698358
201	0x3df9ff70	0.12206924
202	0xbd2fff50	-0.042968094
203	0xbe1ee12a	-0.15515581
204	0xbe3ba1a6	-0.18323383
205	0xbdad483c	-0.08461043
206	0x3e3951a6	0.18097553
207	0xbe0a3db8	-0.13500106
208	0xbd9993a4	-0.07498863
209	0xbe4d3eca	-0.20043483
210	0xbe0a54e2	-0.13508943
211	0x3e143434	0.14473039
212	0x3cbb0850	0.022831112
213	0xbe5757aa	-0.21029535
214	0xbbcae400	-0.0061917305
215	0xbcaa1950	-0.020764023
216	0xbd8bb7a4	-0.06822136
217	0x3d9edd6c	0.077570766
218	0xbe49e1f4	-0.197151
219	0x3e686dae	0.2269809
220	0x3d0a4170	0.033753812
221	0x3e00338c	0.12519664
222	0x3d383028	0.0449678
223	0xbd6b4108	-0.057435066
224	0x3c765d80	0.015036941
225	0x3da576b8	0.080792844
226	0xbd112c58	-0.03544268
227	0x3cbd73f0	0.023126572
228	0xbe6bb4b4	-0.23018152
229	0x3d978cec	0.073999256
230	0xbd520f38	-0.051284045
231	0xbdbee80c	-0.09321603
232	0x3db4cc48	0.08828026
233	0x3e367f82	0.17822078
234	0x3e797082	0.24359325
235	0xbda977cc	-0.082748026
236	0x3d954318	0.07288188
237	0x3dc0d3bc	0.09415385
238	0x3e385efc	0.18004984
239	0xbdb8fce8	-0.09032613
240	0xbd04a440	-0.032383204
241	0xbdbb5a1c	-0.091480464
242	0x3e4f3be6	0.20237693
243	0x3e169282	0.14704326
244	0x3cc3a4d0	0.0238823
245	0x3d928784	0.07154754
246	0xbe0a6bd8	-0.13517702
247	0x3ccd5370	0.0250642
248	0xbe373ad8	-0.17893541
249	0xbdd09678	-0.1018495
250	0xbe45ab2a	-0.19303575
251	0x3e534c0e	0.20634481
252	0xbe0de846	-0.13858137
253	0xbe65c562	-0.22438577
254	0xbe7ae5a4	-0.24501663
255	0x3e21cf38	0.15801704

bias f4 [16]
0	0x3e4153e6	0.18879661
1	0x3db3ffec	0.087890476
2	0x3d281958	0.041039795
3	0xbe7c7f8e	-0.24658033
4	0xbe0f062e	-0.13967201
5	0x3e70d2c0	0.23517895
6	0x3d955738	0.07292026
7	0x3cb08bf0	0.021551102
8	0x3e35dd5a	0.1776022
9	0xbe14e284	-0.14539534
10	0xbe2f3e88	-0.17113698
11	0xbdee6ed0	-0.116422296
12	0x3e315dee	0.17320988
13	0x3e336fe0	0.17523146
14	0x3e56db5a	0.20982113
15	0xbe627266	-0.22113952

weight f4 [16, 16]
0	0xbe4a816e	-0.19775936
1	0x3c08a060	0.008339018
2	0xbe5de8b8	-0.21670806
3	0x3e3de6b4	0.18545038
4	0xbd4233b8	-0.047412604
5	0xbdbbc11c	-0.09167692
6	0xbe38131a	-0.17976037
7	0x3e6c5478	0.23079097
8	0xbcbc49a0	-0.022984326
9	0xbe56a492	-0.20961216
10	0xbe22d10c	-0.15900058
11	0xbe222c80	-0.15837288
12	0xbb2aaf00	-0.002604425
13	0x3da12f84	0.07870391
14	0xbd592c60	-0.053020835
15	0xbe3d6924	-0.18497139
16	0x3d59f768	0.05321446
17	0x3e46343a	0.1935586
18	0x3d1595a0	0.036519647
19	0x3d8960c0	0.06707907
20	0xbd580650	-0.052740395
21	0x3c3d9e40	0.011573374
22	0x3e47bdd8	0.19506013
23	0x3da32474	0.07965937
24	0xbda59c74	-0.08086482
25	0xbe21a060	-0.15783834
26	0x3e5da3ca	0.21644512
27	0x3e2bbc62	0.16771081
28	0xbe6e8e6a	-0.23296514
29	0x3e6c302a	0.23065248
30	0x3e793bb0	0.24339175
31	0xbe2a521a	-0.16632882
32	0xbd9fd6b0	-0.0780462
33	0x3dcd5300	0.100255966
34	0x3e36ca4e	0.1785061
35	0xbd9d5674	-0.07682505
36	0x3e55f3b4	0.20893747
37	0x3da719b8	0.08159202
38	0xbe32a888	-0.17447102
39	0xbd083c90	-0.033260882
40	0x3e62a634	0.22133714
41	0xbcd54fa0	-0.026038945
42	0xbe614488	-0.21998799
43	0x3e71929a	0.2359108
44	0xbd8b62e4	-0.06805971
45	0xbe50f810	-0.20407128
46	0x3e4dd810	0.20101953
47	0x3e5452bc	0.20734686
48	0xbe4b9686	-0.19881639
49	0xbe47ab66	-0.19498977
50	0x3e760438	0.24025047
51	0x3e30c5fe	0.17263028
52	0xbe22091e	-0.1582379
53	0x3d67d128	0.05659595
54	0x3e4923bc	0.19642538
55	0xbd9e9eac	-0.07745108
56	0x3d642150	0.05569583
57	0x3e425844	0.18978983
58	0x3e3e8d94	0.18608695
59	0x3dd97734	0.10618439
60	0xbdf96d7c	-0.121790856
61	0x3de7296c	0.112871975
62	0x3c6becc0	0.014399707
63	0x3e3c22d0	0.18372655
64	0xbc95abd0	-0.018270403
65	0xbd7e3f50	-0.0620721
66	0xbd56a9c8	-0.05240801
67	0x3e080b40	0.13285542
68	0x3e0f1bf0	0.13975501
69	0xbe50d382	-0.20393184
70	0x3e21bad8	0.15793931
71	0xbd1fd720	-0.03902352
72	0x3e1cfaa2	0.15329984
73	0x3d385a58	0.045008034
74	0xbdcfb1b8	-0.10141319
75	0xbdd750a8	-0.10513431
76	0xbe70779e	-0.2348313
77	0xbd9bebbc	-0.07613322
78	0x3e629a48	0.22129166
79	0xbd9c4f60	-0.07632327
80	0xbe0d4d52	-0.13799027
81	0xbda65c1c	-0.08123037
82	0xbe1c34a8	-0.15254462
83	0xbd18d6b0	-0.037314117
84	0x3d6b0758	0.05738005
85	0x3d569c80	0.052395344
86	0x3e5fa9ba	0.2184209
87	0x3b530c00	0.0032203197
88	0xbda764c4	-0.081735164
89	0xbd0f8f00	-0.035048485
90	0x3dd3130c	0.10306367
91	0xbe1d1d44	-0.15343195
92	0x3de40618	0.11133975
93	0x3e7b5a8a	0.24546257
94	0xbd7de9a0	-0.06199038
95	0xbd8fc1c0	-0.07019377
96	0xbc2a5d20	-0.010398179
97	0x3d672988	0.05643609
98	0xbe38e416	-0.18055758
99	0x3d9e1894	0.07719532
100	0xbd9bf780	-0.07615566
101	0xbe59e73a	-0.21279612
102	0xbdf29e30	-0.11846578
103	0x3e401d5a	0.18761197
104	0xbe1f1f32	-0.15539244
105	0xbe615bec	-0.22007722
106	0x3e1d3f40	0.15356159
107	0xbe6a3952	-0.22873428
108	0xbe4bf104	-0.19916159
109	0x3e3d7b72	0.18504122
110	0x3c8ce7c0	0.01720035
111	0xbd1c55b8	-0.038167685
112	0xbd804bd0	-0.0626446
113	0xbde1c188	-0.11023241
114	0xbc2c3300	-0.010510206
115	0x3d5866c0	0.052832365
116	0x3b3f1600	0.00291574
117	0x3e58a32a	0.21155992
118	0x3e274456	0.16334662
119	0xbe4da77c	-0.20083421
120	0xbe3e1d22	-0.18565801
121	0xbe6f9526	-0.2339674
122	0xbd7636a8	-0.060110718
123	0x3db35698	0.08756751
124	0x3dbd7444	0.092506915
125	0xbe52ad7a	-0.20573989
126	0x3e188dc4	0.1489783
127	0x3dd64a8c	0.104634374
128	0x3d95fd38	0.07323688
129	0x3c824630	0.015902609
130	0x3daece2c	0.08535418
131	0xbe380b8a	-0.17973152
132	0x3e4fed5e	0.20305392
133	0xbdf5aa7c	-0.11995408
134	0x3d7c3150	0.061570466
135	0xbe5f31fc	-0.21796411
136	0x3e170b18	0.14750326
137	0x3d498a10	0.049203932
138	0x3ddd0448	0.10791832
139	0xbb41bc00	-0.002956152
140	0x3dff04a0	0.12452054
141	0x3ca46a20	0.020070136
142	0x3e4130a2	0.18866208
143	0xbe7e18f0	-0.248142
144	0x3d886ab4	0.06660977
145	0xbe776d3a	-0.2416276
146	0xbe347186	-0.17621431
147	0xbd6f4828	-0.058418423
148	0xbe0013b0	-0.1250751
149	0xbe46e3da	-0.19422856
150	0x3e305d10	0.17223
151	0xbdc05c28	-0.093925774
152	0xbe4a80ec	-0.19775742
153	0xbe0c5f5c	-0.13708252
154	0x3cf07370	0.02935192
155	0x3e710b68	0.23539507
156	0x3e7ab812	0.2448428
157	0x3e03af8a	0.12859932
158	0xbd8f753c	-0.070047826
159	0xbe30c892	-0.17264012
160	0x3e361a16	0.17783388
161	0xbe2b44e6	-0.16725501
162	0x3e2e46f8	0.1701926
163	0xbde8183c	-0.11332747
164	0x3e1c8512	0.15285137
165	0xbd73c550	-0.059514344
166	0xbe6b81e2	-0.22998765
167	0xbe1392b8	-0.14411438
168	0x3e7713ae	0.24128601
169	0x3dbcd308	0.092199385
170	0xbda58174	-0.08081332
171	0xbe72e87e	-0.23721501
172	0xbd82e838	-0.063919485
173	0xbd3cc9f8	-0.04609105
174	0xbd711678	-0.05885932
175	0xbdf935b8	-0.12168449
176	0x3e7a9f24	0.2447477
177	0x3cf64900	0.030064106
178	0x3dc74938	0.09730762
179	0xbe66accc	-0.22526854
180	0x3e65b3da	0.22431889
181	0x3e454f6c	0.19268578
182	0xbce694f0	-0.02814719
183	0x3de9a30c	0.11408052
184	0x3daca1a0	0.08429265
185	0xbe51c20a	-0.20484176
186	0x3d69c7b8	0.057075232
187	0xbe003ec6	-0.12523946
188	0x3e0cf332	0.13764647
189	0x3e59387e	0.21212956
190	0x3e478a5e	0.19486377
191	0x3e6e0ed2	0.23247841
192	0x3a490a00	0.00076690316
193	0xbdba61f0	-0.09100711
194	0xbc8029b0	-0.015644878
195	0x3d540f00	0.051772118
196	0xbe13f0ba	-0.14447299
197	0x3e1c229c	0.15247577
198	0x3e0719b2	0.13193396
199	0x3e360bd8	0.17777956
200	0xbdc62184	-0.09674361
201	0x3e03ff56	0.12890372
202	0x3e66ae36	0.22527394
203	0x3e686124	0.22693306
204	0xbe5576de	-0.20846125
205	0xbe2aba2c	-0.16672581
206	0xbe27a984	-0.16373259
207	0x3e26091a	0.1621441
208	0x3dec7f80	0.11547756
209	0xbe2679e8	-0.16257441
210	0xbc172d20	-0.009227067
211	0x3e768a6a	0.24076238
212	0x3e0b1d86	0.13585481
213	0x3dab5590	0.08365929
214	0xbda1f9b4	-0.07908955
215	0xbdd538c8	-0.10411221
216	0x3e6ba500	0.23012161
217	0x3e509ecc	0.20373076
218	0x3e52e282	0.20594218
219	0xbd0d1440	-0.03444314
220	0xbd9ab3e0	-0.0755384
221	0xbe010d7a	-0.12602797
222	0x3b273300	0.0025512576
223	0x3e2c601a	0.16833535
224	0xbe373b0e	-0.17893621
225	0xbc9d37d0	-0.019191653
226	0xbddce988	-0.1078673
227	0xbdf45d94	-0.11931911
228	0x3e2a7d2e	0.16649315
229	0xbe383052	-0.17987183
230	0x3d707960	0.058709502
231	0xbd942cec	-0.07235131
232	0x3e50e362	0.2039924
233	0x3e08dea0	0.13366175
234	0x3e49593a	0.19662943
235	0xbe28bb24	-0.16477638
236	0xbd5ca098	-0.05386409
237	0xbdec36b8	-0.11533874
238	0xbe5afa4a	-0.2138454
239	0x3e5185b0	0.20461154
240	0xbe617dfe	-0.22020718
241	0x3e5fad38	0.21843421
242	0x3d3104c8	0.04321745
243	0xbe26e820	-0.16299486
244	0x3cf8c2e0	0.030366361
245	0x3c8dfd10	0.017332584
246	0xbd8a164c	-0.06742534
247	0x3d8d0a74	0.068867594
248	0x3d9dd794	0.07707134
249	0xbda063f4	-0.078315645
250	0x3c944730	0.018100351
251	0x3e024842	0.12722877
252	0x3e12738c	0.1430189
253	0x3d0cfc58	0.03442034
254	0x3de4b7f0	0.11167896
255	0x3e191b1e	0.1495175

bias f4 [16]
0	0x3d4a8b88	0.049449474
1	0xbdc8bac8	-0.09801251
2	0xbe2ae738	-0.16689765
3	0xbdaf85f8	-0.085704744
4	0xbe1271f8	-0.14301288
5	0xbc1de4e0	-0.009637088
6	0xbcac1200	-0.021004677
7	0x3e45c29c	0.19312519
8	0x3d9b57ac	0.075850815
9	0x3e6d3636	0.23165211
10	0x3d582b68	0.05277577
11	0xbe733e7e	-0.23754308
12	0xbe1786fe	-0.14797589
13	0xbe6bd5d2	-0.23030785
14	0x3d5bc950	0.053658783
15	0xbdb8c5d8	-0.09022111

weight f4 [1, 16]
0	0xbc57b480	-0.013165593
1	0xbe44dd8a	-0.19225135
2	0xbe6f8d3a	-0.23393717
3	0xbe185afa	-0.14878455
4	0x3e5211b2	0.20514563
5	0xbe4c0e0e	-0.19927236
6	0x3e006588	0.12538731
7	0x3e5604ca	0.20900264
8	0x3ccb3b70	0.024808615
9	0x3e331f8a	0.174925
10	0x3e793c9e	0.2433953
11	0xbda42f9c	-0.08016893
12	0x3dd176c0	0.10227728
13	0x3e7e19ba	0.24814501
14	0x3e3fa77c	0.18716234
15	0xbc2395a0	-0.009984404
