model.pth (torch, 6139 bytes, 7 tensors)

weight f4 [16, 3]
000000 da 61 da be 60 98 ae be 6c 93 ae be cf 25 9e be
       -0.4265278 -0.34100628 -0.3409685 -0.3088822
000010 f7 64 0c 3f 6d 73 33 be a3 08 e0 3d fd 93 86 be
       0.5484156 -0.175245 0.10939147 -0.2628478
000020 22 8f b7 3e d3 72 16 3e 13 5e 4c 3e ca 22 65 3e
       0.3585139 0.1469224 0.19957761 0.22376552
000030 e0 73 0c 3f a3 96 cc 3e e2 57 4e 3d 65 31 61 be
       0.5486431 0.39958677 0.05037678 -0.21991499
000040 08 b5 16 3f f4 93 ca 3e 38 65 83 be 9f 25 f4 3e
       0.5886998 0.39566004 -0.2566316 0.47684953
000050 4f bb ed 3e 1e a2 69 bd b9 f0 c4 3d 5a 67 c7 bd
       0.46431968 -0.057039373 0.09616227 -0.097365096
000060 10 8d 87 3e 58 0a 0c 3f d6 e6 ff 3d e6 1e 5a 3e
       0.2647481 0.54703283 0.124952 0.2130085
000070 e4 c8 da be f1 d6 c8 be 1b d8 91 3e a0 d7 03 bf
       -0.42731392 -0.39226487 0.28485188 -0.5150089
000080 4f 81 18 3e 83 10 c2 be ae d6 b6 3e 69 7d a0 3d
       0.14893077 -0.37903222 0.35710663 0.0783642
000090 cd c4 b7 3e d6 80 c4 3c 4c 0e 9d be 5e 16 5c 3e
       0.35892335 0.023987215 -0.3067497 0.21492907
0000a0 39 c0 43 be 0c 2f 5f bd 5a ef fa 3e 74 ad 65 be
       -0.19116296 -0.054488227 0.49010736 -0.22429448
0000b0 0c 5c 0d be ab 03 40 3e 0a 2a 73 be 52 f6 9f 3e
       -0.13804644 0.18751399 -0.23746505 0.31242615

bias f4 [16]
000000 d4 7b 9d 3e 8d 72 00 3f ad ac d6 3d 79 dd 8a bd
       0.30758536 0.5017479 0.10482154 -0.06780524
000010 9a 75 dc 3e aa 2a 0e be e4 15 0e 3f d4 6c 98 be
       0.43058473 -0.13883463 0.5550215 -0.2977053
000020 81 89 bc 3e da b8 d7 3e a1 8a 73 3d 80 ca 90 3e
       0.36823657 0.42133218 0.05945838 0.28279495
000030 58 9a c2 3e 5c 16 a8 be 24 d0 d9 3d 7c 44 87 3d
       0.3800838 -0.3282956 0.10635403 0.06604859

weight f4 [16, 16]
000000 fd 33 b2 bc 7e 8d 65 3e 6b 20 1e 3e da d0 10 3e
       -0.021753306 0.22417256 0.15442054 0.1414217
000010 45 94 7f 3d 25 1a 3e 3d 41 88 15 3e 96 d2 3b 3e
       0.06239726 0.046411652 0.14602758 0.18342051
000020 bc e6 87 bc 71 41 4d 3e 61 31 13 bd 20 bc f1 bd
       -0.016589515 0.20044495 -0.035935763 -0.1180346
000030 ed 4b ba bd 8d 36 dd bc 94 40 04 be ab a3 29 3e
       -0.09096513 -0.02700355 -0.1291526 0.1656634
000040 c9 d8 fe bd 2e 13 bf bc 4a cd 51 be 68 f4 2a 3e
       -0.12443692 -0.023324575 -0.20488468 0.16694796
000050 a9 d4 39 be 7e f5 59 3e 8d 87 d1 3d 47 09 f0 3d
       -0.1814753 0.21285054 0.102309324 0.117205195
000060 e2 23 76 3c 1f 36 86 3e 59 e4 f6 bd 3b 6e 28 be
       0.015023204 0.26213166 -0.120552726 -0.164483
000070 e7 c2 b4 bc f6 a4 da bd ac 89 84 3c 48 2f 16 3e
       -0.022065593 -0.10675995 0.016178928 0.14666474
000080 6e bf b5 3d a0 10 55 bd bd 9c 3b be 5a 09 a8 3d
       0.08874403 -0.052017808 -0.1832151 0.08204909
000090 98 92 53 bd 7d 88 f9 3d 28 5e 28 3e ac 53 e2 bc
       -0.051653475 0.12184236 0.16442168 -0.027627788
0000a0 a8 b0 28 3e bc f0 10 be e6 25 05 3e b2 a2 40 be
       0.16473639 -0.14154333 0.13002738 -0.18812063
0000b0 60 a8 5b be da 57 71 3e de f0 87 3d a1 94 3f be
       -0.21450949 0.23568669 0.06637739 -0.18709041
0000c0 78 32 08 be 58 1b 2c bd f5 ec 64 3e 0c 4a 7f 3e
       -0.13300502 -0.042018265 0.22356017 0.2493059
0000d0 72 38 6f 3c cb ee cb bb 74 50 32 3e 4b 68 52 bd
       0.01460086 -0.0062235347 0.17413503 -0.051368993
0000e0 6c 72 f4 3c 2a 43 46 3e ea 85 46 be 71 39 04 3e
       0.029839717 0.19361559 -0.19387022 0.12912537
0000f0 ae ca f6 bc 6b 23 51 be 5c 8a bc bc 56 fa 2f 3b
       -0.030125942 -0.20423667 -0.023015194 0.0026852093
000100 17 de 56 be 4e ba be 3d dc a4 1c be c6 de 22 3e
       -0.20983158 0.093128785 -0.15297264 0.15905294
000110 98 31 56 be a8 33 34 be c5 9c 6b 3e c0 9c 06 3c
       -0.20917356 -0.1759783 0.23009022 0.008216083
000120 c6 5b e6 3d ed fd 05 bd aa 91 bb 3d f1 58 fb bd
       0.11247973 -0.032712866 0.091586426 -0.122728236
000130 70 dd 42 3e 4e 6f 25 3e b4 c4 10 be 94 96 3d 3e
       0.19029784 0.1615574 -0.14137536 0.18514472
000140 76 37 7a 3e 0f 4d e0 bd dd a1 e6 bc 61 cc e8 bd
       0.24435219 -0.10952198 -0.028153354 -0.11367107
000150 25 79 77 bd d2 13 39 bb 75 d7 6c 3d e1 5c 30 3e
       -0.060418267 -0.0028240574 0.057822663 0.1722293
000160 03 dc 2f 3e 5a 72 a0 be 63 95 69 3e 6b 4c a4 bd
       0.17173772 -0.31337243 0.22810893 -0.08022388
000170 6e 46 34 3c f4 ec 40 3e fe 8a 39 3e c5 e2 47 3d
       0.01100312 0.1884039 0.18119428 0.04880025
000180 44 60 f3 bd e9 42 da 3d a6 98 7a 3e a6 6c 44 3e
       -0.118835956 0.10657293 0.24472293 0.19182071
000190 0d 6d 66 bd ad 97 72 be 46 48 31 be 37 3d 9a 3d
       -0.056256343 -0.23690672 -0.17312726 0.07531207
0001a0 4c 91 82 3e 1c 15 9d bd 2c ad 6c be 81 e2 ed 3d
       0.25501478 -0.07670042 -0.23112935 0.11615468
0001b0 13 2a 73 be 44 0a 93 be 8b df 21 be 41 a6 05 be
       -0.23746519 -0.2871877 -0.15807931 -0.13051702
0001c0 d0 89 c5 bd 39 c7 e3 3d b8 65 db bd 1e 1c 59 3e
       -0.09645426 0.11121983 -0.10712761 0.21202132
0001d0 b9 68 68 be 4c 0f 3e be 64 90 32 3d 00 60 1a ba
       -0.22696199 -0.18560523 0.043594733 -0.0005888939
0001e0 77 85 a9 3d 1d ce 78 3e e7 b5 5b 3e ff 44 1b be
       0.082774095 0.24297376 0.21456109 -0.15163039
0001f0 11 1e a1 3d a0 ea a2 3c e0 98 6a be 85 25 c4 bc
       0.07867063 0.019887269 -0.2290988 -0.023943672
000200 c8 d1 9e bd d2 67 04 be 6c b9 47 be 40 91 9d 3c
       -0.07754856 -0.1293023 -0.19504327 0.0192343
000210 0e e2 7d be 64 28 96 bd 5c 42 a8 3d a4 51 02 be
       -0.24793264 -0.07331923 0.08215782 -0.12726456
000220 f0 65 22 3d 2c 94 da bd e2 81 7e 3e 44 62 40 3e
       0.039647996 -0.10672793 0.24854234 0.18787485
000230 8c 76 3a 3e 24 5a 85 3d c0 17 6b bd 78 71 65 be
       0.18209285 0.065113336 -0.057395697 -0.22406566
000240 3f 03 b5 3d b0 dd 0d be fe 5d 58 3e 5c 24 34 be
       0.0883851 -0.13854098 0.21129605 -0.17591995
000250 23 b4 1a 3e ad b9 a5 3b c0 f1 23 bd 78 6c 51 3e
       0.15107779 0.0050575347 -0.040025473 0.20451534
000260 87 b8 70 3e 52 76 16 be 6f d3 e6 bd e0 73 6c 3e
       0.23507892 -0.14693573 -0.112707965 0.23091078
000270 f8 00 56 bd f6 d8 23 be 94 f0 9d bd 19 6c 50 be
       -0.052247018 -0.16000733 -0.07711902 -0.20353736
000280 7b 44 dd bd 14 8c 60 bd 38 8f e8 3c 54 47 bb 3d
       -0.10804077 -0.05482109 0.028388605 0.09144464
000290 9f 76 6b bd 61 90 83 3d 14 43 f6 bc ef 33 68 3e
       -0.057486173 0.064240225 -0.030061282 0.22676061
0002a0 36 2a 1a 3e ab dd 2a be 21 36 07 3e 46 3f c4 3d
       0.15055165 -0.16686122 0.13204242 0.09582381
0002b0 b2 5c c3 3d 10 e5 fb 3b 6d 31 44 3b 40 20 19 be
       0.095391646 0.0076872185 0.0029936687 -0.14953709
0002c0 58 9a 20 be 06 89 51 3e 19 8c 64 3e df 53 ef 3b
       -0.15683877 0.20462427 0.22319068 0.0073036994
0002d0 4e f7 72 bd eb ce 07 3e 40 16 4b be 1b b3 89 bd
       -0.05931788 0.13262527 -0.19832706 -0.06723615
0002e0 07 53 f0 bd fe 7f 35 bd 21 2c 0a 3d da ca 64 3e
       -0.11734586 -0.044311516 0.03373349 0.22343007
0002f0 21 cc 56 3e 30 c4 a2 bd cd 73 8e 3e ac 14 2f be
       0.20976306 -0.07947576 0.27822724 -0.1709773
000300 50 92 b0 bc ed 29 10 be f0 ce 52 3e 24 16 3f 3e
       -0.021554142 -0.14078493 0.20586753 0.1866079
000310 4d ef ba 3d c2 56 23 3d 00 33 04 be 27 12 f6 3c
       0.09127674 0.03987766 -0.1291008 0.030037953
000320 c8 91 38 3e ef 2b c8 39 95 98 a6 bd db ed 32 3e
       0.18024361 0.00038179706 -0.081345715 0.17473547
000330 dd 4b 2a be 37 f8 2e 3e c1 cd 63 bd 4f f7 3f 3e
       -0.16630502 0.17086874 -0.055616144 0.18746684
000340 93 97 47 3e 6e be 80 3e 38 3b 86 3e 5a 05 2a be
       0.19491415 0.25145286 0.26217055 -0.16603604
000350 77 11 2a 3e 87 31 f5 bc 87 f8 06 3d fa 44 cb 3d
       0.16608225 -0.029930843 0.032951858 0.099252656
000360 ec dc 50 bd ce 8c 47 be e2 d2 6a bd 56 4a ac bd
       -0.050991938 -0.19487306 -0.05733002 -0.08412616
000370 32 a8 b8 3d ed f3 72 3e cd 1b 40 3e 47 d4 bd bd
       0.09016456 0.23725863 0.18760605 -0.09269004
000380 af d6 8e 3d 5f a3 8f 3d 2e f8 61 3d ae 67 ce bd
       0.069745414 0.070135824 0.055168323 -0.10078369
000390 b3 47 e2 3d ab 16 55 3d 16 76 39 be 00 8f 7f be
       0.11048832 0.05202357 -0.18111452 -0.24956894
0003a0 88 c4 97 3d 65 b7 8a 3e 8a a2 7e 3c 0d 49 66 3e
       0.07410532 0.27093044 0.015541682 0.22488804
0003b0 02 3f bc bd 6a 5e 8d 3e ba a6 fa 3b 12 4d 28 bd
       -0.09191705 0.27611095 0.00764927 -0.041089125
0003c0 34 05 59 be e1 3c a2 bd cd e2 73 be 35 da 50 be
       -0.21193391 -0.07921768 -0.23816986 -0.2039574
0003d0 b9 33 f3 3d 58 ce 79 3c 4a ad f7 3d 40 96 71 be
       0.118751 0.01524695 0.12093599 -0.23592472
0003e0 af a0 55 be d3 92 d7 3d 74 51 53 bd 90 a7 7e be
       -0.20862077 0.10526051 -0.05159135 -0.24868608
0003f0 97 bf 94 bc d8 bb f2 3d 35 3a 8d 3d 5f 75 f2 bc
       -0.018157763 0.118522346 0.06895868 -0.029596983

bias f4 [16]
000000 a6 91 81 3e 36 bf 76 3e bc b3 5c 3d 10 22 24 3e
       0.25306433 0.24096379 0.053882346 0.16028619
000010 db 50 14 3e 18 e3 29 be 58 e1 0e 3d 4b d3 ab bd
       0.14483969 -0.16590536 0.034882873 -0.0838991
000020 28 25 fe bd 1f 8d 68 3e 6f 72 5e 3e 74 be 1d bd
       -0.12409431 0.22710083 0.2172334 -0.03851171
000030 07 8f 6c be a2 97 26 be 5b 15 26 be f7 79 98 be
       -0.23101436 -0.16268781 -0.16219084 -0.29780552

weight f4 [16, 16]
000000 e1 16 b1 bd 9e d3 ca bd 7e 87 c0 bc 2a 11 1c 3e
       -0.08646942 -0.09903644 -0.023502108 0.15240923
000010 15 02 ea bd 8e c7 65 be c8 d8 b0 bd 24 f3 20 be
       -0.11426178 -0.22439405 -0.08635098 -0.15717751
000020 06 89 64 3e 26 1c fb bd 5c 87 6a be 93 7d 46 be
       0.22317895 -0.12261228 -0.22903198 -0.1938384
000030 70 a1 a6 bd 7b ce 23 3e 5b 0a 76 3d 98 d2 5b bd
       -0.081362605 0.15996735 0.06006847 -0.053667635
000040 67 f9 cf 3d c8 66 2d bc 01 d1 63 be 70 54 87 ba
       0.101549916 -0.010583587 -0.22247697 -0.0010324847
000050 50 5a 40 be 10 5c 83 3d 46 96 26 be 50 4e 4c bd
       -0.18784451 0.06414044 -0.16268262 -0.049879372
000060 8e b3 6d be 2d 2d 1c be 4f 8b 5a 3e 99 eb 81 bd
       -0.23213026 -0.15251608 0.21342205 -0.06343765
000070 a1 fb 35 3e 68 05 3c be ea 2c 52 be e0 df ad bd
       0.1777177 -0.18361437 -0.20524946 -0.084899664
000080 29 75 1e bb b9 66 94 bd b7 5f 5e 3e 9e 02 2c be
       -0.002417872 -0.07246155 0.217162 -0.16797873
000090 93 09 9d 3d 98 cc 4f 3e 2b ba 0b 3e d7 58 0a be
       0.07667842 0.2029289 0.13645236 -0.13510452
0000a0 50 28 3f 3d 55 5d a1 bd 0e ee 48 be be d4 0b be
       0.046669304 -0.0787913 -0.1962206 -0.13655373
0000b0 a1 e4 10 3e c5 0f 30 be 59 f0 0d bd 88 08 56 3d
       0.14149715 -0.17193516 -0.03465304 0.05225423
0000c0 c6 84 01 be 56 bb 95 3b 01 bd 4d bd b7 df d7 3d
       -0.12648305 0.0045694513 -0.050229076 0.10540717
0000d0 94 e9 49 3e 18 62 5f bc d8 c4 a4 bd c6 8f 1e 3e
       0.19718009 -0.013634227 -0.080453575 0.15484533
0000e0 cc b7 c4 bd 38 61 8e bd f7 29 63 be ce 2a eb 3d
       -0.09605369 -0.06952137 -0.22183977 0.11482774
0000f0 7b 4c 47 3e 93 e6 74 3d a1 2d 28 be 7e c4 04 bd
       0.19462769 0.059790205 -0.16423656 -0.032413952
000100 3f cd 49 be 78 7d fe 3c 27 87 25 3e 3f 64 c0 bd
       -0.19707201 0.031065688 0.16164838 -0.093941204
000110 dd 27 59 bd 37 3d 7e 3d 48 6f 9e 3d df c3 52 3d
       -0.053016532 0.062070098 0.07736069 0.05145633
000120 cc 34 cd bd 91 d2 23 3e 6a 08 00 3e 3f 9a 34 be
       -0.10019836 0.15998293 0.1250321 -0.17636965
000130 82 9c 08 3d bd 23 24 be 00 38 32 be ec ff 77 3b
       0.033352382 -0.16029258 -0.17404175 0.003784175
000140 53 26 7b 3e 2a 97 83 3e b1 3a 13 bc 00 a7 ff bd
       0.24526338 0.25701267 -0.008986161 -0.124830246
000150 44 17 2d 3d 4c f6 df bd b2 4e 29 3e 9e 9e 35 be
       0.042258516 -0.10935649 0.16533926 -0.17736289
000160 ea 05 0c 3e 3c ff 2d be 2a 6e f0 3d ed 51 92 bd
       0.13674131 -0.16991895 0.11739762 -0.07144532
000170 0a 7e fe 3d c4 f7 b9 3d f8 89 97 bd 61 00 91 3d
       0.12426384 0.09080461 -0.07399362 0.070801504
000180 73 94 b7 3c e6 94 17 be 46 46 ce 3d 55 7e 00 3d
       0.022409653 -0.14802894 0.10071997 0.03137048
000190 ba 36 35 be bb 0a be 3d 02 96 03 be 23 f7 3f be
       -0.17696658 0.092793904 -0.12850192 -0.18746619
0001a0 60 77 7e 3d 59 69 7f 3d b5 95 ac 3d 26 64 37 3d
       0.062125564 0.062356327 0.08426992 0.044773243
0001b0 9e 2c 75 be 95 ad 42 be df ab 1d be 62 7d a3 bd
       -0.23942801 -0.19011529 -0.15397595 -0.07982899
0001c0 2d ef e1 3d 4f ad 3e 3d aa b8 45 3d a2 56 19 be
       0.11031947 0.046552 0.048271812 -0.14974454
0001d0 13 ec 6e bd 7b e7 26 be 8c 62 2a 3e ae 32 67 be
       -0.058330607 -0.1629924 0.16639155 -0.22577927
0001e0 6c c6 4a be cd a8 00 3d 03 56 35 3c bb b1 ad bd
       -0.19802254 0.03141098 0.01106787 -0.08481165
0001f0 d3 25 3e be 82 11 23 bd 70 55 9d 3d cc 12 39 3e
       -0.18569116 -0.03981162 0.076823115 0.18073577
000200 82 0a ef bd 25 7b 80 bc 74 92 78 be a7 4f a6 bd
       -0.11671926 -0.01568372 -0.24274617 -0.08120661
000210 33 5d 51 3e 4c 44 3b 3e 00 15 72 bc c9 15 d9 3d
       0.20445709 0.18287772 -0.014775515 0.10599858
000220 a2 81 6f 3e 99 04 ef 3d 5f 84 31 3e 17 33 1e be
       0.23389295 0.11670799 0.17335652 -0.15449177
000230 1f de a6 3c 9f 3d 1e be 66 06 7b 3e d8 2b 71 3d
       0.020369587 -0.15453194 0.2451416 0.058879703
000240 59 28 49 be f8 4d b7 3d 4c a3 44 be a3 86 63 3e
       -0.19644298 0.08950418 -0.19202918 0.22219329
000250 16 32 10 3c 43 0d 97 bc 68 06 43 bd 86 60 2f 3e
       0.008801004 -0.01843894 -0.04761353 0.17126665
000260 24 22 2b 3e 19 83 df bd 3a 3e 3d be 64 b6 25 3e
       0.16712242 -0.10913677 -0.18480769 0.16182858
000270 6a ef cd bd 0e 67 1b 3e cb ba 1e 3d 8f e0 2b 3e
       -0.1005543 0.15176031 0.03875236 0.16784881
000280 60 40 1d be 1c 62 bb 3d a8 38 11 3e c4 e3 84 3d
       -0.15356588 0.09149572 0.14181769 0.06488755
000290 14 23 45 3e 3e fa 53 be cd 7f e8 bd 57 9f a6 bd
       0.19251662 -0.20700929 -0.11352501 -0.081358604
0002a0 b0 59 0e 3d 92 d5 f4 3d fa 17 58 3e 4b 55 16 3e
       0.0347535 0.11954798 0.21102896 0.14680974
0002b0 26 17 08 3c d0 52 e4 3c 92 ef 11 3e 62 68 da bd
       0.0083063 0.02787152 0.14251545 -0.10664441
0002c0 7c 19 47 be 5e 46 33 be 70 75 53 3b 5e 87 b8 3c
       -0.19443315 -0.17507312 0.0032266043 0.022525486
0002d0 ce 19 94 bd b3 12 23 3d 54 a0 35 3e 8c d9 92 3d
       -0.07231484 0.039812755 0.17736942 0.071704
0002e0 e4 50 36 3e 81 d5 88 be 8a 92 0d be c7 45 2d 3e
       0.17804295 -0.2672539 -0.13825431 0.16921149
0002f0 7a b8 e9 3d 83 0e e9 3d fd 1b ed 3d a3 77 8c bd
       0.11412139 0.11379721 0.11577604 -0.068587564
000300 8d f7 0e be aa 55 95 3d ad a7 5f 3d c9 cd 17 3e
       -0.1396162 0.0729173 0.054603267 0.14824595
000310 7d 5d 8c bd b9 fa 77 3e f9 b2 ef bb 80 b8 c2 3c
       -0.06853769 0.24216737 -0.0073150364 0.023769617
000320 5c 8f 45 3e 69 c6 e5 bd 93 44 5b be 0d 33 e2 bd
       0.19292969 -0.11219484 -0.21412878 -0.110448934
000330 3e 09 dd 3d fc 4d 5f 3e 94 7c 5f be cd 11 a4 bc
       0.107927784 0.21807092 -0.21824867 -0.02002802
000340 fc 38 22 3e 0c bb 06 be 7e e4 30 3d 18 de a5 3d
       0.1584205 -0.1315729 0.043186657 0.08099002
000350 35 cf 89 3d c9 df 44 be a8 b6 2e be 98 43 65 bd
       0.06728975 -0.19225992 -0.17061865 -0.055972666
000360 3e 4a 27 be 3c af 20 3e 8c 5f 7f be be 0b 34 bc
       -0.16336915 0.15691847 -0.24938792 -0.010989128
000370 5c 42 5b bd a2 4a 58 bd 8b 53 19 3e 4e fb 4a be
       -0.053530082 -0.05280555 0.14973275 -0.19822428
000380 87 6b 58 bc 30 46 2a bd 59 1d 58 3e 59 16 33 be
       -0.01320923 -0.041570842 0.21104945 -0.17488994
000390 0c 2d 84 3e 86 7f 66 be 09 a0 03 be a0 9e 0e be
       0.25815618 -0.22509584 -0.12854017 -0.13927698
0003a0 e4 4c dd bd 6a 61 a2 3d cb b6 08 be b9 15 dc 3d
       -0.10805681 0.079287365 -0.1335098 0.10746331
0003b0 15 5f 34 3e da 45 c7 3d c2 5f 39 be c3 68 b7 3d
       0.17614396 0.0973012 -0.18102935 0.089555286
0003c0 fe 96 34 3d e3 1b a3 bd db 0b 19 3e de ec 6e 3d
       0.04408931 -0.07964303 0.14945929 0.058331363
0003d0 0f ba 46 3e 39 c4 7e 3e b8 d0 ac bd 45 4d 50 be
       0.19406913 0.2487954 -0.084382474 -0.20341976
0003e0 62 18 5e be 06 0c db bd 2e 0d 69 bc 2a 95 9a 3c
       -0.21688989 -0.10695653 -0.014224334 0.018869955
0003f0 03 62 b3 bd 80 6b 91 bc 30 1e 84 be 6b 80 24 3e
       -0.087589286 -0.017751455 -0.2580428 0.16064613

bias f4 [16]
000000 08 be 00 3e 93 77 7e bd 9a 0f e5 3d bb 59 93 3b
       0.12572491 -0.062125754 0.111846164 0.0044967807
000010 8a 20 0b 3e a6 2f 02 be cf 24 25 3e 83 c2 4c bd
       0.13586631 -0.12713489 0.16127323 -0.04999019
000020 54 3d 38 3c 73 22 a6 bd 28 ff 5c 3c e2 60 c0 3d
       0.0112450905 -0.081120394 0.013488568 0.09393479
000030 97 4c a7 3d 98 a7 d9 bd cb 79 12 3e d0 25 02 bd
       0.08168905 -0.10627669 0.14304273 -0.031774342

weight f4 [1, 16]
000000 3e 7c c6 3d b8 4e 2c 3e 3f 28 eb bc 74 4a 33 be
       0.09691666 0.16826904 -0.028705714 -0.1750887
000010 5a 25 4b be 25 29 07 3e 21 78 26 bd cd db 0e bd
       -0.19838467 0.13199289 -0.040641908 -0.034877587
000020 07 30 b9 3d 27 db 47 bd b4 25 ac bc 19 26 b5 3c
       0.090423636 -0.048792984 -0.021014072 0.022112893
000030 1b 01 63 bd 72 05 4a be 98 88 0d 3d 72 b8 25 be
       -0.055420976 -0.1972864 0.034554094 -0.16183642
