model.pth (torch, 7919 bytes, 9 tensors)

weight f4 [16, 3]
000000 f0 b8 b9 be 6b e6 18 be e8 be 50 3e 30 c2 cc be
       -0.3627391 -0.14931647 0.20385325 -0.39991903
000010 d2 cd ac be f7 fa 8a be 36 7b e6 bd 75 2c e3 be
       -0.33750778 -0.27144596 -0.11253969 -0.44369856
000020 ff 7a 04 be a6 3c c2 3e 09 82 42 3e c4 2c 58 3d
       -0.12937544 0.37936896 0.18994917 0.052777067
000030 13 e5 1f be 35 e6 b6 3e 7a 7f 4a 3e 82 49 92 3e
       -0.15614729 0.3572251 0.19775191 0.28571707
000040 95 b2 05 3f 61 6e e8 3c b3 60 02 3b 7c 20 15 3f
       0.5222562 0.028372945 0.0019894063 0.5825269
000050 b7 b0 0e 3f 4a ca 00 be 37 1f bd be 4d 5e 91 3e
       0.55738395 -0.12577167 -0.36937878 0.28392258
000060 ad a6 2e 3c e4 f0 65 3e de cc a6 3e a4 58 91 3c
       0.010659856 0.22455174 0.32578176 0.017742462
000070 d4 df 23 be 46 20 99 3e e9 54 71 be e5 0b a1 be
       -0.16003352 0.29907435 -0.23567547 -0.31454387
000080 ad 40 d0 3e 9b b0 1b bf 7c 49 d6 3e d1 24 13 bf
       0.40674344 -0.60816354 0.4185294 -0.5747805
000090 3d b1 bf be 12 81 0b be 5b f4 82 3d 9b 96 13 3f
       -0.3743991 -0.13623455 0.06394263 0.5765168
0000a0 22 ee c5 be 32 00 bf bd 53 15 a7 be 90 d9 60 3d
       -0.38658243 -0.09326209 -0.32633457 0.054894984
0000b0 36 94 77 bd e4 e0 2f 3e 54 bc 8d 3e 9d 48 9b be
       -0.06044408 0.17175633 0.27682745 -0.30328837

bias f4 [16]
000000 05 86 db be 0c 16 10 bf 09 c7 dd bc 8f 04 64 3e
       -0.42875686 -0.5628364 -0.027072446 0.22267364
000010 81 8c 79 be 6f 72 1d bc 43 73 16 bf 30 e9 20 bf
       -0.24370004 -0.009609803 -0.58769625 -0.62855816
000020 90 91 61 3f 4e 1b e8 3e 0b 06 20 be 91 7e c6 be
       0.88112736 0.45333332 -0.15627305 -0.38768438
000030 bc ea 55 be e0 e7 40 bf 79 9a 9b 3d 40 3c d7 3e
       -0.20890325 -0.75353813 0.07597823 0.42038155

weight f4 [16, 16]
000000 eb be 7e 3e e0 52 3d 3c 10 11 e7 bc 39 98 06 be
       0.24877517 0.0115554035 -0.028206378 -0.13144006
000010 d3 df ea bd e0 65 d2 3d f0 da 14 bd bd 9a 18 be
       -0.11468472 0.10273337 -0.036341608 -0.14902778
000020 5e 43 b0 bd 0a 90 d5 3e 65 97 6c be 40 32 62 3e
       -0.08606599 0.41711456 -0.23104627 0.22089481
000030 75 2f c1 bd 08 99 85 3c 86 0f 7f 3e b4 33 37 3e
       -0.0943288 0.016308323 0.24908265 0.17890817
000040 2c ed 28 be 00 a2 c6 3b 58 0e 79 3d 28 c1 01 3e
       -0.16496724 0.0060617924 0.060804695 0.1267134
000050 38 cc 91 3d 2a f1 67 be 82 bb 29 be 3c 6d 04 3e
       0.0711903 -0.2265059 -0.16575435 0.12932295
000060 d8 2b 44 bd 10 32 fc bd 1a cb 6d 3e b4 a2 e0 bd
       -0.047893375 -0.12314236 0.23222008 -0.10968533
000070 10 9b 1e bd 78 63 25 bd ac c4 76 be b8 a3 04 bd
       -0.038722098 -0.040378064 -0.24098462 -0.032382697
000080 b3 1b 57 bd 96 38 01 3e 14 37 91 bd 92 46 a0 3d
       -0.05251665 0.12619242 -0.070905834 0.0782596
000090 f7 29 b8 be 69 55 15 be 0d cd 34 bd a5 4e 82 3e
       -0.35969517 -0.14583363 -0.044140864 0.25450626
0000a0 50 85 93 bd 16 ea 07 be b8 ae 48 3e d4 91 58 be
       -0.07203162 -0.1327289 0.195979 -0.21149379
0000b0 d6 01 3e 3e c3 f7 35 3e 48 03 4a be 84 3b 97 3c
       0.18555388 0.17770295 -0.19727814 0.018460996
0000c0 26 92 15 be 44 7d 36 be 40 41 f5 3d 09 8c 81 3d
       -0.14606532 -0.17821223 0.11975336 0.06325538
0000d0 e7 b1 1f be 6e f0 2f 3e 57 13 06 be ea 3f 9b be
       -0.15595208 0.1718156 -0.13093315 -0.303222
0000e0 a5 da c0 bd 5e 30 f4 bd b2 07 3e 3d 63 c5 1a 3e
       -0.09416703 -0.11923288 0.046394058 0.1511436
0000f0 20 ea 4a bc cd df 6a 3e db f5 10 3e 03 a2 1a be
       -0.012384921 0.22936936 0.14156286 -0.15100865
000100 60 42 35 be 0e 82 46 3e 90 62 7a be 02 a2 5b 3e
       -0.17701101 0.1938555 -0.24451661 0.2144852
000110 44 8d 86 bd 04 8c 25 be b4 41 34 3e 66 cf 9a be
       -0.06569913 -0.16166693 0.17603189 -0.30236357
000120 9e 0e 06 bd 69 75 e2 bd 41 34 3c bd 92 e4 ec bc
       -0.032728784 -0.110575505 -0.04594827 -0.028917585
000130 a3 77 38 3e 55 03 29 be 26 51 f2 3d 58 b1 e0 3d
       0.18014388 -0.16505177 0.11831884 0.10971326
000140 6c a9 7a 3e d4 5d 44 3e 1c c1 76 be c3 13 2b 3e
       0.24478692 0.19176418 -0.24097103 0.16706757
000150 6b ee b9 bd cf 1c 86 3c 3d 02 0b be f4 ad ff bd
       -0.09078678 0.016371159 -0.13575073 -0.12484351
000160 2c b6 38 be d1 62 96 bd b8 ec 00 be 40 05 ae 3c
       -0.18038243 -0.073430665 -0.12590301 0.021242738
000170 24 ae 92 3d b8 20 08 3d 3a 08 4e be c9 ac 46 be
       0.07162121 0.033234328 -0.20120326 -0.1940185
000180 9e 03 e1 3d e0 a4 90 bd d6 0a 3a be b1 e0 8a be
       0.10987018 -0.070626974 -0.18168196 -0.2712455
000190 cf 7d 46 bc e9 0c 08 3d 55 ff 86 3d 65 85 34 3e
       -0.012114956 0.033215437 0.065916695 0.17629011
0001a0 3c e9 52 3d 09 0f 33 3e 66 b7 bb bd 54 31 ef 3d
       0.05149196 0.17486204 -0.0916584 0.116793305
0001b0 b7 23 b8 bc d9 25 04 3d fd 64 9a be aa bb 7c bd
       -0.022477968 0.032262657 -0.30155173 -0.061702408
0001c0 0e f4 9a bc e6 1a 1d be e8 39 e8 bd d0 a4 18 3e
       -0.018915202 -0.15342292 -0.1133917 0.14906621
0001d0 f9 9d 10 3e 3b ec 30 be 69 4b 1d be 4c 66 5f 3e
       0.14122762 -0.17277615 -0.15360798 0.21816367
0001e0 b3 96 df 3d ab 3c 9a bd 87 cb 95 bd df b2 7f 3e
       0.109174155 -0.07531103 -0.073142104 0.24970578
0001f0 c9 2f 89 be 3a be 6d 3e f7 9f af 3c ee 56 c1 bd
       -0.2679427 0.23217097 0.021438582 -0.09440409
000200 5c b1 25 bd 4a 55 36 be 7c f5 f2 bd 61 a6 4e be
       -0.040452346 -0.17805973 -0.11863229 -0.20180656
000210 0c 86 4f bd c0 5f 61 38 73 42 5c 3e f0 7e 66 bd
       -0.050664946 5.3733354e-05 0.21509723 -0.0562734
000220 24 5e 0a 3e d7 95 4e 3e 6b e7 f8 3d cb 05 2d be
       0.13512474 0.20174347 0.121535145 -0.16896741
000230 b5 93 0b be 29 a5 d8 3c b5 30 25 3e 4b 30 6b bd
       -0.13630565 0.026445942 0.16131862 -0.057419103
000240 0c fb 3f be f6 fa 07 be 5c 98 fc bd 54 43 d3 3d
       -0.1874811 -0.13279328 -0.12333748 0.10315576
000250 c6 8c e8 bd 0b 52 8a bd ae b4 b0 bd c0 93 28 bd
       -0.113549754 -0.0675393 -0.08628212 -0.04115653
000260 2b 9b f6 bd 13 0e 92 3c f4 03 92 bd 40 a1 f4 bb
       -0.12041315 0.017828977 -0.0712966 -0.0074655116
000270 6a e3 45 be 71 55 d0 bd 5e b3 3a 3e 62 8f 18 3e
       -0.19325033 -0.10172547 0.18232486 0.14898446
000280 09 b4 12 be 40 04 55 be 00 f9 50 bc db a2 1b be
       -0.1432649 -0.20802402 -0.012754679 -0.15198843
000290 f5 c0 d0 bd 4d 1a 80 3e 02 17 68 be fb 1b 9e 3c
       -0.10193054 0.25020066 -0.22665027 0.019300452
0002a0 f7 09 6e 3e 3d 26 45 3e 0a 3f ca bd ea d7 db 3d
       0.23245989 0.19252868 -0.09875305 0.10734542
0002b0 12 55 86 3d cf 63 88 3b 75 10 72 3d 4a 51 d2 bc
       0.065591946 0.0041622887 0.059097726 -0.025673527
0002c0 db 5a 60 3d 90 3b 4a 3e 68 8b 49 3d 8a e6 73 3d
       0.054774147 0.19749284 0.049205214 0.05954603
0002d0 ea e4 60 3d 04 c6 24 be e8 3b 28 3e f8 c0 da 3d
       0.05490581 -0.16091162 0.16429102 0.10681337
0002e0 75 78 56 be 36 35 7c 3e 6c e8 21 3e fa 40 4e 3e
       -0.20944388 0.24629673 0.15811318 0.20141974
0002f0 f1 db 51 be 7f d7 1e bc 9d 98 3a 3d e4 99 42 be
       -0.20494057 -0.009694933 0.0455557 -0.19004017
000300 03 1d 38 be b6 9c 7d be 90 05 b6 3c 61 c7 8b 3b
       -0.17979817 -0.24766812 0.02221945 0.004265711
000310 2c d5 1e 3e e8 30 13 be 40 0e 17 3e 30 fe 59 be
       0.15511006 -0.14374125 0.1475153 -0.21288371
000320 f1 e1 5e 3d 07 6a 52 be 39 f9 6f be 4c 2a 76 be
       0.054414693 -0.20548259 -0.23434915 -0.24039572
000330 4f 16 a5 bd df bf 59 3d fa 88 fc 3c 8c a5 21 3e
       -0.08060896 0.0531615 0.030827034 0.15785807
000340 30 ce 80 3e e8 a5 40 3d 30 de 67 be 0e 9e e3 bd
       0.2515731 0.04703322 -0.22643352 -0.11114131
000350 d2 42 15 be 22 a3 26 be b7 cf 9d bd 97 c9 14 be
       -0.14576271 -0.16273168 -0.07705634 -0.14530025
000360 e5 15 89 bd 1d e7 68 3e e4 bc 04 3e fc 70 db bd
       -0.06693629 0.22744413 0.12962681 -0.107149094
000370 28 a9 40 3d 52 3b 5e 3c 6b a2 31 3e 62 b2 c4 bd
       0.04703632 0.013563948 0.17347114 -0.09604336
000380 18 f6 92 be 8c c4 bc 3d 90 d1 34 3e 5b cb 8a 3c
       -0.2870338 0.09217176 0.17658067 0.01694267
000390 34 d8 64 bc 06 75 16 3e b4 12 48 be 79 b8 ef 3d
       -0.0139675625 0.14693078 -0.19538385 0.11705107
0003a0 7d 24 85 bc 41 3a 3f 3e 15 77 0c 3e f1 cb ce be
       -0.01625275 0.18674566 0.13717301 -0.4038997
0003b0 08 f3 80 3e cf e9 69 3e 5a ac 45 be 7a 56 49 3e
       0.25185418 0.22843097 -0.19304028 0.19661894
0003c0 72 6f 6b 3d 46 a0 4a be 4c d4 94 3d ef ba 03 be
       0.05747933 -0.19787702 0.07267055 -0.12864278
0003d0 27 d1 c1 bd 66 1e fa 3d ee 0c 3d 3e f6 b9 14 3e
       -0.09463721 0.12212829 0.18461964 0.14524063
0003e0 60 92 4d be 71 fe 72 3e 0c 53 d7 bd aa be 02 bd
       -0.20075369 0.23729874 -0.10513887 -0.031920113
0003f0 70 01 15 3e 31 53 69 3d 69 a7 93 be a9 cd 30 be
       0.1455133 0.056964103 -0.2883866 -0.17265953

bias f4 [16]
000000 d7 82 09 3e d8 9b c0 bd 18 c4 b0 bc a8 2e 81 3e
       0.13428818 -0.09404725 -0.02157788 0.25230908
000010 9c fb 03 3f 2e f1 35 be ea 42 40 3e d0 71 18 3e
       0.515558 -0.17767784 0.18775526 0.14887166
000020 2f 67 82 be bb 85 c8 bd c4 c5 21 3f b5 3a 2f be
       -0.25469348 -0.09791132 0.6319239 -0.17112239
000030 a8 f8 c6 be 7b e9 87 3e 96 cd 97 be c0 2a 8e be
       -0.38861585 0.2654532 -0.29649037 -0.2776699

weight f4 [16, 16]
000000 50 3b 4e be 98 50 57 3e c0 77 8c 3d 38 c4 8e bd
       -0.20139813 0.21026838 0.06858778 -0.069710195
000010 40 e8 18 bd d8 82 4d 3e 8c 7a 52 3e c8 de cf bd
       -0.037330866 0.20069444 0.2055456 -0.10149914
000020 b8 9c 5d be 80 5a 56 3c 4a 02 28 be 2e e7 12 3e
       -0.21641815 0.0130831 -0.16407123 0.14346
000030 90 a4 13 be 9a ce 4b be d0 5e f6 bd b2 1c 1c be
       -0.14418244 -0.19903031 -0.12029803 -0.15245321
000040 60 b6 8a 3c 00 99 ed bd f0 37 11 3e 40 8a ec 3c
       0.016932666 -0.11601448 0.14181495 0.028874516
000050 5b 1c 40 be fa c1 10 3e 61 ce 86 bd 6c 6c 4e be
       -0.18760817 0.14136496 -0.065823324 -0.20158547
000060 b3 b0 75 3d 58 1f 41 3d 9c 05 10 3e 2f 7d 85 3d
       0.059982967 0.047149032 0.1406464 0.065180175
000070 15 5f 3d 3d 6f 39 40 be 4e 70 76 be 05 de 63 be
       0.046233255 -0.18771909 -0.24066278 -0.22252662
000080 6d 9b 47 be 38 3b 90 bd 22 70 eb bd f8 51 e5 bd
       -0.19492884 -0.07042545 -0.11495997 -0.11197275
000090 87 57 24 3e 0b e6 bd bd be be 4f 3e 88 50 52 3e
       0.16049014 -0.09272393 0.20287606 0.20538533
0000a0 ed 7c 83 bd 9c 6b 8e 3d 7b 50 54 3e 8b 24 3b 3e
       -0.06420312 0.069541186 0.20733826 0.18275659
0000b0 17 af 8c 3d 14 85 e0 bd 38 46 15 3d d8 98 94 bc
       0.06869333 -0.10962883 0.03644392 -0.018139288
0000c0 63 ed 86 be b6 c2 3f be 77 31 51 bd cf b6 50 3e
       -0.26352987 -0.1872662 -0.051072564 0.20382236
0000d0 d5 50 74 be 51 44 ec bd 76 d2 a7 be 67 fc c3 bd
       -0.2385896 -0.11536468 -0.32777756 -0.09569626
0000e0 27 f4 10 3d 1c 54 78 be 56 3e 5e 3d 19 2f 7f 3d
       0.03538909 -0.24250835 0.054258667 0.062300775
0000f0 0e 5d 09 3e 25 98 c8 bd db 80 0a bd 17 dc a5 3d
       0.13414404 -0.09794644 -0.033814292 0.080986194
000100 9a b8 fc 3d ba 22 68 3e 8b f0 c0 bd f7 24 3d be
       0.123398975 0.22669497 -0.0942088 -0.18471132
000110 f8 37 e6 bc 75 dd c5 3d 02 b9 bb 3c 5c 24 8a 3c
       -0.02810286 0.0966138 0.022915367 0.01686304
000120 e0 44 38 39 be dd 2b be 17 6e 8c bd 12 40 63 3e
       0.00017573265 -0.16783807 -0.068569355 0.2219241
000130 52 00 5c 3e f0 30 5f 3e 0b a5 18 3e 6c fb 84 3e
       0.21484497 0.21796012 0.14906709 0.2597307
000140 65 3e 7f bd 20 a8 5c be bc 69 12 be 97 36 d9 bd
       -0.062315363 -0.2154851 -0.14298147 -0.10606115
000150 d1 47 34 be ae 31 05 bc bd 7b e9 bd 8c 75 ae 3d
       -0.17605521 -0.00812952 -0.11400554 0.08518514
000160 a6 4f 7f 3d 7e d7 3a bd 7a fd 63 3e e6 45 15 be
       0.062331818 -0.045615666 0.22264662 -0.14577445
000170 74 5a 39 3e 3d c2 2c be 2f 9b 1a 3e 6b 26 d0 3d
       0.18100911 -0.16870971 0.1509826 0.10163578
000180 11 4d 8b 3e 78 82 bf bd 82 f6 97 3d 7c e2 6f 3c
       0.27207235 -0.09351057 0.074200645 0.0146414
000190 b2 b8 73 bc 92 53 c5 3c d7 d6 18 be 58 ca a7 be
       -0.014875578 0.024087701 -0.14925705 -0.32771564
0001a0 05 b0 7a 3e e9 74 28 be 77 a3 93 be ab 12 55 3c
       0.24481209 -0.16450848 -0.2883565 0.013004939
0001b0 4e 2c 9f 3d cc 5f 20 bc 7f 06 3b be 67 e5 b5 3c
       0.07772122 -0.009788465 -0.18264197 0.022204114
0001c0 22 7f 53 bd 40 b6 3b bc 6c 4b 47 3e 13 73 53 3e
       -0.051634915 -0.011457026 0.19462365 0.20649366
0001d0 82 6c 3d 3a ae 02 42 be 9c 2c a8 bd a1 c9 4c 3b
       0.0007225947 -0.18946335 -0.082116336 0.003124811
0001e0 ea 36 66 3e 8c 49 a1 3c 85 bb 4a be 9f 95 09 3e
       0.22481886 0.01968839 -0.19798096 0.13435982
0001f0 f1 c7 85 bd 7b a3 0a be 11 db a6 3d 7a 4b 87 3e
       -0.065322764 -0.13538925 0.08147252 0.26424772
000200 4f 22 c3 3d c0 4c 6c be 8e d1 8d 3d 56 a0 24 bd
       0.09528028 -0.23076153 0.06924735 -0.04019197
000210 6a ad 28 3d 24 84 0d 3e a6 07 32 3d f3 c4 be 3d
       0.041181006 0.13819939 0.043464325 0.09314909
000220 dc 43 e4 3d 18 11 3f bd d3 ae ae 3e 95 30 1e 3e
       0.11145756 -0.04664716 0.34117755 0.1544822
000230 ea 64 59 be 64 b3 1f 3e 0a 77 ef bd ca 0f 23 3e
       -0.21229902 0.15595776 -0.11692627 0.15923992
000240 68 b9 86 3e 28 24 80 bd 77 3b c4 3d 36 9d b5 3c
       0.2631333 -0.06256896 0.095816545 0.02216969
000250 ab 97 32 3e 06 29 04 bd a7 59 49 bd f6 a0 18 3d
       0.17440669 -0.032265685 -0.049157765 0.03726288
000260 a7 7f 0c 3b bb 2e 16 3e 85 80 82 bd 72 f1 31 3e
       0.0021438391 0.14666264 -0.063721694 0.1737726
000270 27 8a 6e bd 2d e3 de 3c 7f e4 a1 bd 5b e4 89 be
       -0.05823722 0.027207935 -0.0790491 -0.26932034
000280 c9 60 77 3e c8 8b 10 bd 50 a2 80 3d 9f 15 a9 3d
       0.24158014 -0.035289556 0.06280959 0.08256077
000290 a8 8a 0c 3e a4 7b 48 3c ae 6f 32 3e a3 cb cf 3d
       0.13724768 0.0122365095 0.17425415 0.101462625
0002a0 2f 96 ab 3d d1 46 13 bd 15 29 16 bc 6c eb cc bd
       0.083782546 -0.035956208 -0.009165068 -0.10005841
0002b0 69 57 25 bd a9 be ac bd 2e a1 85 bd d9 d5 14 3e
       -0.040366564 -0.08434803 -0.06524883 0.14534701
0002c0 90 dc 5c 3e 1a 1e 6b 3e 44 b7 83 be 74 3e c4 3d
       0.21568513 0.22960702 -0.25725758 0.095822245
0002d0 ab 60 81 3e 6d ed 57 3e 76 3d 0d bd 42 1e e1 3d
       0.25269064 0.21086664 -0.03448244 0.10992099
0002e0 49 ba 1a be ce 8f dd 3b 1f 25 3b 3c 4e 8b 96 3e
       -0.15110125 0.0067615276 0.011422425 0.29403156
0002f0 5a e7 e0 3d a3 47 a6 be 40 60 44 be 64 14 1f be
       0.10981627 -0.3247653 -0.19177341 -0.15535122
000300 7e 37 a3 3b dc 63 00 3e e9 b0 2d 3e 77 33 c3 3d
       0.0049809804 0.12538093 0.16962017 0.095313005
000310 0b 0a 80 3e d4 09 4c 3e 5e 0f 24 3e c1 1c 88 be
       0.25007662 0.19925624 0.16021487 -0.26584437
000320 32 1b 04 3c f8 eb 74 be 92 34 12 3f b0 fa b2 3d
       0.0080631245 -0.2391814 0.57111466 0.08739221
000330 02 1d 53 be b0 19 85 bd da 0d 3b be 3b 0f 42 3c
       -0.20616534 -0.0649904 -0.18267003 0.011844452
000340 3b 27 01 3e d8 ca fc bd cd a0 43 3e 80 15 9d bc
       0.12612621 -0.12343377 0.1910431 -0.019175291
000350 94 75 8e 3d b3 7e 86 be 74 fa c0 bd f1 4b e1 3d
       0.0695602 -0.2626854 -0.0942277 0.11000813
000360 db 20 23 be e5 ef fe 3d b5 f6 f0 be 97 06 06 3e
       -0.15930502 0.124481 -0.47063223 0.13088451
000370 3f ba fe 3c 20 8c 72 be a0 89 8d 3c 23 bc 6c be
       0.031094668 -0.23686266 0.017277539 -0.23118643
000380 ec 8c 55 3e 02 34 2a be 50 71 e3 3c b4 a2 d4 bd
       0.20854539 -0.16621402 0.027763993 -0.10382596
000390 41 b7 13 3e 94 ba 0c 3e 78 b2 23 be e7 ef f1 bd
       0.14425375 0.13743049 -0.15986049 -0.11813336
0003a0 d9 6c 24 be 72 af 13 be 00 51 95 be a8 3c b5 be
       -0.16057147 -0.14422396 -0.2916336 -0.3539784
0003b0 36 d2 9b 3d f4 98 bf 3d d1 74 99 b8 05 70 47 3e
       0.07608454 0.09355345 -7.317367e-05 0.19476326
0003c0 72 a9 40 3e 0a 3e 6c be a6 3d 78 3a 2f 3b 14 be
       0.18814638 -0.23070541 0.00094696356 -0.14475702
0003d0 24 d9 2b 3d 2f 83 0b be 05 b7 8b 3e d5 87 99 3d
       0.04195513 -0.13624261 0.2728807 0.07496611
0003e0 ac 54 da bd ae 3a 11 bd f8 cf 2a 3e 97 02 d0 3d
       -0.10660681 -0.035456352 0.16680896 0.10156744
0003f0 99 23 9b bc 8c 1f 22 bd f8 70 07 3d 54 34 3e 3e
       -0.018937873 -0.039580867 0.03306672 0.18574649

bias f4 [16]
000000 68 97 0e bd d6 be 56 be 04 32 05 3f 36 27 00 be
       -0.03481236 -0.20971236 0.5202944 -0.12514958
000010 ba 0f 76 be 7f 20 a0 3e a2 e7 32 bc 24 ae 0c bf
       -0.24029437 0.31274793 -0.010919483 -0.5495322
000020 3c 28 56 3e 36 30 a4 3e 63 a4 b5 3e 92 42 a1 be
       0.20913786 0.32068032 0.3547698 -0.31496102
000030 44 89 11 3f 98 f1 62 be 3b 2f 8d be 61 ab a9 3e
       0.56850076 -0.22162473 -0.27575096 0.33138564

weight f4 [16, 16]
000000 26 1b 5b 3e 46 85 3d bd f7 58 81 bc 4a 66 8d bd
       0.21397075 -0.046269678 -0.015789492 -0.06904276
000010 90 87 34 3e cc 36 82 3d ee 62 f4 3d 47 67 54 3d
       0.17629838 0.06358108 0.11932932 0.051856305
000020 ca cb 4f 3e d7 d6 dc 3e d7 d1 65 be cf 34 e9 3d
       0.20292583 0.4313266 -0.22443329 0.113870256
000030 95 0e ff bd 4f 28 94 be 23 09 80 bc 4d cc 20 be
       -0.12453953 -0.28937003 -0.015629357 -0.15702935
000040 58 2e 4f 3d 5a 9b 84 3e a7 b2 4d bd cf 91 3a 3d
       0.050581306 0.25899774 -0.050219204 0.04554921
000050 a4 46 04 be c8 a7 9d 3d a5 b9 18 bd 65 b6 84 3e
       -0.12917572 0.07698017 -0.03728642 0.25920406
000060 ff e6 48 3c ce 76 21 3e f3 e9 0a 3d 89 b4 ea 3e
       0.012262105 0.15767977 0.033914518 0.45840862
000070 67 7c d2 bd 34 a9 8d be 6c 22 79 3d b0 99 10 be
       -0.10277634 -0.27668154 0.060823843 -0.14121127
000080 c0 da 04 bd ae b6 e9 bc f8 df 37 3e cc 56 6a bc
       -0.03243518 -0.028529491 0.17956531 -0.014302921
000090 d5 ac 3f be 1c 8b 49 3e 7a 7f 07 be bb 5c 07 3e
       -0.18718274 0.19681972 -0.13232222 0.13218968
0000a0 39 df 65 3e e0 e0 73 be 54 66 bd bc c7 b5 fc 3c
       0.22448434 -0.23816252 -0.023120083 0.030848397
0000b0 23 a9 27 3e 2b 45 2c 3d 4d 8b c8 3d 97 02 55 3e
       0.16373114 0.04205815 0.097921945 0.20801769
0000c0 e4 4d 42 be 84 c9 36 be 4f 77 4f 3e 5d 9b a5 be
       -0.18975025 -0.1785031 0.20260356 -0.32345095
0000d0 c5 1d 83 bd fa 74 e3 bc 2c 54 bc bd 01 aa 1f be
       -0.064021625 -0.02776574 -0.09195742 -0.15592195
0000e0 47 30 2d be b1 73 0b 3d cc d7 77 3e a9 26 c2 3e
       -0.16912948 0.03404588 0.24203414 0.3792012
0000f0 95 23 fb be c0 a5 3b 3e a9 a6 e4 bd ab e1 c4 bd
       -0.49050584 0.18324947 -0.111646004 -0.09613355
000100 b8 bd e3 3d 2e 43 4d 3e 1b d7 64 3d 4c ef fc bc
       0.1112017 0.20045158 0.055869203 -0.030875824
000110 5d a0 7a 3e 74 c5 46 bd 5e 06 fa bd f1 29 1c be
       0.24475236 -0.04852815 -0.12208246 -0.15250374
000120 88 61 d4 be 42 76 f4 3d da 90 d3 bc 01 fc 11 be
       -0.4148066 0.119366184 -0.025825907 -0.14256288
000130 44 dc cc 3e 91 b3 45 3e 09 0a 8d 3e 94 88 3a bd
       0.400118 0.1930678 0.2754672 -0.045540407
000140 c8 6c 9d 3d 5a f1 99 bc 65 61 a8 bd 4a 04 20 3e
       0.07686764 -0.018791843 -0.082217015 0.15626636
000150 13 43 20 3e d9 ee 17 3d 67 78 84 3d 16 d9 bd bd
       0.15650587 0.037093017 0.064682774 -0.092699215
000160 51 9e 42 bc 73 5a c1 be e2 84 19 3d bd 15 8f be
       -0.011878566 -0.3776432 0.037480243 -0.27946272
000170 d9 7c 8f 3d 9d ca 90 be 79 c7 62 bc 4d 57 16 be
       0.07006235 -0.28279582 -0.013841503 -0.1468174
000180 84 53 6d be 43 2e cf 3e 82 4e 59 be 7a c7 02 3e
       -0.2317639 0.40464982 -0.21221355 0.12771407
000190 e0 6b 5f 3e e7 33 6a be 7d e0 03 3e d9 b2 b8 3a
       0.21818495 -0.22871362 0.12878604 0.0014091387
0001a0 12 92 5f bc 32 5d 96 be 91 8c 9e bb 5b 6f 62 bb
       -0.013645666 -0.29367977 -0.004838534 -0.0034551236
0001b0 e7 bd 42 bc 58 c0 17 bd 60 6f a5 3e 8e 68 4d be
       -0.011886097 -0.037048668 0.32311535 -0.20059416
0001c0 4a 5b 5b be 2d d8 4c be a6 a9 4f 3e 96 3e c7 3b
       -0.21421543 -0.2000434 0.2027956 0.006080459
0001d0 62 ff b2 bd 83 6d e8 3d a8 a6 2d be 57 87 24 be
       -0.08740117 0.11349013 -0.16958106 -0.16067253
0001e0 51 24 3e 3e 9d bc d4 bb af a4 81 3e ca f7 c2 bd
       0.18568541 -0.006492211 0.25320956 -0.09519918
0001f0 b1 26 c4 3d 57 aa ad 3e 1f 1d 01 3e 0c 02 04 bd
       0.09577692 0.3391902 0.12608765 -0.032228515
000200 e0 a2 41 be 5b d2 3f 3d 31 09 29 3e 75 ee 59 3e
       -0.18909788 0.04683147 0.16507412 0.2128237
000210 01 7f 61 be 18 45 8d 3c ab 22 cb 3d 60 61 7b bd
       -0.22021104 0.01724486 0.09918722 -0.06137216
000220 10 10 ab 3c 2e d7 03 be 26 33 f5 3d 89 af a7 bd
       0.020881683 -0.12875053 0.119726464 -0.081877775
000230 d4 20 32 3e 52 28 fd bb 4f 38 50 be 41 75 fd 3d
       0.17395335 -0.007725754 -0.2033398 0.1237588
000240 40 97 d6 3d d1 05 91 3e f2 78 24 3d ec 73 79 3e
       0.104780674 0.2832475 0.040154405 0.24360627
000250 d1 b5 68 3e 46 db ac bd 5f c1 44 be 95 7a 80 3e
       0.22725607 -0.084402606 -0.1921439 0.25093523
000260 48 78 58 3b cd 39 8a bc 71 ed 48 be a0 fe 2c 3e
       0.0033030678 -0.016873265 -0.19621827 0.16894007
000270 a0 c5 38 3c a2 24 b8 be cb 1c 0c 3e 5b ff 2d bd
       0.011277586 -0.3596545 0.13682859 -0.042479854
000280 18 61 f8 bd 77 22 3d bd fa 73 92 bd 69 ea 84 3d
       -0.12127894 -0.046175446 -0.07151027 0.06490023
000290 d4 0e a9 bd 64 3f 66 3e ac 68 47 be 0a e1 d2 3c
       -0.08254781 0.22485119 -0.19473523 0.025742073
0002a0 d6 53 c6 3d cd e8 45 be 07 0d a0 bd b6 0c 4b 3e
       0.09683959 -0.19327088 -0.07814985 0.19829068
0002b0 e8 6d 19 3e 44 f7 73 bd 28 81 da 3d 98 1f cd 3d
       0.14983332 -0.059561983 0.10669166 0.10015792
0002c0 0e e8 03 3e 34 60 14 bd 5a 81 45 3e 3c 03 34 be
       0.1288149 -0.03622456 0.19287625 -0.17579359
0002d0 5b 4b 78 3d 50 89 3f bd 01 01 b6 3d fc c0 4a 3e
       0.06061874 -0.04676181 0.0888691 0.1980018
0002e0 67 2f 93 bd 5d b5 d4 3d 8d 22 a2 bb 5b 9b 76 bd
       -0.07186776 0.10386155 -0.0049479664 -0.060206752
0002f0 38 5f a9 be 33 63 e9 3d 60 4c bf 3d b1 2e 48 3e
       -0.3308046 0.11395874 0.09340739 0.19549061
000300 e0 f6 6d 3c e4 7e 83 3d e4 dd 0b bb 3a 82 4f be
       0.014524192 0.06420687 -0.0021341974 -0.20264521
000310 ba 92 a9 3d c7 31 86 3d 8b 66 25 be 13 66 0e 3e
       0.08279939 0.06552463 -0.16152398 0.13906126
000320 8f c7 5a 3d cf 9f 60 bd 74 65 37 3e 76 ac 8a bd
       0.05341297 -0.054839905 0.17909795 -0.067711756
000330 63 6d b2 3d 09 17 a1 3c d9 bc f8 3d 56 8a 04 bc
       0.0871227 0.019664304 0.12145395 -0.0080896225
000340 80 b6 c6 bb 1e 0e e6 bd 13 ed bb 3d 33 c2 fa bd
       -0.006064236 -0.112331614 0.09176078 -0.12244072
000350 bc 36 11 bc 67 67 c1 bc 09 97 2c bd ce e1 a8 be
       -0.008863147 -0.023608876 -0.042136226 -0.32984775
000360 46 df 60 3e 63 96 7e 3e 0c 27 48 3e 24 c5 a1 bd
       0.21960172 0.24862055 0.19546145 -0.0789893
000370 39 82 20 be 50 94 8d bd bb db 45 be 34 ce 63 3e
       -0.15674676 -0.06913054 -0.19322102 0.22246629
000380 60 f9 7d 3c 43 30 49 3b bd fa a3 bd c8 c6 53 be
       0.01550135 0.0030698932 -0.08006809 -0.20681298
000390 ee c0 8b 3d e2 06 ac 3d 13 47 02 bf 84 83 7d 3e
       0.06823908 0.0839975 -0.508897 0.247572
0003a0 e4 76 8a be e9 03 58 3c fa 72 6e be 76 0a 57 3e
       -0.2704383 0.013184526 -0.23286048 0.21000084
0003b0 f8 45 08 3e 0a 06 66 3e 98 40 2d 3e b5 f7 4f 3e
       0.13307941 0.22463241 0.16919172 0.20309336
0003c0 b8 5a 03 be c0 91 d4 3d 8c 61 7d 3e 86 8e 8c be
       -0.12827575 0.10379362 0.24744242 -0.27452487
0003d0 0e a1 17 be eb 31 76 3e c2 29 7e be 1f 52 d1 be
       -0.14807531 0.2404248 -0.24820617 -0.40882966
0003e0 4f ea 02 3e 27 63 53 3d 47 dc 1f 3e 47 b8 a0 bd
       0.12784694 0.05160823 0.15611373 -0.07847648
0003f0 cb a7 fc be 2f 4f 44 be cf 5f 80 be 28 e0 96 3d
       -0.49346766 -0.19170831 -0.25073096 0.07366973

bias f4 [16]
000000 d9 26 44 be 9a 8f ec be d6 95 e8 3c f1 37 06 bd
       -0.19155444 -0.4620331 0.02839176 -0.032768194
000010 a5 2b 32 bc 47 25 d3 3d 2e df db be 0f 3e 18 3e
       -0.0108746635 0.103098445 -0.4294371 0.14867423
000020 9c 54 45 3e 01 6d ed 3d e5 88 27 be fd ea 7c 3d
       0.19270557 0.115930565 -0.16360815 0.06174754
000030 f6 23 11 bd b9 1e 02 3f 4f 49 01 bf 48 bf ac ba
       -0.035434686 0.5082813 -0.50502485 -0.0013179565

weight f4 [1, 16]
000000 bd f4 dd bd 4c 93 f6 be 18 84 67 3e 58 06 c2 be
       -0.10837696 -0.48159254 0.22608984 -0.37895465
000010 9d 05 af 3e 5d db 6c 3d cf f5 0e bf 13 7d a1 3e
       0.3418397 0.05782639 -0.55843824 0.31540737
000020 a1 b5 75 3e 9c 73 62 be b3 97 a1 3e 0a c0 cb bd
       0.23995067 -0.22114414 0.3156105 -0.09948738
000030 3f 90 8c 3b 99 00 0a bf e7 9c ff 3e 3b 04 0d bf
       0.0042896564 -0.5390716 0.49924394 -0.5508458
