model.pth (torch, 13201 bytes, 15 tensors)

weight f4 [16, 3]
0.5191421 0.38773537 -0.60050225 0.51755154 -0.06670913 -0.40894368 0.17831424 0.27122048
0.3330529 0.2972753 0.3407832 0.11454518 0.29297563 0.0330355 -0.47381523 0.55516416
0.07702277 -0.4786771 -0.051432226 0.16097982 0.07131921 -0.5196643 0.02459727 0.0906251
-0.30156595 -0.34555212 -0.041386984 0.076236784 -0.030977981 0.5392576 0.46707872 -0.13616732
-0.0033896512 0.5668393 -0.12622623 -0.1588455 0.1638344 0.2735341 0.20325036 0.43797985
-0.56121 -0.34429076 -0.66138226 -0.44518086 0.47492456 -0.25294238 -0.022356598 0.24517801
00000000: 7fe6 043f 4085 c63e 84ba 19bf 427e 043f
00000010: cc9e 88bd 1161 d1be 0298 363e 69dd 8a3e
00000020: e985 aa3e 7834 983e 237b ae3e aa96 ea3d
00000030: e700 963e 3c50 073d e997 f2be 3d1f 0e3f
00000040: 1dbe 9d3d 2a15 f5be 99aa 52bd e5d7 243e
00000050: ce0f 923d b808 05bf 3780 c93c a799 b93d
00000060: da66 9abe 35ec b0be 6685 29bd 0822 9c3d
00000070: 89c5 fdbc c90c 0a3f f124 ef3e 726f 0bbe
00000080: e924 5ebb 611c 113f 7341 01be 65a8 22be
00000090: 34c4 273e a90c 8c3e dd20 503e e53e e03e
000000a0: 75ab 0fbf e146 b0be 5950 29bf bfee e3be
000000b0: 5029 f33e aa81 81be 2f25 b7bc f20f 7b3e

bias f4 [16]
0.38119653 0.41295126 0.029857999 -0.23386075 -0.4484284 0.48820964 -0.081192434 -0.51342976
-0.113724254 0.3626508 -0.6169101 0.09706257 0.330902 -0.1320282 -0.34848702 -0.31869647
00000000: 312c c33e 596e d33e c398 f43c 3179 6fbe
00000010: 6898 e5be 9df6 f93e 3848 a6bd 2270 03bf
00000020: 43e8 e8bd 5ead b93e d2ed 1dbf bec8 c63d
00000030: fd6b a93e 6732 07be e46c b2be 2f2c a3be

weight f4 [16, 16]
-0.079957135 0.19648288 0.055846427 0.07984429 -0.047955584 0.21428794 0.033040293 -0.19302638
-0.050890774 0.1877911 0.20730567 -0.16006856 0.04558116 -0.03791974 -0.06917612 0.06966818
0.047798865 0.18077941 0.2622213 -0.16204062 0.14103395 0.12885764 -0.1079648 0.16663268
0.10191694 0.1405895 -0.056630276 -0.20021823 0.26109225 0.046194572 -0.08140471 0.08061296
0.21631274 0.04096704 -0.04195242 -0.035717502 0.031684905 0.041704573 0.14337122 0.19473746
-0.0062128305 0.077926196 0.18259229 0.16237427 0.22246648 -0.074149296 -0.095790945 -0.22209635
-0.16026694 -0.023385584 -0.082122475 0.032941133 0.18835464 -0.08915326 0.09042063 -0.13147053
-0.07649344 -0.16375956 -0.034736782 -0.14930695 0.098427236 -0.22605899 -0.040415853 0.19457376
-0.0077691674 0.044525087 -0.14120454 0.112033576 -0.24767256 -0.19917017 -0.134027 0.22860673
0.024436653 0.019830525 -0.18078458 0.24920785 -0.06349921 -0.11224699 -0.07294425 -0.11425927
0.21683526 0.1226386 0.26188368 0.13369116 0.10147228 -0.0030313255 0.22111264 0.18365179
0.21762064 -0.12094866 0.15770267 0.03179621 0.17058598 -0.018821506 -0.020562096 0.13695359
-0.2482363 -0.12552547 -0.046238627 0.22673301 0.08237044 -0.19266877 -0.1113255 0.06038773
-0.041576326 0.09937045 0.2537697 -0.03652859 0.23930858 -0.12059003 -0.23217097 -0.02174606
0.18320948 -0.0854946 0.11350268 -0.14096923 0.083012804 0.08141049 0.026659414 0.03128182
0.21801475 -0.2597415 -0.1019792 -0.2226247 0.22863404 -0.06314915 -0.20593089 -0.028559836
-0.06434202 0.08926872 0.09210263 -0.205375 0.20254806 -0.11871575 0.18078023 0.255933
-0.026495278 0.23207748 -0.093276836 0.17935917 -0.08984797 -0.12006843 -0.09406225 -0.19226788
0.00090120273 -0.22386824 -0.04802022 -0.064763404 -0.23366472 -0.0007334043 -0.10888091 -0.20279494
0.08594352 0.115753286 -0.0926531 0.22715181 -0.05163329 -0.18862347 -0.1275678 -0.07698972
0.12212327 0.024256947 0.061298806 -0.15212612 -0.14281693 -0.10537825 -0.03161735 0.15261102
0.02337271 0.19272126 -0.058319125 -0.07125863 0.15105209 -0.048172813 0.1939853 -0.023598745
-0.21147189 0.22665985 0.19297224 0.23037367 -0.18493254 -0.25401747 -0.20501643 0.2927127
0.20252597 -0.20216888 -0.054723334 0.14979622 0.05187663 -0.06973096 -0.1230504 -0.066421784
0.028955631 0.18572591 0.12444447 -0.039228648 0.21431406 0.019143997 -0.18724868 -0.03743497
-0.09162447 -0.107278585 0.10242287 -0.17641354 0.049849384 0.16953538 0.23303013 -0.20301251
-0.19954756 0.20668419 0.0033641914 -0.13308434 -0.08166071 0.14345609 -0.16732308 -0.056311775
0.18026471 0.1623048 -0.15443306 0.25260535 0.15130533 0.15082988 -0.11176559 -0.14117691
-0.21074802 0.05598419 0.20085512 0.0711568 0.025657138 -0.17252277 -0.11180483 0.15358515
0.14228523 0.22173613 0.27216443 -0.07560314 0.23230375 -0.2232907 -0.02019298 0.22800659
-0.03270943 0.06741285 0.16743386 -0.14116275 0.1189227 0.053725246 0.27471828 0.008976925
0.20121813 0.15629154 -0.10178721 -0.16072509 0.062282432 -0.23652412 -0.16159324 0.18544474
00000000: 91c0 a3bd cf32 493e 39bf 643d 6785 a33d
00000010: 136d 44bd 4c6e 5b3e 4255 073d b5a8 45be
00000020: d872 50bd 4f4c 403e f047 543e 03e9 23be
00000030: 4fb3 3a3d bb51 1bbd 36ac 8dbd 31ae 8e3d
00000040: bec8 433d 3d1e 393e df41 863e faed 25be
00000050: 346b 103e 42f3 033e a61c ddbd c2a1 2a3e
00000060: d4b9 d03d b2f6 0f3e 26f5 67bd 0206 4dbe
00000070: e2ad 853e 8536 3d3d 83b7 a6bd 6818 a53d
00000080: 1681 5d3e 0ecd 273d 4dd6 2bbd 844c 12bd
00000090: 08c8 013d 6ad2 2a3d e8cf 123e 4269 473e
000000a0: 0095 cbbb c597 9f3d 79f9 3a3e 7145 263e
000000b0: 41ce 633e 96db 97bd 0b2e c4bd 3a6d 63be
000000c0: 041d 24be 2093 bfbc d42f a8bd 48ed 063d
000000d0: 0ae0 403e fc95 b6bd 742e b93d 36a0 06be
000000e0: 98a8 9cbd 96b0 27be 2848 0ebd ece3 18be
000000f0: 3894 c93d 027c 67be 188b 25bd 583e 473e
00000100: 8094 febb f05f 363d ec97 10be dc71 e53d
00000110: e09d 7dbe 44f3 4bbe 603e 09be e217 6a3e
00000120: 602f c83c a073 a23c 981f 39be 5830 7f3e
00000130: e00b 82bd c0e1 e5bd cc63 95bd c400 eabd
00000140: 100a 5e3e f229 fb3d 9e15 863e 56e6 083e
00000150: b3d0 cf3d 34a9 46bb 5a6b 623e 370f 3c3e
00000160: f2d7 5e3e eeb3 f7bd cf7c 213e be3c 023d
00000170: 17ae 2e3e 8f2f 9abc d771 a8bc 903d 0c3e
00000180: a831 7ebe c089 00be b764 3dbd b32c 683e
00000190: d5b1 a83d f64a 45be a0fe e3bd 2059 773d
000001a0: f04b 2abd bc82 cb3d 1aee 813e 019f 15bd
000001b0: 4f0d 753e e8f7 f6bd 3abe 6dbe cb24 b2bc
000001c0: 449b 3b3e cb17 afbd 1874 e83d 3d5a 10be
000001d0: 9e02 aa3d 8bba a63d d864 da3c 5e21 003d
000001e0: 423f 5f3e d6fc 84be 79da d0bd bbf7 63be
000001f0: 0b1f 6a3e 5754 81bd 8cdf 52be 51f6 e9bc
00000200: c0c5 83bd 85d2 b63d 4ea0 bc3d d34d 52be
00000210: c268 4f3e 3e21 f3bd 741e 393e a609 833e
00000220: a00c d9bc b8a5 6d3e ed07 bfbd eea9 373e
00000230: 3602 b8bd 70e6 f5bd b5a3 c0bd dfe1 44be
00000240: b13e 6c3a b73d 65be dab0 44bd ada2 84bd
00000250: ce45 6fbe ee41 40ba f4fc debd 7aa9 4fbe
00000260: 2803 b03d 0f10 ed3d e9c0 bdbd 7c9a 683e
00000270: 6e7d 53bd 8326 41be 22a1 02be c9ac 9dbd
00000280: c41b fa3d 81b6 c63c 7514 7b3d f3c6 1bbe
00000290: 9a3e 12be 8dd0 d7bd 3281 01bd 1046 1c3e
000002a0: 2078 bf3c b958 453e 09e0 6ebd 0bf0 91bd
000002b0: 66ad 1a3e db50 45bd 15a4 463e 2852 c1bc
000002c0: 168c 58be 8519 683e 849a 453e 13e7 6b3e
000002d0: f55e 3dbe 940e 82be d4ef 51be 70de 953e
000002e0: f862 4f3e 5c05 4fbe 9325 60bd 2e64 193e
000002f0: 977c 543d 1bcf 8ebd d901 fcbd 2508 88bd
00000300: 5c34 ed3c ef2e 3e3e bedc fe3d 38ae 20bd
00000310: 2575 5b3e dfd3 9c3c 1ebe 3fbe 6955 19bd
00000320: 9ca5 bbbd e0b4 dbbd 15c3 d13d c0a5 34be
00000330: de2e 4c3d af9a 2d3e 739f 6e3e 83e2 4fbe
00000340: 3256 4cbe 05a5 533e c479 5c3b 4347 08be
00000350: bb3d a7bd 27e6 123e be56 2bbe 2da7 66bd
00000360: 5097 383e 3b33 263e b323 1ebe 7d55 813e
00000370: c9ef 1a3e 2673 1a3e 5ce5 e4bd ae90 10be
00000380: 54ce 57be ae4f 653d f7ac 4d3e a8ba 913d
00000390: eb2e d23c cfa9 30be eef9 e4bd 6d45 1d3e
000003a0: 38b3 113e cc0e 633e 2359 8b3e d2d5 9abd
000003b0: 09e1 6d3e 51a6 64be c06b a5bc 8f7a 693e
000003c0: 53fa 05bd c00f 8a3d c873 2b3e f88c 10be
000003d0: bf8d f33d 010f 5c3d e0a7 8c3e f413 133c
000003e0: 200c 4e3e e40a 203e d075 d0bd 1e95 24be
000003f0: dd1b 7f3d 6133 72be b378 25be 3ae5 3d3e

bias f4 [16]
-0.08910808 0.089258544 -0.29474398 -0.19004524 -0.18259948 -0.2733392 -0.09969562 -0.083418906
-0.13979714 0.16731726 0.19622956 -0.25303194 -0.17864363 -0.18643317 -0.16371451 0.14119321
00000000: 4c7e b6bd 2fcd b63d afe8 96be 389b 42be
00000010: 5cfb 3abe 1ef3 8bbe 382d ccbd 88d7 aabd
00000020: fb26 0fbe 3755 2b3e 67f0 483e 678d 81be
00000030: 5bee 36be 56e8 3ebe c7a4 27be f494 103e

weight f4 [16, 16]
-0.1088255 -0.17235719 -0.025856273 -0.1411362 0.032746553 0.11397269 0.07527082 -0.26464313
-0.12830994 -0.15099177 0.096411064 0.05398742 0.038018867 0.16759732 0.08595551 0.20083484
-0.1163536 0.22073074 -0.27370703 0.14398581 -0.045796424 -0.2273315 -0.05135954 0.089511946
0.09660378 0.2415251 -0.041689154 -0.30189532 -0.08537582 -0.27470857 0.13615784 0.19269335
-0.023051163 -0.19549938 -0.16617076 0.028075337 0.024775475 -0.04557998 -0.01853883 0.19680205
0.19003424 -0.19577959 -0.05987995 0.1827626 -0.22557458 -0.040065512 0.05577599 0.19397905
0.23108697 -0.06319191 0.0778574 0.16509408 0.12156767 -0.07930673 -0.03481812 0.036384348
-0.12839994 -0.24272415 -0.015421785 0.15266271 -0.007815674 0.09529409 -0.23504825 -0.20260197
-0.15310001 0.1640451 0.25870714 0.14776239 0.008711368 -0.017375844 -0.07956362 -0.03020197
0.26789603 -0.026349632 0.11631425 -0.0009011961 0.06105331 -0.00829044 0.21628469 0.23861726
-0.02566659 0.109879814 -0.15751256 0.007320285 0.024358809 0.1212636 -0.10582427 0.2412007
0.20281076 0.342839 0.17295446 -0.12266956 -0.08445749 -0.019298222 -0.06410079 0.18095295
-0.002640246 0.23543498 -0.18608531 -0.052076757 0.07496318 -0.23620382 0.13601469 -0.11778656
0.085337184 -0.008605882 -0.06593386 0.037512124 -0.13562103 0.253098 -0.24159783 -0.11192166
-0.07085051 -0.06267493 0.04115254 0.23963648 -0.050261945 -0.19732344 -0.08005112 0.1772774
0.22167978 0.19413725 0.19843492 -0.12064996 -0.06754117 0.18970828 0.22297293 -0.047612436
0.19100256 0.23047431 0.10183211 0.18417653 -0.07649705 0.08350237 -0.18784413 -0.002319912
0.2472015 0.02037023 -0.1161069 0.22232912 -0.032561827 0.21488102 -0.16942073 -0.003998207
-0.21510503 0.2249115 0.2600453 -0.0063690543 0.22159615 0.07079799 -0.13674618 0.21100537
0.034490433 0.10373078 0.05149945 -0.029676003 0.14524363 -0.19418228 0.24958213 0.07869867
-0.14250325 0.01882251 0.0105271805 0.13612396 0.088671714 0.026027596 -0.16793787 0.005047243
0.055277918 -0.18942818 -0.22383364 -0.24578275 0.09897323 0.16058001 0.15673755 -0.17679682
0.13434836 -0.1159794 -0.010913044 0.17058656 -0.22277087 -0.18136227 -0.08907741 -0.14216688
-0.18329209 0.20345056 0.12502298 0.21826327 -0.016713709 -0.058930516 0.023890704 -0.026918828
0.11117126 0.048876025 -0.23441163 0.04769346 0.1547026 -0.060630705 -0.17140609 -0.13510141
-0.18449318 -0.2661263 -0.24742791 0.22896849 -0.11922984 0.10281096 0.15777804 -0.10263375
-0.1789709 -0.022778373 0.07096369 -0.1815399 0.034964383 -0.020461801 0.19183373 0.0025771179
-0.20173085 0.07071171 0.01697957 -0.107861586 0.24903858 -0.18689936 0.131166 -0.021879684
0.20174219 0.23081513 -0.057208847 0.1809394 0.0469127 0.09310448 -0.17971478 -0.26724792
0.17294315 -0.15168425 0.21445525 -0.1269575 0.25293007 -0.020768499 -0.116019584 0.09192277
0.09217895 -0.13874099 -0.2811065 -0.013147354 -0.17349559 -0.10066908 -0.2028831 -0.13691473
-0.21185043 0.057251044 0.257916 0.06961027 0.09126059 0.200536 0.097386785 0.15548316
00000000: e7df debd 677e 30be 89d0 d3bc 0286 10be
00000010: 4021 063d 846a e93d 9627 9a3d 4e7f 87be
00000020: ae63 03be 969d 1abe 2a73 c53d ea21 5d3d
00000030: acb9 1b3d a29e 2b3e 7109 b03d a6a7 4d3e
00000040: cc4a eebd 3d07 623e 5423 8cbe 0471 133e
00000050: 0895 3bbd 97c9 68be 625e 52bd 0a52 b73d
00000060: 34d8 c53d 5b52 773e 3fc2 2abd 0692 9abe
00000070: 85d9 aebd 9aa6 8cbe f66c 0b3e 6851 453e
00000080: cbd5 bcbc fd30 48be ab28 2abe 40fe e53c
00000090: f0f5 ca3c 13b2 3abd bfde 97bc 7a86 493e
000000a0: 5698 423e 727a 48be ae44 75bd 1e26 3b3e
000000b0: 06fd 66be bc1b 24bd 5d75 643d 72a2 463e
000000c0: 10a2 6c3e c36a 81bd b373 9f3d 6c0e 293e
000000d0: 78f8 f83d 916b a2bd 729d 0ebd c107 153d
000000e0: 467b 03be ae8c 78be a8ab 7cbc 9d53 1c3e
000000f0: 500d 00bc 8c29 c33d 7db0 70be e476 4fbe
00000100: 40c6 1cbe 70fb 273e 4375 843e 064f 173e
00000110: 20ba 0e3c c957 8ebc 40f2 a2bd 1f6a f7bc
00000120: ab29 893e 2fdb d7bc 2a36 ee3d 3f3e 6cba
00000130: 0913 7a3d a0d4 07bc bc79 5d3e 1558 743e
00000140: be42 d2bc ab08 e13d f94a 21be 00df ef3b
00000150: 208c c73c 0d59 f83d 65ba d8bd 51fd 763e
00000160: a0ad 4f3e 9888 af3e f91a 313e 2e3a fbbd
00000170: 0cf8 acbd 4e17 9ebc 4647 83bd bb4b 393e
00000180: fa07 2dbb de15 713e 268d 3ebe 704e 55bd
00000190: 4c86 993d 6adf 71be 6f47 0b3e 143a f1bd
000001a0: 43c5 ae3d afff 0cbc 5508 87bd 50a6 193d
000001b0: 3de0 0abe 1096 813e 6c65 77be 2f37 e5bd
000001c0: 121a 91bd b75b 80bd 918f 283d 4463 753e
000001d0: 78df 4dbd 280f 4abe d7f1 a3bd 3588 353e
000001e0: 0600 633e eacb 463e 8632 4b3e 5417 f7bd
000001f0: 0653 8abd e342 423e 0453 643e 4205 43bd
00000200: 2d96 433e 7501 6c3e 5a8d d03d c698 3c3e
00000210: 7caa 9cbd 4a03 ab3d 365a 40be aa09 18bb
00000220: 6422 7d3e 78df a63c 74c9 edbd 3faa 633e
00000230: 8d5f 05bd c509 5c3e a17c 2dbe 6403 83bb
00000240: 7e44 5cbe 334f 663e a824 853e 80b3 d0bb
00000250: 1aea 623e 89fe 903d 3107 0cbe cb11 583e
00000260: d745 0d3d ce70 d43d 16f1 523d 171b f3bc
00000270: bfba 143e b8d7 46be 7592 7f3e c52c a13d
00000280: 5fec 11be aa31 9a3c 327a 2c3c 1464 0b3e
00000290: 8499 b53d d337 d53c e8f7 2bbe 5863 a53b
000002a0: 196b 623d 76f9 41be a534 65be 79ae 7bbe
000002b0: 7ab2 ca3d 166f 243e cf7f 203e 3a0a 35be
000002c0: 9e92 093e 9c86 edbd a0cc 32bc 3eae 2e3e
000002d0: 0c1e 64be 08b7 39be 386e b6bd 3294 11be
000002e0: ecb0 3bbe 5855 503e 0606 003e 6880 5f3e
000002f0: 30eb 88bc 2061 71bd 70b6 c33c e084 dcbc
00000300: c2ad e33d 3a32 483d 9a09 70be 385a 433d
00000310: 5c6a 1e3e e757 78bd 1485 2fbe 0658 0abe
00000320: c8eb 3cbe b541 88be be5d 7dbe b776 6a3e
00000330: c62e f4bd 8d8e d23d 9190 213e a531 d2bd
00000340: 2644 37be b699 babc 6955 913d 98e5 39be
00000350: d036 0f3d 829f a7bc 1070 443e dde4 283b
00000360: 8892 4ebe 4dd1 903d bd18 8b3c 89e6 dcbd
00000370: f803 7f3e 8c62 3fbe 6150 063e 063d b3bc
00000380: 8195 4e3e cd5a 6c3e d353 6abd 2e48 393e
00000390: 8827 403d 90ad be3d 2707 38be b8d4 88be
000003a0: 0218 313e 1e53 1bbe 289a 5b3e 2601 02be
000003b0: 0d80 813e b322 aabc ad9b edbd 0142 bc3d
000003c0: 51c8 bc3d 1e12 0ebe 31ed 8fbe 0068 57bc
000003d0: d4a8 31be 972b cebd 96c0 4fbe 6033 0cbe
000003e0: 52ef 58be 1280 6a3d 910d 843e d48f 8e3d
000003f0: d5e6 ba3d 4f59 4d3e b972 c73d fa36 1f3e

bias f4 [16]
-0.19347005 0.09237724 0.27240506 -0.09824396 0.08382716 -0.17024733 0.015330009 -0.28294405
-0.050505098 -0.22162426 -0.23985502 -0.090949714 0.23205833 -0.1119538 -0.03266041 0.09062947
00000000: 031d 46be 4730 bd3d ad78 8b3e 2134 c9bd
00000010: 93ad ab3d 5155 2ebe b82a 7b3c 0bde 90be
00000020: 6fde 4ebd 78f1 62be 8e9c 75be d843 babd
00000030: b3a0 6d3e 0948 e5bd ecc6 05bd f29b b93d

weight f4 [16, 16]
-0.14966911 -0.22079225 -0.13468523 0.011494042 0.06610079 0.13523121 0.14261365 -0.08840022
0.18998812 0.19644931 0.033874746 -0.059563965 -0.04261926 -0.15883711 -0.12595977 -0.09370182
-0.03239885 0.16670819 -0.21886358 -0.27759564 0.1973063 -0.17958112 -0.19842383 0.1103649
-0.038286857 -0.19058178 0.20063882 0.053785652 -0.007674975 -0.0027221383 0.18899365 -0.1410912
-0.105690345 0.1701281 -0.24335973 0.08008103 -0.16838878 -0.0124833165 -0.24592182 0.001147437
0.20037553 -0.010957199 0.17699471 0.24763882 0.1732768 -0.1895839 -0.09880807 0.19417639
-0.0716576 0.14037225 -0.1122033 -0.23515168 -0.24245068 -0.13205639 0.23568723 -0.04800722
0.0638313 0.057285428 -0.09448978 -0.023979127 -0.18097508 -0.108561724 0.026103497 -0.22271398
-0.09865046 0.21600391 -0.2528514 0.15541415 0.23549095 -0.16242005 0.055409484 -0.09456449
-0.13680524 -0.18768273 0.2598665 -0.08188906 -0.10272886 0.10439317 -0.2433223 -0.068530045
0.027549846 -0.16841018 0.12556152 -0.040086567 0.05061691 0.21460256 0.2033191 0.17037688
-0.1918069 0.006870784 -0.11794901 0.015374124 -0.15461509 0.17821002 -0.089356564 -0.24420261
0.22097808 -0.02686973 0.17675127 -0.0005340845 -0.13337667 -0.06668014 -0.12521783 -0.15767509
-0.08436447 -0.18698499 0.12012276 -0.14788374 -0.122848324 -0.043839138 0.028844874 -0.15420367
-0.19972162 -0.21103339 -0.12151871 -0.25883022 -0.11263041 0.28747 0.21449727 0.0799259
0.18358766 0.06593057 0.14182495 0.018537879 0.04267203 -0.27002537 -0.020482227 0.048013616
0.10721184 -0.2574127 -0.08830361 -0.17097573 0.22906217 0.15853557 -0.22133192 0.07631792
-0.07940941 0.0031191362 0.13083269 0.12295213 -0.13500644 0.08494491 -0.16956355 0.08286279
0.22657846 -0.081444204 -0.20221788 0.021171063 -0.14551269 0.26086152 0.16337356 0.037084296
-0.17785111 0.08771445 0.13133962 0.179331 0.035307318 0.19494346 -0.16666603 -0.037420984
0.03520443 0.23945616 -0.031922515 -0.16191407 0.050968755 -0.16568187 0.13317436 0.16698202
0.15079997 -0.20957825 0.12687428 -0.06561774 -0.21143739 0.19539413 0.16821279 0.10094725
-0.101347774 0.025379991 -0.2983242 0.061981205 0.22131364 0.15819031 0.029698567 -0.21268031
-0.06549757 -0.124577396 -0.19327225 -0.07447195 0.21794191 -0.038158577 -0.03765207 0.03601224
-0.16674235 0.25760236 0.24303204 0.043706175 0.07567325 0.09357663 0.06347335 0.06514765
0.062483136 -0.11283286 -0.2313209 0.21582183 -0.121585876 0.12667587 -0.14862576 -0.030202322
-0.21708903 0.17972034 -0.14168051 -0.057819184 0.22298667 0.040476684 0.18340053 0.35441804
0.12969188 -0.2678718 0.11666283 -0.14776084 -0.03039969 0.04174318 -0.15181299 -0.061033875
-0.10241082 0.20428836 -0.10800752 0.16244924 -0.18120116 -0.17623827 0.065796494 0.12884828
-0.14553156 -0.09198502 0.025729686 -0.050471336 -0.06807983 -0.13791582 -0.13671157 -0.027058631
-0.20526244 0.1019098 0.27879757 0.13353667 -0.034918074 0.01757581 -0.20863815 0.022213237
-0.083064884 -0.01677251 -0.06842264 -0.13569486 -0.05376759 0.05208603 0.25923398 0.22577411
00000000: dc42 19be 5d17 62be edea 09be 8251 3c3c
00000010: da5f 873d 0d7a 0a3e 5009 123e 2d0b b5bd
00000020: 3f8c 423e 022a 493e 3fc0 0a3d 58f9 73bd
00000030: 8891 2ebd 32a6 22be 99fb 00be bde6 bfbd
00000040: a8b4 04bd 8db5 2a3e c61d 60be 0421 8ebe
00000050: aa0a 4a3e 1de4 37be 9e2f 4bbe fe06 e23d
00000060: aed2 1cbd df27 43be 4374 4d3e 584e 5c3d
00000070: 5b7e fbbb e765 32bb 8d87 413e 367a 10be
00000080: 2e74 d8bd 1036 2e3e 4b33 79be 8601 a43d
00000090: 1c6e 2cbe d386 4cbc eed2 7bbe 9965 963a
000000a0: 3e2f 4d3e d385 33bc 1a3e 353e 0895 7d3e
000000b0: 796f 313e 4822 42be e35b cabd 2dd6 463e
000000c0: 38c1 92bd bebd 0f3e d8ca e5bd 9acb 70be
000000d0: fe44 78be ca39 07be fe57 713e 38a3 44bd
000000e0: fcb9 823d 20a4 6a3d dc83 c1bd e06f c4bc
000000f0: 8851 39be 9c55 debd 00d7 d53c 220f 64be
00000100: 4109 cabd 2130 5d3e bd75 81be e324 1f3e
00000110: 8a24 713e 7151 26be 0ef5 623d 07ab c1bd
00000120: ac16 0cbe e72f 40be 390d 853e 74b5 a7bd
00000130: 8263 d2bd 16cc d53d 7b29 79be 7b59 8cbd
00000140: 37b0 e13c b873 2cbe 3393 003e d031 24bd
00000150: ad53 4f3d c6c0 5b3e e232 503e 4777 2e3e
00000160: 0769 44be 5024 e13b 408f f1bd c0e3 7b3c
00000170: 6b53 1ebe b07c 363e 9300 b7bd 4010 7abe
00000180: 1448 623e e81d dcbc 49fe 343e ce01 0cba
00000190: e593 08be 998f 88bd 1a39 00be 9475 21be
000001a0: 47c7 acbd fe78 3fbe ec02 f63d d66e 17be
000001b0: e797 fbbd ab90 33bd 164c ec3c 91e7 1dbe
000001c0: d383 4cbe 2319 58be cdde f8bd 6585 84be
000001d0: c6aa e6bd 452f 933e 2ca5 5b3e 31b0 a33d
000001e0: 67fe 3b3e 9b06 873d 8f3a 113e c0dc 973c
000001f0: dec8 2e3d c440 8abe 58ca a7bc eda9 443d
00000200: e291 db3d 99cb 83be 86d8 b4bd 4314 2fbe
00000210: 468f 6a3e 2657 223e d6a4 62be 924c 9c3d
00000220: 67a1 a2bd 6c6a 4c3b 01f9 053e 54ce fb3d
00000230: 213f 0abe 99f7 ad3d 11a2 2dbe f7b3 a93d
00000240: 2f04 683e 38cc a6bd 3412 4fbe f06e ad3c
00000250: 4701 15be a48f 853e 664b 273e b4e5 173d
00000260: 9a1e 36be a2a3 b33d e57d 063e 8ca2 373e
00000270: 689e 103d 429f 473e 80aa 2abe bf46 19bd
00000280: 8532 103d ff33 753e 2fc1 02bd cdcc 25be
00000290: 9dc4 503d 82a8 29be dc5e 083e 56fd 2a3e
000002a0: 4f6b 1a3e ae9b 56be 55eb 013e 9862 86bd
000002b0: 0b83 58be 6615 483e f93f 2c3e 6fbd ce3d
000002c0: 6c8f cfbd b3e9 cf3c f3bd 98be 01e0 7d3d
000002d0: 0ba0 623e a4fc 213e 694a f33c dec8 59be
000002e0: 9723 86bd 6f22 ffbd 29e9 45be c084 98bd
000002f0: 2a2c 5f3e 2b4c 1cbd 0f39 1abd 9281 133d
00000300: 82be 2abe 75e4 833e 64dd 783e 3f05 333d
00000310: 94fa 9a3d 1ba5 bf3d 51fe 813d 226c 853d
00000320: 51ee 7f3d ea14 e7bd 63df 6cbe 6600 5d3e
00000330: 0402 f9bd 52b7 013e 5a31 18be dc6a f7bc
00000340: 964c 5ebe 9c08 383e b214 11be cfd3 6cbd
00000350: 9e56 643e e1ca 253d 59cd 3b3e 4876 b53e
00000360: f3cd 043e 7e26 89be ecec ee3d 9e4e 17be
00000370: c508 f9bc e6fa 2a3d dd74 1bbe a8fe 79bd
00000380: c4bc d1bd f830 513e 0c33 ddbd 1859 263e
00000390: cc8c 39be ce77 34be 50c0 863d cef0 033e
000003a0: 3a06 15be a462 bcbd 10c7 d23c 08bb 4ebd
000003b0: 706d 8bbd ce39 0dbe 1efe 0bbe 10aa ddbc
000003c0: 5130 52be 16b6 d03d 8ebe 8e3e d6bd 083e
000003d0: 4106 0fbd 25fb 8f3c 3da5 55be 89f8 b53c
000003e0: ec1d aabd 8166 89bc 2b21 8cbd 98f3 0abe
000003f0: 683b 5cbd 2958 553d 51ba 843e 5431 673e

bias f4 [16]
-0.0985901 0.022212427 -0.07221625 -0.023197144 0.21640241 -0.12481764 0.13700181 -0.18228477
-0.32220304 -0.08965639 -0.13795368 0.10045042 0.2176866 0.1869417 -0.126546 0.010299293
00000000: 9be9 c9bd d6f6 b53c 1de6 93bd f007 bebc
00000010: 9898 5d3e 64a0 ffbd 344a 0c3e dca8 3abe
00000020: ccf7 a4be c59d b7bd bb43 0dbe f3b8 cd3d
00000030: 3ce9 5e3e a56d 3f3e 4695 01be 5ebe 283c

weight f4 [16, 16]
0.22545618 0.18823591 -0.0974924 -0.012445897 0.12840602 -0.2546084 0.14485404 0.052039847
-0.19248295 -0.17433755 0.20733543 -0.0010214491 0.04337591 0.04768962 -0.02286464 0.22666933
-0.1111399 -0.13257122 -0.029691989 -0.06475234 0.15818219 0.14113867 -0.15379222 -0.04617301
-0.068987064 -0.16299364 0.09598532 0.20136686 -0.0750832 -0.042823948 0.14745495 0.25329968
-0.027090395 -0.031335555 0.07779003 -0.0678111 -0.19394132 -0.15394895 -0.001023336 0.08603015
0.07754698 0.12174648 0.062797 -0.038143218 0.25285786 -0.056376625 0.23348114 0.2144781
-0.042489856 0.045948554 -0.13801767 0.13401088 -0.07950407 -0.10194678 0.006080706 0.14068514
-0.18471159 -0.10621704 0.045287367 -0.024240153 -0.18970662 0.07654304 -0.02127269 -0.042945366
0.08669484 -0.20049839 -0.00031703044 -0.24171525 -0.14788936 -0.0141718015 0.11964847 0.0032725243
0.1065538 0.123904414 -0.19991471 0.10985766 0.045516636 -0.15699169 -0.19466016 -0.06580743
0.22275625 0.053266305 -0.16608697 0.21522084 0.006594149 0.0076050772 -0.1742217 0.0888923
0.11203194 0.0029940566 0.124474525 0.12084004 -0.00016360133 0.26467368 0.034881353 0.23946291
0.14540844 0.065628536 -0.043746278 0.12871918 -0.23566268 0.26552954 0.10966673 -0.21065146
0.043057416 -0.27024302 -0.14126953 -0.15169482 -0.20501871 0.07271035 0.011422962 -0.12263597
0.026103532 0.13566583 0.3534041 -0.013876617 -0.09070548 0.14358349 -0.05067321 -0.14249095
-0.10179641 0.06276019 -0.14260218 -0.120504096 0.16784236 -0.16388753 -0.07620388 0.2137789
-0.024499837 -0.21566871 -0.09717611 -0.1397157 -0.018511802 -0.29401195 -0.018138018 0.04176605
0.017449025 0.3542761 0.03150758 -0.17025082 0.208233 -0.114399016 0.15882024 0.30196556
0.02478347 0.16815592 0.0070272163 -0.08345407 -0.04565837 -0.07335876 0.06212353 -0.13696891
-0.11615341 0.27014375 -0.0539199 0.2922705 -0.17777428 -0.20584269 0.09359828 -0.14363724
0.09945033 -0.16489786 -0.12376299 -0.04826802 0.050917197 0.21256691 0.029569333 0.012828104
0.14098252 -0.09222309 -0.25463006 -0.086468205 -0.074260615 -0.09316965 -0.06925598 0.07579882
0.17131001 -0.06705778 -0.14927256 -0.0405325 0.08044908 0.22371918 -0.20623133 -0.22405696
0.24861279 -0.03881207 -0.08008779 0.13515368 -0.16837767 -0.2656066 0.21867123 -0.16822596
-0.109909885 -0.20253041 -0.028344125 -0.21888918 0.1564291 0.10644387 -0.23980077 -0.14211342
0.11601577 -0.07712806 0.1943583 0.29492888 -0.14605494 -0.32772356 -0.19399053 -0.14248255
0.03311459 0.011178866 -0.105722316 0.02371052 -0.06286678 -0.21512035 0.0071944594 -0.024756806
-0.27006742 0.10813409 0.07962188 -0.21904957 0.047910273 -0.00958123 -0.041402727 -0.18592705
0.23324852 -0.13065687 -0.065427825 0.083165675 0.10342729 -0.07006731 8.3863735e-05 0.21756418
-0.07318288 -0.24200645 -0.071898445 0.23141505 0.02632875 -0.04437068 0.16765514 0.22942555
0.22703633 -0.28963572 0.2659688 0.10775152 -0.09955639 0.02796349 0.12954411 0.073891915
0.07290167 -0.037644148 0.016143002 -0.20149258 -0.0385202 0.034029048 0.15848747 -0.24330777
00000000: fcdd 663e eac0 403e 18aa c7bd e0e9 4bbc
00000010: de7c 033e 085c 82be 9e54 143e bc27 553d
00000020: 401a 45be 8b85 32be bd4f 543e 25e2 85ba
00000030: f0aa 313d 3156 433d a04e bbbc 011c 683e
00000040: 519d e3bd c0c0 07be 9d3c f3bc e09c 84bd
00000050: 83fa 213e a886 103e b57b 1dbe e91f 3dbd
00000060: 1749 8dbd cee7 26be f493 c43d 1d33 4e3e
00000070: 39c5 99bd 2a68 2fbd 6efe 163e 7fb0 813e
00000080: adec ddbc b659 00bd 6150 9f3d 8ce0 8abd
00000090: 8e98 46be cba4 1dbe 7521 86ba 9330 b03d
000000a0: f3d0 9e3d 3856 f93d b79b 803d 103c 1cbd
000000b0: 9676 813e 2deb 66bd ae15 6f3e 26a0 5b3e
000000c0: d809 2ebd 8d34 3c3d 8154 0dbe 263a 093e
000000d0: 08d3 a2bd 79c9 d0bd a940 c73b c40f 103e
000000e0: 0925 3dbe 5288 d9bd 3f7f 393d 4993 c6bc
000000f0: 7442 42be 99c2 9c3d 1044 aebc 7be7 2fbd
00000100: 108d b13d 734f 4dbe 1b37 a6b9 3484 77be
00000110: 4f70 17be d830 68bc 420a f53d d977 563b
00000120: e138 da3d 99c1 fd3d 71b6 4cbe 0efd e03d
00000130: a76f 3a3d 6ec2 20be fe54 47be 0cc6 86bd
00000140: 371a 643e c52d 5a3d b412 2abe da62 5c3e
00000150: bb13 d83b 0334 f93b 2c67 32be 2b0d b63d
00000160: 0071 e53d ef37 443b 80ec fe3d fc7a f73d
00000170: 668c 2bb9 4f83 873e c0df 0e3d c435 753e
00000180: f3e5 143e 4168 863d 4c2f 33bd f6ce 033e
00000190: 8f51 71be 7df3 873e f398 e03d 04b5 57be
000001a0: f95c 303d 4b5d 8abe f6a8 10be e355 1bbe
000001b0: 6df0 51be 2ae9 943d 6027 3b3c 9128 fbbd
000001c0: 13d7 d53c fceb 0a3e 62f1 b43e c05a 63bc
000001d0: cbc3 b9bd 8d07 133e b68e 4fbd 26e9 11be
000001e0: a37a d0bd 6a88 803d 4e06 12be daca f6bd
000001f0: dede 2b3e 22d2 27be c810 9cbd dbe8 5a3e
00000200: e2b3 c8bc 42d8 5cbe 4504 c7bd a211 0fbe
00000210: 10a6 97bc bc88 96be 2e96 94bc e112 2b3d
00000220: 42f1 8e3c ad63 b53e 180e 013d 3b56 2ebe
00000230: 083b 553e 084a eabd c6a1 223e 3b9b 9a3e
00000240: b406 cb3c 1131 2c3e 9044 e63b f8e9 aabd
00000250: 4504 3bbd 1e3d 96bd 3e75 7e3d 9441 0cbe
00000260: d7e1 edbd 4850 8a3e 1ddb 5cbd 7ba4 953e
00000270: 760a 36be 6dc8 52be 74b0 bf3d a415 13be
00000280: 9dac cb3d fcda 28be 7377 fdbd b0b4 45bd
00000290: 8d8e 503d 24ab 593e 633b f23c f82c 523c
000002a0: b95d 103e 76df bcbd df5e 82be 3e16 b1bd
000002b0: f315 98bd bbcf bebd 14d6 8dbd 693c 9b3d
000002c0: e46b 2f3e 9755 89bd e8da 18be 6805 26bd
000002d0: 7dc2 a43d a416 653e 4e2e 53be 306f 65be
000002e0: 5a94 7e3e 68f9 1ebd 1105 a4bd ba65 0a3e
000002f0: 326b 2cbe 97fd 87be 5aeb 5f3e 6d43 2cbe
00000300: 6f18 e1bd 2264 4fbe f031 e8bc 7c24 60be
00000310: f32e 203e 3eff d93d 558e 75be 2e86 11be
00000320: ad99 ed3d 51f5 9dbd dd05 473e eb00 973e
00000330: 6d8f 15be 62cb a7be 74a5 46be f2e6 11be
00000340: 2aa3 073d 9027 373c f184 d8bd 903c c23c
00000350: 4cc0 80bd 8248 5cbe 80bf eb3b c9ce cabc
00000360: 4746 8abe 6875 dd3d cc10 a33d 884e 60be
00000370: 903d 443d 97fa 1cbc e895 29bd a963 3ebe
00000380: b3d8 6e3e eaca 05be 06ff 85bd c452 aa3d
00000390: b0d1 d33d 737f 8fbd 00e0 af38 25c9 5e3e
000003a0: e8e0 95bd 8ad0 77be 7e3f 93bd 11f8 6c3e
000003b0: 64af d73c 08be 35bd caad 2b3e 88ee 6a3e
000003c0: 367c 683e 224b 94be 102d 883e d4ac dc3d
000003d0: 38e4 cbbd b013 e53c 36a7 043e a554 973d
000003e0: 794d 953d c030 1abd 543e 843c 1254 4ebe
000003f0: 5bc7 1dbd 0b62 0b3d 8a4a 223e ac25 79be

bias f4 [16]
0.21010955 0.25095192 0.17008796 0.19394991 0.3108693 -0.25909784 -0.0036568888 0.30222172
0.1981539 0.3189953 -0.017407537 0.07281581 0.20132081 -0.13875213 -0.19205196 -0.2563824
00000000: f526 573e c57c 803e 8a2b 2e3e ce9a 463e
00000010: 432a 9f3e 79a8 84be 6aa8 6fbb cebc 9a3e
00000020: dbe8 4a3e 5a53 a33e 409a 8ebc 7520 953d
00000030: 0b27 4e3e 0a15 0ebe 45a9 44be 8e44 83be

weight f4 [16, 16]
0.047543816 -0.22475417 0.10686255 -0.13174482 -0.080541596 -0.22097951 0.18748476 0.03672355
0.07995995 0.019457549 0.12993704 0.024775464 0.110945515 -0.09303263 0.0008943229 -0.05412338
0.17432967 -0.25117257 -0.051375054 0.07153375 0.1103905 0.1007248 0.15623547 -0.13228479
-0.034403183 -0.12247401 0.3357335 0.038379207 0.08028351 0.31304616 0.19985417 0.32958004
0.0952879 -0.00877642 -0.17009543 -0.05567728 0.16981816 -0.23382138 0.13554202 -0.14075434
0.0209424 0.3499097 -0.2750278 0.079084806 0.11133413 -0.111137964 0.13001777 -0.08851674
0.21204056 0.12739657 0.047978982 0.065918446 -0.26600578 0.2466644 -0.0064715324 -0.084340185
-0.14242838 0.39660743 -0.101883106 -0.21681243 0.11686533 -0.14601052 0.20999633 -0.0032788333
0.15556419 0.1853645 0.019401466 0.09845663 0.26422638 0.1645078 0.21908449 -0.16547577
0.1460625 -0.033037342 0.18139744 -0.07193698 0.13514522 0.15523154 0.21851388 0.25588962
-0.24916252 -0.00225994 0.15791228 -0.06609136 0.17417502 -0.23733738 0.0792321 0.082607895
-0.10922313 -0.09046325 0.102152646 0.046338707 -0.054825395 0.14053929 -0.10446763 -0.1705586
0.13562386 0.067618 -0.1876528 0.19450901 0.063854925 -0.07973752 0.14567707 0.2906098
-0.054368462 0.14945526 0.090764664 -0.15306039 0.10745697 -0.042245235 -0.22395578 -0.026226372
0.14545354 -0.0016402475 0.20909795 0.03873832 0.008322212 -0.23629485 0.05237612 0.23883332
-0.18998995 0.23018046 -0.08300782 0.08174568 0.010939272 -0.14625613 -0.23910014 0.17353714
-0.04644504 0.107767425 0.16927788 -0.042270962 -0.101665534 0.26045704 -0.048663188 -0.19072402
-0.14447144 0.24893875 -0.14461885 -0.12961563 -0.122220196 -0.14039022 0.15758505 -0.08691697
-0.07745344 -0.13272516 -0.17506179 -0.016800396 0.16215673 0.09284509 -0.026541358 -0.3178677
0.11691629 -0.065696836 0.027299123 0.18516062 0.0918121 0.24586757 -0.13310137 0.13773237
-0.13275124 0.20076755 -0.18692903 -0.26038662 0.009591151 0.076761164 0.0288429 0.024701437
-0.21406421 -0.24404857 0.21937534 0.16679236 -0.21233274 0.14767452 0.012104815 0.29123497
0.03558405 -0.029609594 0.12922382 0.23803306 0.29850405 -0.23708156 -0.18744157 -0.13704553
-5.2156294e-05 0.39508343 -0.09264927 0.075875774 0.058551896 0.29126114 -0.09060601 -0.08238355
0.082623124 0.15087533 -0.09781965 -0.078015275 -0.14028738 0.2550433 0.1790042 -0.22475977
-0.3078388 0.124203935 -0.26144427 -0.17097151 -0.028878666 -0.15557925 0.123125 -0.22590536
0.09017989 0.07618835 0.03571152 0.18486752 -0.0080187665 0.108708136 -0.012158039 -0.23589355
0.09577402 -0.24514733 0.26198635 0.0895983 -0.2038753 0.20466407 -0.0017830863 0.2076231
0.066800244 0.06797876 0.14662984 -0.007850688 -0.052951865 -0.1752495 0.04563266 -0.31849402
0.006808883 -0.19046256 0.013257093 -0.06441986 -0.029753655 -0.037954044 0.20406228 0.1574124
0.2502928 -0.23303117 -0.024247231 0.09653543 0.024762863 0.10145033 -0.21272376 -0.18038481
-0.2723094 0.13041711 -0.12266612 0.066700175 0.064845435 0.03999906 -0.07961633 -0.28683132
00000000: 4ebd 423d f525 66be c1da da3d 1de8 06be
00000010: fef2 a4bd 7448 62be 01fc 3f3e 6f6b 163d
00000020: 0bc2 a33d 7065 9f3c 370e 053e eaf5 ca3c
00000030: 6737 e33d e487 bebd fe70 6a3a 7ab0 5dbd
00000040: 7a83 323e b199 80be a66e 52bd 4980 923d
00000050: 6a14 e23d ce48 ce3d 31fc 1f3e aa75 07be
00000060: 5aea 0cbd a7d3 fabd 43e5 ab3e 8433 1d3d
00000070: ae6b a43d 9647 a03e 92a6 4c3e b7be a83e
00000080: 4d26 c33d f9ca 0fbc 7f2d 2ebe dc0d 64bd
00000090: d0e4 2d3e df6e 6fbe 87cb 0a3e e821 10be
000000a0: 658f ab3c 5d27 b33e 72d0 8cbe 37f7 a13d
000000b0: 2603 e43d 4d9c e3bd 6123 053e 4448 b5bd
000000c0: 2921 593e 3f74 023e 9c85 443d 4000 873d
000000d0: e931 88be 9895 7c3e 260f d4bb 8cba acbd
000000e0: bfd8 11be 2110 cb3e 17a8 d0bd 1404 5ebe
000000f0: 1757 ef3d c883 15be 4709 573e b2e1 56bb
00000100: 384c 1f3e 31d0 3d3e d3ef 9e3c a1a3 c93d
00000110: ae48 873e bc74 283e af57 603e 7b72 29be
00000120: 6891 153e 2a52 07bd 40c0 393e b253 93bd
00000130: 8263 0a3e 04f5 1e3e 1ac2 5f3e f703 833e
00000140: 7624 7fbe 801b 14bb c2b3 213e e85a 87bd
00000150: f05a 323e 9208 73be 7044 a23d 542e a93d
00000160: 60b0 dfbd cc44 b9bd 6835 d13d a8cd 3d3d
00000170: 9890 60bd 88e9 0f3e 20f3 d5bd eaa6 2ebe
00000180: fbe0 0a3e 4e7b 8a3d 0e28 40be 5f2d 473e
00000190: 5fc6 823d 6d4d a3bd 5f2c 153e cfca 943e
000001a0: 77b1 5ebd cd0a 193e d3e2 b93d ddbb 1cbe
000001b0: 6612 dc3d 5709 2dbd aa54 65be b0d8 d6bc
000001c0: c6f1 143e 93fd d6ba c61d 563e 13ac 1e3d
000001d0: e359 083c 47f7 71be 5888 563d b990 743e
000001e0: ba8c 42be 6db4 6b3e 0100 aabd 476a a73d
000001f0: a23a 333c 2bc4 15be abd6 74be b8b3 313e
00000200: 273d 3ebd 2bb5 dc3d 2e57 2d3e 5124 2dbd
00000210: 0536 d0bd a05a 853e 0d53 47bd 284d 43be
00000220: 52f0 13be cde9 7e3e f716 14be f6b9 04be
00000230: 954e fabd 74c2 0fbe fa5d 213e 8601 b2bd
00000240: e99f 9ebd 1be9 07be 6643 33be fca0 89bc
00000250: 6a0c 263e 9125 be3d 436d d9bc 8ebf a2be
00000260: cf71 ef3d 108c 86bd 69a2 df3c bf9a 3d3e
00000270: fb07 bc3d b5c4 7b3e ba4b 08be b709 0d3e
00000280: f1ef 07be 0296 4d3e 536a 3fbe 6551 85be
00000290: 3424 1d3c f534 9d3d f247 ec3c ab5a ca3c
000002a0: a633 5bbe dee7 79be eea3 603e 9ecb 2a3e
000002b0: c16d 59be fd37 173e 4653 463c c01c 953e
000002c0: 95c0 113d d28f f2bc 4053 043e f0be 733e
000002d0: 86d5 983e 82c5 72be aff0 3fbe aa55 0cbe
000002e0: 65c2 5ab8 6048 ca3e e7be bdbd c264 9b3d
000002f0: 1dd4 6f3d 2e20 953e a58f b9bd b5b8 a8bd
00000300: 5036 a93d 107f 1a3e ab55 c8bd 79c6 9fbd
00000310: 7fa7 0fbe 0995 823e e14c 373e 6d27 66be
00000320: 0c9d 9dbe a25e fe3d 06dc 85be 2813 2fbe
00000330: f492 ecbc 2b50 1fbe f628 fc3d bc53 67be
00000340: 3cb0 b83d a308 9c3d 3e46 123d e94d 3d3e
00000350: 2561 03bc 5fa2 de3d 8332 47bc 148e 71be
00000360: 2b25 c43d e707 7bbe 1323 863e 507f b73d
00000370: b0c4 50be 7593 513e 73b6 e9ba 269b 543e
00000380: 91ce 883d 7338 8b3d 2226 163e 2ca0 00bc
00000390: 0ee4 58bd 9b74 33be 50e9 3a3d a611 a3be
000003a0: 0d1d df3b 9e08 43be 4734 593c 8fee 83bd
000003b0: f0bd f3bc b375 1bbd b4f5 503e b730 213e
000003c0: 6126 803e b99f 6ebe 21a2 c6bc 5eb4 c53d
000003d0: 7ddb ca3c 31c5 cf3d 42d4 59be ccb6 38be
000003e0: 236c 8bbe 108c 053e 6038 fbbd 1a9a 883d
000003f0: afcd 843d 0ed6 233d e30d a3bd 8edb 92be

bias f4 [16]
0.13182646 -0.270462 0.10951195 -0.04779499 0.035244152 -0.24045587 0.1658736 0.18314712
-0.10868418 -0.011689165 -0.172334 0.27461827 -0.12652412 0.10367237 -0.30500564 0.21150386
00000000: 84fd 063e ff79 8abe cd47 e03d aec4 43bd
00000010: 2c5c 103d 103a 76be c5da 293e eb8a 3b3e
00000020: d095 debd e983 3fbc 5378 30be c49a 8c3e
00000030: 8a8f 01be 2e52 d43d b329 9cbe 7894 583e

weight f4 [16, 16]
0.14092766 -0.12278532 0.1864023 -0.02453419 0.054618344 0.21967486 0.11576842 -0.15441866
-0.02277392 -0.14739653 -0.33040705 0.15795721 0.2508434 0.07806582 0.3207129 0.29288974
0.09363872 0.10585715 -0.29318935 -0.18792433 0.07323778 0.1336515 -0.25503808 -0.06601079
-0.07467393 0.07092536 -0.01940664 -0.3240998 -0.17178495 0.043973297 -0.29787228 0.16915551
-0.17161228 0.047938414 -0.24632084 -0.0018591892 0.0018180172 -0.22929192 0.23987694 -0.12663135
0.27107286 0.07684667 0.21848716 -0.20780908 0.12208157 -0.037037518 0.105090655 -0.0068207434
-0.20627257 -0.23740709 -0.11044639 -0.104744285 -0.14708343 -0.24402225 -0.1137459 0.2074852
-0.18995377 -0.12862676 0.0628334 -0.040203035 0.11985099 -0.08783746 0.037142396 -0.24814871
-0.14830741 0.10001345 0.15411754 0.03683652 0.14653726 -0.019460171 0.3073507 0.17669947
0.20391762 -0.17417425 -0.27757663 -0.0015121691 0.2843185 -0.18032865 0.28579 0.30326408
-0.0805403 -0.067441165 0.14005527 -0.18144813 -0.058481373 -0.09112173 0.05241548 -0.15673159
0.20887078 0.10205977 -0.006401541 0.17868842 0.23644342 -0.21945508 -0.2985033 0.27181923
-0.031281844 -0.09284028 -0.115259655 0.17350924 -0.014259639 -0.039996326 0.19352284 0.0774716
0.16023912 -0.12411874 0.114025734 0.3490799 0.036882326 -0.030142615 -0.08066656 -0.09706356
0.10904727 -0.04533255 -0.06993712 0.061431296 -0.10152511 0.13501781 0.12293113 0.08865316
-0.1833393 -0.1278829 0.06647757 0.23300955 0.14319095 -0.0292199 0.07305986 -0.10258185
-0.13113311 -0.182523 0.16838071 -0.13658458 0.20347276 -0.20184326 -0.22216927 0.2574016
0.11963658 -0.052573692 -0.05365953 -0.15690938 0.23470949 -0.18506046 -0.064965725 0.08648527
-0.2127403 0.27908874 -0.21119034 -0.04198184 0.2671655 -0.1575293 -0.31688613 -0.28285173
-0.034401543 0.078554556 0.2629088 -0.010004558 -0.22336705 0.21909864 -0.39914605 -0.18624416
0.062586844 0.047203932 0.11989689 0.021902213 0.06539367 -0.0050891936 0.2985349 0.047674168
0.046746165 -0.010107164 -0.045561016 -0.076314874 0.26402593 -0.015965704 0.0029256202 0.17885467
0.21374196 0.13420913 0.18198232 0.082992874 0.17494178 0.11239511 -0.09385904 0.09341643
0.12117449 -0.07100708 0.00094330823 -0.17420878 -0.10781963 -0.11238731 -0.019518178 -0.15748799
0.08874825 -0.2842968 0.19007738 0.14384265 -0.22537515 -0.23889023 -0.17111406 0.16539511
-0.019743886 0.19254962 -0.19600101 0.3820646 -0.1540725 0.091500424 -0.05004081 0.21814913
0.072402075 0.033733208 0.21761212 -0.040102057 0.014740054 0.19861835 0.18087116 0.28465283
0.14902781 -0.032757066 -0.08143009 0.22103475 -0.011592708 -0.08685045 0.36257836 0.14191066
0.027596941 0.14646836 -0.021748094 -0.042700235 0.09949871 -0.19276842 0.17246453 -0.20314074
0.2952179 0.17883024 0.08503232 -0.0073268735 -0.001418765 -0.23807989 0.0075500086 -0.2186664
0.1697997 -0.103151195 0.122651294 0.20225817 0.041500084 -0.20546862 0.18998814 0.009757567
-0.047324553 0.008963813 -0.1699128 0.014151001 -0.053337548 0.042470068 0.1362279 -0.04579446
00000000: 574f 103e df76 fbbd 3fe0 3e3e edfb c8bc
00000010: 7cb7 5f3d 72f2 603e fe17 ed3d ed1f 1ebe
00000020: 5f90 babc 1eef 16be 1d2b a9be 89bf 213e
00000030: 8c6e 803e f9e0 9f3d 7b34 a43e a5f5 953e
00000040: a8c5 bf3d a2cb d83d ea1c 96be 3c6f 40be
00000050: b0fd 953d f0db 083e 5a94 82be aa30 87bd
00000060: a5ee 98bd 5141 913d adfa 9ebc 69f0 a5be
00000070: 65e8 2fbe 581d 343d b782 98be 1a37 2d3e
00000080: 21bb 2fbe 125b 443d 883b 7cbe 0ab0 f3ba
00000090: 894a ee3a 80cb 6abe 4da2 753e a6ab 01be
000000a0: 10ca 8a3e c961 9d3d 19bb 5f3e e7cb 54be
000000b0: e705 fa3d a7b4 17bd c539 d73d 8b80 dfbb
000000c0: 1e39 53be d81a 73be b831 e2bd 2c84 d6bd
000000d0: 0a9d 16be f8e0 79be 9cf3 e8bd 0077 543e
000000e0: 3e83 42be bcb6 03be ccae 803d f0ab 24bd
000000f0: 7074 f53d 20e4 b3bd a022 183d b21a 7ebe
00000100: e6dd 17be dad3 cc3d fdd0 1d3e e4e1 163d
00000110: dd0d 163e f06a 9fbc 125d 9d3e b5f0 343e
00000120: c8cf 503e bc5a 32be 861e 8ebe fa33 c6ba
00000130: 3292 913e 13a8 38be 1153 923e 6e45 9b3e
00000140: 50f2 a4bd 981e 8abd a66a 0f3e 8acd 39be
00000150: 2a8a 6fbd 089e babd 9db1 563d 3f7e 20be
00000160: 39e2 553e b604 d13d 05c4 d1bb 19fa 363e
00000170: 391e 723e d5b8 60be 6dd5 98be e42b 8b3e
00000180: 6421 00bd 0b23 bebd 410d ecbd 68ac 313e
00000190: 43a1 69bc 30d3 23bd da2a 463e 6ea9 9e3d
000001a0: b915 243e f731 febd 5386 e93d 9aba b23e
000001b0: ec11 173d a5ed f6bc 8234 a5bd 42c9 c6bd
000001c0: 2d54 df3d a0ae 39bd 313b 8fbd 629f 7b3d
000001d0: 66ec cfbd 1c42 0a3e 51c3 fb3d ca8f b53d
000001e0: 4cbd 3bbe bcf3 02be 6425 883d 0e9a 6e3e
000001f0: a6a0 123e 925e efbc 68a0 953d 6f16 d2bd
00000200: c247 06be 4fe7 3abe fe6b 2c3e d4dc 0bbe
00000210: 2a5b 503e 00b0 4ebe 5780 63be 24ca 833e
00000220: 0604 f53d 8357 57bd 18ca 5bbd daac 20be
00000230: af57 703e 7d80 3dbe c00c 85bd 301f b13d
00000240: 98d8 59be b8e4 8e3e 4842 58be 26f5 2bbd
00000250: ebc9 883e 5c4f 21be e63e a2be f1d1 90be
00000260: a2e8 0cbd 36e1 a03d fb9b 863e 28ea 23bc
00000270: 55ba 64be 655b 603e df5c ccbe cab6 3ebe
00000280: 882d 803d e958 413d 808c f53d 456c b33c
00000290: 1eed 853d 40c3 a6bb 91d9 983e fd45 433d
000002a0: e878 3f3d 8598 25bc 309e 3abd f94a 9cbd
000002b0: 682e 873e 82ca 82bc c3bb 3f3b ae25 373e
000002c0: 2cdf 5a3e 1e6e 093e 9359 3a3e 2bf8 a93d
000002d0: f023 333e 682f e63d 2b39 c0bd 1d51 bf3d
000002e0: 552a f83d 296c 91bd 5848 773a c963 32be
000002f0: 8ad0 dcbd 512b e6bd 96e4 9fbc 8844 21be
00000300: a4c1 b53d 5a8f 91be a5a3 423e 7d4b 133e
00000310: bec8 66be a49f 74be 8638 2fbe 565d 293e
00000320: eebd a1bc ba2b 453e 7db4 48be f99d c33e
00000330: 2ec5 1dbe 9364 bb3d 98f7 4cbd 7c62 5f3e
00000340: 8a47 943d d52b 0a3d b6d5 5e3e 0e42 24bd
00000350: 4480 713c 9c62 4b3e 4a36 393e 04be 913e
00000360: bf9a 183e 462c 06bd d2c4 a6bd ef56 623e
00000370: 57ef 3dbc a6de b1bd dfa3 b93e 0751 113e
00000380: fb12 e23c cdfb 153e 0f29 b2bc 71e6 2ebd
00000390: fbc5 cb3d 1665 45be 8b9a 303e 2004 50be
000003a0: cd26 973e 461f 373e 6d25 ae3d 4516 f0bb
000003b0: dbf5 b9ba 37cb 73be 1066 f73b 16ea 5fbe
000003c0: f9df 2d3e ef40 d3bd 9a30 fb3d c41c 4f3e
000003d0: fefb 293d 5e66 52be 408c 423e 34de 1f3c
000003e0: 64d7 41bd f5dc 123c 9ffd 2dbe 9ad9 673c
000003f0: 7978 5abd 18f5 2d3d 547f 0b3e f992 3bbd

bias f4 [16]
0.10881328 0.0875051 -0.054309007 -0.24126157 0.05640281 0.23044935 0.05262771 -0.17723207
-0.20702292 -0.05525033 0.07763137 -0.3303036 0.28081596 -0.039401304 -0.08710255 -0.0075614573
00000000: 7fd9 de3d e035 b33d 1f73 5ebd 460d 77be
00000010: a206 673d eafa 6b3e 2790 573d 537c 35be
00000020: d1fd 53be 2c4e 62bd 32fd 9e3d 8e1d a9be
00000030: 1cc7 8f3e 4363 21bd d262 b2bd 1ac6 f7bb

weight f4 [1, 16]
0.28140974 -0.3518916 0.2970853 -0.0937784 0.1866268 0.15155253 0.21976273 0.2325843
0.124840096 -0.33219412 0.062815495 0.21344598 0.11141949 0.23058647 0.03561746 0.26121387
00000000: f014 903e 232b b4be 901b 983e e40e c0bd
00000010: 191b 3f3e 9630 1b3e 7b09 613e 942a 6e3e
00000020: 2aac ff3d 5915 aabe 69a5 803d 9591 5a3e
00000030: e72f e43d dc1e 6c3e 9de3 113d d3bd 853e
