thenet.pth (torch, 273251 bytes, 31 tensors)

net_layers.0.linear.weight f4 [68, 3]
00000000: 7ec3 193e 2852 40be e6d3 a0be 19d3 9d3e
00000010: b7d4 a7be 17b7 33be e538 77be f570 87bd
00000020: e7f5 0fbe 9e3a 84bd 2c41 a6bc 32a2 593e
00000030: c0d1 1fbe dde7 0b3e c44f 913e f584 0b3e
00000040: 3734 5f3e 5341 8abe 233f 313e 93e5 c93d
00000050: 93e4 5cbe 104d 61be 3a96 4d3e 75e1 a23e
00000060: 118c a63e 5518 873d e2f8 243e 0f96 45be
00000070: 6b64 4f3e d2bb 41bd 434e 9cbe aea1 02bd
00000080: 1fa1 e53d d45b 1f3e 568f 7dbe d14e c13d
00000090: bfc4 5d3e 97fd 9bba 1ea9 44be 8173 9a3e
000000a0: 5960 8dbe 9983 8e3e c389 a2bd f21e d23d
000000b0: cfcb 893e 1c4a 3dbe 4924 523e ac97 923e
000000c0: 8a20 eb3d d1fa 753c 4d29 a8bd 8d53 f7bd
000000d0: fbb6 3abe 1395 a13e 2893 813e e934 3dbe
000000e0: 2538 083e a323 983e 8936 dcbd f28c 253d
000000f0: 76ed 853e ed08 b0bd ff2c 3bbe 2c20 c0bd
00000100: ce99 8c3e 604b d33c eb76 273e 2444 0dbe
00000110: c65a 87be 3717 78be 99b5 0abd 6344 ddbc
00000120: 7594 8dbe 06f0 b1bd b986 80be 8466 e4bd
00000130: 90be e53d 36f9 f8bc 6fb0 36bd c936 95be
00000140: e7c0 a23e c3e8 48be 961c 99be 18f9 8dbe
00000150: 433d 983e 44a0 1a3c 3903 db3d e60a a73e
00000160: dbbd 9d3e 602e 14bd a92a f73c 8d33 99be
00000170: ae73 a3be db3b 01be 71f5 8ebe 3c32 e43d
00000180: 2753 713d 1875 fbbd 3189 7b3e d857 9abe
00000190: 94c7 64be 11b6 443e 3ac8 51bb d361 3d3e
000001a0: 3931 dd3c 0acc 143e cfb0 67be d197 353e
000001b0: 5a54 a2be bec2 ad3c aa9e 4fbd 9c79 9c3e
000001c0: b1d0 3cbe e2bb 86bd 53b9 50be 8d94 2bbe
000001d0: 9aec 21be b1e6 483e 5fa6 173d 31ff 56bd
000001e0: 5948 a9bd 24f1 94be daee 043e b6ba 263d
000001f0: 1d18 39be d6f6 793e 59ee 2bbd 3f53 913e
00000200: 2a59 e9bc 4bb8 3cbe 01a2 a33e cca9 2abe
00000210: 643e 173c be16 493e e9b0 63be 13e1 e3bd
00000220: e0a7 233c 6235 633d e82a 28be 9e08 4dbe
00000230: 0225 673e 967e 7b3e ce3a 68bd 9e10 9fbe
00000240: 046c 2c3c b465 653e 8779 bf3d a581 41be
00000250: fddf 51bc 3a49 5b3e 146b 7a3e 4c44 9b3d
00000260: b201 313e d723 85be 07d9 9a3e be95 76be
00000270: 8fae 6fbe c7af 9dbe d3fa 903e b4c8 58be
00000280: fad7 debd 898f 183e 4729 20be 6a7f 893d
00000290: fd06 1fbe 8f50 06bc 6285 893e 25e6 c33b
000002a0: b157 d5bc 50b7 20be c172 88bd cb9e 9b3d
000002b0: f807 993e a4c2 a53d 32c3 df3c 90d3 743e
000002c0: 2017 843e d5c6 513d 10f1 febd 1f54 b43a
000002d0: 94b2 61be 6d80 363e 71aa 1d3e 22c4 8cbe
000002e0: 3e51 9d3e 4d2c 61bd f572 35be edc2 17be
000002f0: e8f0 1d3e 5421 5b3e f7cc 883e 93e8 95bc
00000300: 1a2c 783e 0f9a 8dbd ad97 873e 7dbd 503e
00000310: e6f3 2dbd e772 ce3d fec1 88be 8625 1c3e
00000320: b95e 023e 5618 84be ab9b 9b3e 9215 af3d
0.1501598 -0.1878134 -0.31411666 0.30825117 -0.32779476 -0.17550312 -0.24142797 -0.06613342
-0.14058648 -0.06456493 -0.020294748 0.21253279 -0.15607357 0.13662668 0.2838117 0.13624938
0.21797262 -0.27002963 0.17309241 0.09858241 -0.21571569 -0.22002053 0.20076838 0.31812635
0.32528737 0.06596438 0.16110566 -0.19295524 0.2025315 -0.04729826 -0.3052846 -0.03189247
0.11212372 0.15562373 -0.2476171 0.09438861 0.21657084 -0.0011901137 -0.19205138 0.30166247
-0.2761257 0.27834776 -0.07936432 0.102598086 0.26913306 -0.18485302 0.20521654 0.2863134
0.11480816 0.015013413 -0.082110025 -0.12076483 -0.18233864 0.31559047 0.25307584 -0.18477215
0.13302667 0.2971469 -0.10752589 0.04041762 0.2615773 -0.085954525 -0.18278883 -0.09381136
0.27461094 0.025792778 0.16353957 -0.13795525 -0.26436442 -0.24227606 -0.03386459 -0.027010148
-0.27652326 -0.08688359 -0.25102785 -0.11152366 0.112179875 -0.03039227 -0.044601854 -0.2914336
0.31787798 -0.19620042 -0.29904622 -0.27729106 0.2973424 0.009437624 0.10693974 0.32625502
0.3080891 -0.03617704 0.03017171 -0.29922143 -0.31924194 -0.1262049 -0.27921632 0.11142394
0.05891719 -0.12278193 0.24564053 -0.30145144 -0.22341758 0.19210078 -0.0032010213 0.18494348
0.02700101 0.1453096 -0.22626041 0.17733695 -0.3170498 0.021211024 -0.050688423 0.3056153
-0.18438984 -0.065788046 -0.20383196 -0.16755886 -0.15812913 0.19619252 0.0370239 -0.052489463
-0.08265752 -0.29090226 0.1298174 0.040705405 -0.18075605 0.24410567 -0.041975353 0.28383824
-0.0284849 -0.18429677 0.31959537 -0.16666335 0.009231184 0.19637582 -0.22235455 -0.11126914
0.009988755 0.05547083 -0.16422617 -0.20022818 0.22572711 0.24560007 -0.056696706 -0.31067365
0.0105238 0.22402078 0.093493514 -0.18897112 -0.012809751 0.21414652 0.2445491 0.07581386
0.17285803 -0.26003906 0.30243704 -0.2408056 -0.23406433 -0.3079817 0.28316364 -0.21170312
-0.10881038 0.14898504 -0.15640746 0.067137554 -0.1553001 -0.008197918 0.26859576 0.005978363
-0.026042791 -0.15694928 -0.066625126 0.07598647 0.29888892 0.080937654 0.027314756 0.2390883
0.25798893 0.05121501 -0.12448323 0.001375798 -0.22040778 0.17822428 0.1539705 -0.27493387
0.30726045 -0.05497389 -0.17719634 -0.14820452 0.1542393 0.21399432 0.26718876 -0.018299377
0.24235573 -0.0691415 0.26482907 0.20384784 -0.042468928 0.1008051 -0.26710504 0.15248689
0.12731446 -0.25799817 0.30392203 0.08549036

net_layers.0.linear.bias f4 [68]
00000000: d83d d63e 868e 0c3f bf4e 85be e209 0fbe
00000010: ef3e 0ebf 4fa7 6a3c 625e f53e 4dbe 443c
00000020: 34fa aa3d 2746 ef3d 5a09 4f3e 07d7 743e
00000030: df63 0dbf 3515 033f 1dca 53be d74c 633e
00000040: 30af bbbc 0808 0a3f 728b e3be 02a8 68be
00000050: d628 ff3e 9e44 cc3e cb82 e53e ea49 a73e
00000060: ed40 00bf 0bfb 91be e0f1 12bf 69e0 893d
00000070: f01f 893e 8e66 fdbe a43c 8d3c 2ab8 d3be
00000080: 7d00 063f ee49 a5bd 7b9a f03d bc6d b5be
00000090: 0337 aabd f782 b4be d060 37bd c03b 183d
000000a0: adaf 133f 2ec7 12bf 908f ebbe 699c 26be
000000b0: 92f5 fa3e d878 f43e 00d6 4a3d 27a6 5f3e
000000c0: 1993 d03e 968c 973d ed01 02bf 08ea 873e
000000d0: 4772 3b3e b771 1e3e 772f a2be d2b6 a0be
000000e0: 2066 fe3e 03d7 183e 4c34 093f f27f 6a3e
000000f0: 625c 99be 63fa 92bc a5a1 cc3e 0e17 96be
00000100: fa0f 69be d4e6 9f3d aa54 06be 1b1c fbbe
0.41844058 0.54904974 -0.2603664 -0.13968614 -0.5556478 0.014322116 0.4792357 0.012008262
0.08348504 0.116833024 0.20218411 0.23910151 -0.55230516 0.51204234 -0.20682569 0.22197281
-0.022910684 0.53918505 -0.44442326 -0.2272034 0.49835843 0.398961 0.4482635 0.3267358
-0.5009907 -0.28511843 -0.5740032 0.06732256 0.2678218 -0.49492306 0.01724083 -0.41351444
0.52344495 -0.080707416 0.11748215 -0.35435283 -0.08311274 -0.35256168 -0.044770062 0.037166357
0.57689935 -0.57335174 -0.46007967 -0.16270603 0.4901548 0.47748446 0.049520493 0.21840726
0.40737227 0.073998615 -0.5078419 0.2654574 0.18305312 0.15473066 -0.31676838 -0.3138948
0.4968729 0.1492577 0.53595424 0.2290037 -0.29953295 -0.01794166 0.39967075 -0.29314464
-0.22760001 0.07807699 -0.13118234 -0.4904488

net_layers.1.linear_1.weight f4 [68, 68]
00000000: 6ade e6bb 6811 593a b727 41bb b2ee b73b
00000010: e344 243a 6efb 9bbb 6983 2f3b fbc1 99ba
00000020: 7512 8cbb a732 c2bb 874b e9bb 5640 92bb
00000030: 02ea fcbb d8e9 fabb b8c5 153c 893e 4d3c
00000040: 7b80 3c3b 4e0f 433a f0a8 8b3b de37 b8bb
00000050: 1b43 073c 0d20 44bc e61b 143c ecc7 75bb
00000060: 2f4d 70ba 3caa e6bb 5907 29bb 9ad3 0dbb
00000070: 10e0 eebb b4d0 7fbb cc75 8cbb ae5f 6abb
00000080: 847a 5cbb bcd8 d2ba 5094 8c3a db45 4abb
00000090: 93ef 473b 1507 9abb 6036 243c 9bd0 95ba
000000a0: e988 4dba df9f a4bb 047a 10bc 3175 923b
000000b0: 30f7 613b 7a9d 323b 4cd5 0f3a a321 cfbb
000000c0: b426 bd3a fa5c f33b 2a47 7a3c 1797 963b
000000d0: 1697 4eba 2f14 033b d79f afba cb9e 34bc
000000e0: d331 3fbc 5bbe c53b 5729 92b9 3723 f8bb
000000f0: b228 33ba d2ad b139 430d 77bb 6194 c8bb
00000100: 2e50 d83b df41 7dbb 5209 0fbc 547e 2db8
00000110: efd2 e83b 2970 cb3b d23c d6bb 8576 3a3c
00000120: bc48 fb3a 4446 383c 43a5 d6bb 24ed 6b3b
00000130: 0e9d e93b fd9a 0ebc b925 fd3a 3c62 51bb
00000140: b80a f7ba abdc 9e3a 37f1 3ebb 4c4c af3b
00000150: b322 f039 aa91 dfbb d9c3 c4bb 9bca 70b9
00000160: b893 04bb 9327 e1bb cb7c 21bc 59e6 423b
00000170: e31c 2fbc b3b3 c73b 7847 05bc 4843 20bb
00000180: 72ec 213c 671a a63a aa11 2d3b 0267 61bc
00000190: 3498 d63a 9a39 3dbb 1402 b8bb 89ce 3b38
000001a0: f6ac 04bc 33c1 a93b 5a23 d43b 9139 b23b
000001b0: 81fe 29bc 3dcb b0bb 96e5 883b 74c4 a73a
000001c0: 468f 5639 d4ca aebb e768 30bb 7c8b f6bb
000001d0: 91dd 423c 8894 4fbb 69cd a2bb fa39 353b
000001e0: cb93 2f3b 7740 c03a eaed 01bb cb49 15bc
000001f0: 345d cc39 16e8 26bb db7f b4bb 6097 1ebc
00000200: da73 bcbb 204f c93a 7ecf 953a 7624 d93a
00000210: f887 f63b b0b2 93bb 6bfd e8bb c598 d3bb
00000220: 893e 0dbc a7d2 d5bb be12 913a a404 80bb
00000230: 7a50 ae3b 616e 18bc 1a8c 063b 67a7 1bbc
00000240: eccf a83a 5b37 20bc 886b 443b b6bb a83b
00000250: fef7 cd3a 5d60 623b 4fe6 d63b 8cb6 9a3b
00000260: 44f8 7a3b 0485 dcbb 6538 e6bb 266e 22bc
00000270: b5c5 f2ba ca73 95bb 00a7 b03b 13ac 31bb
00000280: 76d3 8cbb c361 f23b d377 403b 16c9 f0bb
00000290: 7d6e ef3b 36fb b73b aaa9 8b39 9e4b 05bc
000002a0: 9ca0 ef3a af33 52bb 5cbf 2f3b be29 0bbc
000002b0: 443a 3f3a c24c 02bb bd7b 013c a37c 443b
000002c0: cdd9 74b8 1188 b3bb cccf 09bc 4d3e bdba
000002d0: 49d2 023c 2e7b 73bb f210 cf3b 6df3 603a
000002e0: 002b ab3b db67 0c3c 8de3 013a 50a7 e83b
000002f0: 01a2 9cbb 2a3a 0e3c 5c77 f1bb ef35 0ebc
00000300: d5e1 c9ba 78e8 cd3a 2128 ceba 2f6f fa3b
00000310: a844 e8bb c775 b8bb 4981 8a3b 4ce3 243b
00000320: 4f5d 043c 181f b83b d8cc 8abb 8702 583b
00000330: f826 ec3b f428 9fbb 0b3b 6b3a 6e00 60bb
00000340: 2a90 40bb 41ea 2abb 661b 1c3c 74c4 183c
00000350: f0d5 d53b 68be 84ba 96e3 cbbb a52a 333b
00000360: aa0b aaba 3763 2e3a 21f1 173c 11ef 9dbb
00000370: b234 aa3a 717a c6bb 57d6 09bc 1b10 763a
00000380: 538f ef3b c1d1 493c 2c85 5d3a fd9d 9fba
00000390: a111 403a 4683 833b 3e1d 81bb ccf1 62bb
000003a0: 5d21 623a 3ba8 e43b 4897 943b 2c89 8d3b
000003b0: 9da1 3c3b 517b 76bb 6254 883a d262 05bc
000003c0: c4e0 073c 355d 763b 8f1a a53b 7440 0c3b
000003d0: a027 403b 4c37 263c a9ff 60ba acbe 02bc
000003e0: 152c 553c c85a 5bbc 1e87 8ebb 5a3f 2fbb
000003f0: d9c2 ebbb 073b 3fbc 315f 223c 4b18 683b
-0.007045557 0.0008280487 -0.0029473135 0.0056131715 0.00062663684 -0.0047601974 0.0026781207 -0.0011730784
-0.004274661 -0.0059264484 -0.0071195993 -0.004463236 -0.0077183256 -0.007657271 0.009141378 0.012527117
0.0028763104 0.000744094 0.0042620823 -0.0056218943 0.008255745 -0.011970532 0.009039855 -0.0037503196
-0.00091667747 -0.0070393365 -0.0025791733 -0.0021641017 -0.007289894 -0.003903431 -0.0042865034 -0.0035762596
-0.003364236 -0.001608632 0.0010725353 -0.003086439 0.0030507788 -0.0047005513 0.01002273 -0.0011429967
-0.00078405306 -0.005023941 -0.008818153 0.0044695367 0.003447961 0.0027254508 0.0005486801 -0.0063211485
0.001443109 0.007426855 0.015275756 0.004595648 -0.000788079 0.0020001044 -0.0013399076 -0.011024187
-0.011669594 0.006034655 -0.0002787809 -0.0075725573 -0.0006834372 0.00033889577 -0.0037697114 -0.006121204
0.006601355 -0.0038643999 -0.0087302495 -4.1364066e-05 0.0071052234 0.006208439 -0.006538012 0.011380796
0.0019171457 0.011247221 -0.0065504625 0.00359995 0.007129318 -0.008703944 0.001931361 -0.0031949421
-0.0018847799 0.0012120208 -0.0029135474 0.0053496715 0.0004580222 -0.0068227844 -0.006004792 -0.0002296366
-0.0020229649 -0.0068711727 -0.009856413 0.0029739349 -0.0106880395 0.00609442 -0.008134715 -0.0024454165
0.009883033 0.0012672663 0.0026408234 -0.013757469 0.0016372264 -0.0028873445 -0.005615482 4.4776625e-05
-0.008097878 0.005180502 0.006473941 0.0054389914 -0.01037562 -0.0053953216 0.0041777594 0.0012799636
0.00020462004 -0.0053342376 -0.0026917995 -0.007523952 0.011893646 -0.0031674225 -0.0049683345 0.0027652965
0.0026790972 0.001466765 -0.0019825646 -0.009111832 0.00038979354 -0.0025467924 -0.0055084056 -0.009679645
-0.0057511153 0.0015358664 0.0011429635 0.0016566652 0.007523533 -0.004507385 -0.007110288 -0.0064574205
-0.008620867 -0.006525356 0.0011068208 -0.003906803 0.005319652 -0.00930366 0.0020530284 -0.009500361
0.0012879348 -0.009778823 0.002997132 0.00514933 0.0015714166 0.00345423 0.0065582166 0.0047214683
0.003829495 -0.006729724 -0.0070257657 -0.009913957 -0.0018522056 -0.0045609223 0.0053910017 -0.002711062
-0.004297669 0.007396908 0.0029368296 -0.00734819 0.0073068724 0.0056146635 0.00026638556 -0.008135704
0.0018282118 -0.0032074263 0.002681694 -0.008493839 0.0007294754 -0.0019882177 0.007903037 0.0029981516
-5.8376976e-05 -0.005478867 -0.008411359 -0.0014438123 0.007984706 -0.0037152278 0.0063191587 0.0008581195
0.005223632 0.008569683 0.0004954867 0.0071000233 -0.0047800546 0.00868086 -0.007368965 -0.008679851
-0.0015402386 0.001570954 -0.0015728512 0.0076426486 -0.0070882626 -0.0056292745 0.004226838 0.0025159894
0.008078887 0.005618941 -0.004235845 0.003296049 0.007206794 -0.004857177 0.00089733367 -0.0034179944
-0.0029382803 -0.0026079568 0.009528017 0.009324182 0.0065257475 -0.0010127546 -0.0062221987 0.002733865
-0.0012973447 0.00066523574 0.009273798 -0.0048197587 0.0012985675 -0.0060570766 -0.008412919 0.0009386555
0.0073107868 0.012318076 0.0008450325 -0.0012177821 0.00073268457 0.0040134517 -0.0039402535 -0.0034628985
0.00086261873 0.0069780624 0.0045346357 0.0043193307 0.0028782852 -0.0037610123 0.0010401125 -0.008141236
0.008293334 0.0037592177 0.0050385664 0.0021400722 0.0029320493 0.01014502 -0.0008583018 -0.00798003
0.013010998 -0.013388343 -0.0043496033 -0.0026740641 -0.0071948585 -0.011671788 0.009910391 0.003541487

net_layers.1.linear_1.bias f4 [68]
00000000: 71a1 9e3c 6479 043c ec50 c8bd fc27 db3c
00000010: 8ca3 babc 18d9 813d aefa a3bd 723e d4bc
00000020: a6af f43d 3daf eebd f719 e2bc 483b dd3c
00000030: bc9c 8cbd 9bef d33d 4efb 923d 4123 b33d
00000040: 346b c53d 16cf 5cbd 4ca8 a5bd 5b4a e93d
00000050: 910c 00bc 834c 68bc 8d29 a73c 8edf 143c
00000060: 4688 d23d 5a94 3c3b 0327 3ebd 75f4 843d
00000070: 19df 763c f880 453d 8063 7e3d 0ae0 1d3d
00000080: be6e ca3d eaf0 173d 3535 9d3d aa1d 6a3d
00000090: 432e d43d cafc db3c c389 8fbd 8de8 20bd
000000a0: e830 b33c 1f34 babc 4790 ca3d 3ec5 8a3d
000000b0: 1313 efbd 1dfd 2c3c aae6 adbd dadb 173d
000000c0: d0df f03d dab0 853c 7c03 0ebc 08ed 6d3d
000000d0: 4167 b1bd 7835 bcbd 50ca 233d 91bb 9bb9
000000e0: d6b9 e33d 5755 e6bc bbc7 6fbd 5228 ecbd
000000f0: ac60 ed3c d3da 13bd 2c22 ef3b b5ae 4a3d
00000100: d0c5 d13d 6553 39bc 35a6 983b ee1b f83d
0.01936409 0.008085582 -0.097810596 0.026752464 -0.022783063 0.063402355 -0.08006798 -0.025908682
0.11947565 -0.11654518 -0.027600272 0.027005807 -0.06865832 0.103484355 0.07176839 0.087469585
0.09639588 -0.05390843 -0.08088741 0.11391135 -0.007815496 -0.014178398 0.020405555 0.009086503
0.10279898 0.0028774948 -0.046423923 0.06491939 0.015067839 0.048218697 0.06210661 0.03854374
0.09884404 0.037094988 0.07676164 0.057157196 0.10360386 0.026853938 -0.07008698 -0.039284278
0.021873906 -0.022729931 0.098908 0.06775902 -0.1167356 0.010558394 -0.08491261 0.0370749
0.11761439 0.016319681 -0.008667823 0.05808738 -0.08662272 -0.09189886 0.039987862 -0.00029703652
0.1111943 -0.028116865 -0.058540087 -0.11531128 0.02897676 -0.03609736 0.007297775 0.04948302
0.10242808 -0.011311387 0.0046584853 0.12114702

net_layers.1.linear_2.weight f4 [68, 68]
00000000: 097f 2d3b 073f 07bc d614 8ebb 87cc 603c
00000010: 9565 4fba b95b c53b 1844 193c e278 b8bb
00000020: 6b43 84bb 89bb 4f3b 7fc2 cbbb 2732 a63a
00000030: 4ad9 1cba bde1 f0ba f94d 92ba 0d16 293b
00000040: 35ef b33b d8ff 2b3c 2606 5fbb 4d41 ea3b
00000050: 6d41 9e3a 29a9 143b 2105 c13b c64f 01bc
00000060: 0fd7 1c3c bf1d b6bb ced5 f1bb 3761 06bb
00000070: 9309 a83b 94e4 ca3b 8291 82ba 78da 06bc
00000080: ab67 873b b54c c7bb 32e5 b9bb ed96 bb3b
00000090: cfd4 7cbb 0437 963b 8eb5 903b d7a4 1ebc
000000a0: 9c34 d1ba db09 d9b9 89b4 26bc 918a c5bb
000000b0: bccf 4cbc 860e 6638 0f2b edbb 8612 12bc
000000c0: 5ea6 0abc 9067 b939 a6fd afbb 148f 4a3b
000000d0: d8eb 8f3b 9169 8bbb 77ec be3b 42c8 9e3b
000000e0: 22e0 26bc ca69 0cba 2a62 1bbb 6066 b1bb
000000f0: 7dd3 793b 3ddd 573b b696 a238 36a7 ae3b
00000100: 6f77 3cba 13cf ecbb c879 b8ba fe01 40bc
00000110: a07a 8b3b 3a57 43ba d08d 83bb 9245 193c
00000120: eadb 233b 13bf ac3b b1ee 3fbb bf53 303b
00000130: 59ce f5ba a78f c63a 32dc fabb cd3f 763a
00000140: 8c37 27b9 e7ac b53b 1dfc 8b39 a45f 573c
00000150: f5c5 0a3b 1aba 0b3a deac acbb f0cd fd3b
00000160: 5d1c 743b 9ab9 d2ba 8583 843b f1b6 023a
00000170: 2119 303b f08f 3f3b 24ed 943b c8cf 36bb
00000180: a306 cebb b354 0ebc 2b96 1aba dc66 bb3a
00000190: 279f b6bb bd10 c13b 4c1c 80ba a3ac 1d3c
000001a0: e965 f6bb 8771 0f3c dc70 0ebc e384 aebb
000001b0: ec4e a03a 2330 0fbc 93d7 213b f59e 2cbb
000001c0: 4850 b5b9 bc52 08bb 66b5 01bc cd38 8c3b
000001d0: aee0 0bbc 6aa2 053b a82b 393c bebb babb
000001e0: d055 9e3b 665d 71bb eab3 b5bb 9bfc a5bb
000001f0: b35e 10bb 21f5 e03b 51a2 b03a 96c8 0d3b
00000200: 124e 103b 9c68 94ba 09a0 2c3c 0885 d13b
00000210: f808 0fbc 957f 043c 8d5c 14bc 38d3 3dba
00000220: d044 db3b 5238 4abb debc 16bb f0da 5cbb
00000230: 439b a83b 81b9 33bb 31d6 413b ac84 df3b
00000240: e465 19bc a24b fbbb c225 ffb8 bf8e bbba
00000250: cfcc 1cbc 8b42 143c feb0 353c 2d07 053c
00000260: c2f7 9fbb dcb0 d83b fe40 eebb 758b 903b
00000270: 86fd b4bb 15f8 9439 65f9 803a 8b49 beba
00000280: 64fd cebb 0320 16bc 9079 183c 7add 2e3b
00000290: 04ab ce3b 1d80 61bb 420a 643b 98c5 89bb
000002a0: 619a 20bc 5cbc 293b 5c09 b63b c7a1 6ebb
000002b0: 5663 3dbb 1faf a4bb 4987 993b 90cb b03b
000002c0: 96f6 caba c7c6 1c3c 4366 e33b f469 d93b
000002d0: 11d9 71bb 10b3 c03b 1a6f 68bb 5f89 2cbc
000002e0: bcab 4cba 48e6 93bb 45bf 9bbb 99b1 b93b
000002f0: 879e bcbb 2144 96bb f423 b1b9 dcfb 94b9
00000300: 626e fdba e667 6abb 386a 79bb 0289 df3b
00000310: 1c79 d4bb 11d2 fb39 7ac2 83bb 80e9 3cbc
00000320: cf61 e1bb 872c c9bb 8a25 4f3c 2242 7cbb
00000330: 19dc 793b 065a 3dbb e03d bcbb 8684 873b
00000340: 45a9 853b 533a 9c3a 92b1 143c 62d6 0abb
00000350: 05c1 093a 0cb8 b9ba f8dc 413b 2acb 0a3c
00000360: 7fb7 4a3b 7c01 e7bb c41c 05bc 0518 1c3c
00000370: dd14 07bb 5f8d 59ba cddb 3b3b cbfa 233c
00000380: c6bb 41ba 5e67 81ba 4a03 ad3b 56c4 ffbb
00000390: 2140 713b b935 5e3a fd0f ec3a b5d0 71bb
000003a0: 1594 6b39 e181 cbb9 ad97 f93a dc7d e43b
000003b0: 1428 743b 30e6 c73a f453 b63b 691e d0bb
000003c0: 0762 203b a70b c93b f09b 313b 1f5d 8f3b
000003d0: 2aea 2ebb 72b6 9fba 4f44 043c 876e fabb
000003e0: a7f9 c43b f623 3fbc e767 edbb c10b f2ba
000003f0: ffb5 0abb 4688 8eba a3f1 c23a 245c eb3b
0.0026473424 -0.008254773 -0.00433598 0.013720638 -0.000791156 0.006022897 0.009354614 -0.0056296447
-0.004036357 0.0031697473 -0.006218254 0.0012679741 -0.00059833063 -0.0018377822 -0.0011162154 0.0025800497
0.005491162 0.01049801 -0.0034030764 0.0071488977 0.0012073942 0.0022683835 0.005890504 -0.007892555
0.009572758 -0.005557745 -0.007380224 -0.0020504722 0.0051280945 0.0061917994 -0.0009961578 -0.008230798
0.004132231 -0.0060821422 -0.005673074 0.005724779 -0.0038578992 0.004584195 0.0044161743 -0.009682856
-0.0015961113 -0.00041396808 -0.010174879 -0.0060284813 -0.0125007 5.48498e-05 -0.007237799 -0.008915549
-0.008462517 0.0003536311 -0.0053708134 0.0030908035 0.0043921284 -0.004254528 0.0058265286 0.00484565
-0.010185273 -0.000535634 -0.0023709633 -0.0054138154 0.0038120442 0.0032938265 7.752834e-05 0.0053299917
-0.0007189428 -0.0072268336 -0.001407438 -0.011719225 0.0042565614 -0.00074516574 -0.004014708 0.009354966
0.0025002905 0.0052718013 -0.0029286558 0.0026905385 -0.0018753513 0.0015149013 -0.007655644 0.00093936623
-0.00015947054 0.005544293 0.00026699985 0.013145361 0.002117512 0.00053301605 -0.005269631 0.007745497
0.003724835 -0.0016077042 0.0040439987 0.0004986367 0.0026870447 0.002923008 0.004544871 -0.0027894843
-0.0062874123 -0.008687186 -0.00058970106 0.0014297622 -0.0055731717 0.005891888 -0.0009774058 0.009623679
-0.007519473 0.008755094 -0.0086939 -0.0053259 0.0012230552 -0.008739504 0.0024695143 -0.0026339863
-0.00034582824 -0.0020801267 -0.007916784 0.004279232 -0.0085374545 0.0020390996 0.011301912 -0.00569865
0.004832007 -0.0036829351 -0.005545129 -0.0050655133 -0.0022029101 0.006865159 0.0013476108 0.002163445
0.002201919 -0.001132268 0.010536202 0.0063940324 -0.008730166 0.008087059 -0.009055269 -0.0007241252
0.0066915527 -0.0030856323 -0.0023000757 -0.0033699833 0.0051454618 -0.0027423801 0.002957713 0.0068212356
-0.0093626715 -0.0076689282 -0.000121663805 -0.001430951 -0.009570315 0.009049068 0.0110895615 0.008119387
-0.00488183 0.00661288 -0.0072709313 0.004411156 -0.0055233864 0.00028413595 0.000983995 -0.0014517767
-0.0063168276 -0.009162906 0.0093063265 0.0026682303 0.0063070077 -0.0034408637 0.0034796153 -0.004204463
-0.009802432 0.0025899624 0.005555315 -0.0036412345 -0.002889832 -0.005025759 0.0046853167 0.0053953603
-0.0015484865 0.009568877 0.006939681 0.006634945 -0.0036903063 0.005880721 -0.0035466612 -0.010530799
-0.0007807573 -0.0045135356 -0.0047530257 0.0056669232 -0.0057562026 -0.0045857583 -0.00033786858 -0.0002841641
-0.0019335265 -0.0035767495 -0.0038057696 0.0068217525 -0.006484164 0.00048030962 -0.004020986 -0.01153028
-0.006878115 -0.0061393413 0.012643227 -0.0038491567 0.0038125573 -0.002889277 -0.0057446808 0.004135671
0.0040790164 0.0011919237 0.009075539 -0.002118491 0.00052548974 -0.001416923 0.002958117 0.00847129
0.0030932126 -0.0070497375 -0.008124534 0.009527211 -0.00206118 -0.0008298959 0.0028664947 0.010008524
-0.0007390346 -0.0009872725 0.005279933 -0.0078053875 0.0036811905 0.0008476633 0.0018010136 -0.003689808
0.00022466511 -0.00038815945 0.0019042395 0.0069730114 0.0037255334 0.0015251096 0.005564207 -0.0063512814
0.0024472491 0.0061354223 0.0027101003 0.0043751146 -0.0026689866 -0.001218511 0.008072927 -0.0076425704
0.006011206 -0.011666289 -0.007245052 -0.0018466638 -0.0021165607 -0.0010874353 0.0014873039 0.007182615

net_layers.1.linear_2.bias f4 [68]
00000000: 5e1c bf3d eb01 fabc 420e ab3d 344a b43d
00000010: b54b f93c e501 ebbd 7a25 0cbd 475e f8bd
00000020: 610e 013d 81d1 d53d 39a7 953d eab9 8aba
00000030: fc12 38bd e485 47bd b4c3 ab3c 633f d83d
00000040: f7ae c43d 0724 9b3c 4b70 393d 6a20 db3c
00000050: dfb1 733c ef06 1cbd 7802 813d 26d9 a3bd
00000060: cad9 93bd e9c4 fabc 6299 d8bd 918d d4bd
00000070: afd5 e23c af98 c43d fc2c 56bd 9dd4 6c3d
00000080: f922 62bd 7485 193d 23e4 bfbd e6c2 80bd
00000090: 4b57 383d a14f a8bd 1502 b6bc 83d3 8c3c
000000a0: 3cd8 d53d b7e0 003d d07f de3d a961 803d
000000b0: f526 d13d 84d7 2bbc fa73 253a 75b1 d7bd
000000c0: aa56 4b3c f98a af3d 3253 edbd 7d99 17bc
000000d0: 7e69 39bd d0c9 033d 556c 923d 9922 1fbd
000000e0: 5022 99bc edac 0c3d 4d59 b23d 7e80 983c
000000f0: d8b9 cbbd fa98 23bd f948 d53d e38c c2bd
00000100: 0147 72bd 9134 be3d 78ee c8bc 7c6b 7fbd
0.093315825 -0.030518493 0.08352329 0.088032156 0.030431608 -0.11474971 -0.034215428 -0.12127357
0.031507853 0.1044035 0.07307286 -0.0010583971 -0.04493998 -0.048711672 0.020967342 0.10558965
0.096036844 0.018938078 0.045273107 0.026748855 0.014873951 -0.03809255 0.06299299 -0.08000402
-0.07219274 -0.030611472 -0.105761304 -0.10378564 0.027689783 0.095994346 -0.052288994 0.05781995
-0.055209134 0.037480786 -0.093696855 -0.06287174 0.045005124 -0.08218313 -0.02221779 0.0171907
0.10441634 0.031464305 0.10864222 0.06268627 0.102125086 -0.010488395 0.00063115323 -0.10531894
0.012410799 0.08571429 -0.11588134 -0.009252903 -0.04526662 0.032174885 0.07149569 -0.038851354
-0.01869312 0.034344602 0.08708439 0.018615957 -0.09947556 -0.03994081 0.10414309 -0.09499528
-0.059149746 0.0928737 -0.024527773 -0.062358364

net_layers.2.linear_1.weight f4 [68, 68]
00000000: 7b41 653b e775 14bc a520 153b 7df0 2abc
00000010: 574f 2dbc 1bf8 e13b 5394 12ba d8a8 263c
00000020: 57b2 eb38 cd73 123a 54c3 893b aab4 1dbc
00000030: 767b d23b 62dc f73b 724d f23a 0e93 bdbb
00000040: 84a0 c93b 8abc ff3b 5d0d f6bb d309 9b3b
00000050: 0eff 903a 97c1 beba 2a70 0dbc ad90 9a3b
00000060: b3b1 23b9 8b55 47bc adff d9ba fcab ef3b
00000070: 0d22 ffba c36b fb3b ceb4 35bc 81c7 a1bb
00000080: b77e 69bb 8d62 fcbb 2536 d93b aeaf 933b
00000090: d6a8 b53b 7634 d4bb baa5 65bb 27ed f83b
000000a0: c4fd 4abc f280 26bb d50d 82bb c885 173c
000000b0: d39f 433b ccde 6f3c 9fa0 fcba 1dc7 c43a
000000c0: 64a8 c5bb c88f a1bb 8362 06bc db10 013a
000000d0: 369c fd3b 0952 bbbb 0723 463b 56ef 71bb
000000e0: 32fd f3bb be88 fd3b 6171 deba e171 a8ba
000000f0: 8f39 5bbb 35a9 0039 d915 063b 45a8 0bbb
00000100: b5ba 213c cd31 103c 64e3 11bc 2e32 d83b
00000110: 8c86 b43b e106 34bb a87c 6c39 e30d 83bb
00000120: ed5b a4bb f7e6 9aba ccbc 31bc 51ac 173b
00000130: 0f38 97bb b9a8 a83a 7a11 453b 1038 17bc
00000140: 1a2b 9cbb b8fe 9abb ee95 263c 2462 903b
00000150: 64bb d3ba b6b0 853b 4418 debb 67f3 833a
00000160: c4ef 37ba b161 cbbb a84a 263b dfd8 aeb9
00000170: 774b e1bb 92f1 6c3c e866 2abb 79b7 3e3c
00000180: c695 6d3b 83a4 81bc 5df2 9c3b a837 e4bb
00000190: 3926 ae3b ab13 d63b 79bf ee3b 7de7 b53b
000001a0: e6f2 bf3b 9fbb 50ba 895a 153b 0cb1 48bc
000001b0: 01f0 21bc 3380 023c 2094 faba 9e0e c0bb
000001c0: 5b8c 2c3c 2131 cbba 5719 223c a925 9cbb
000001d0: eac0 1f3c 0d04 48bb 4939 90ba 85e7 bc3b
000001e0: 1fed 0d3c 4718 5b3b b90b ad3a 1d61 b73b
000001f0: 2140 543b 29e2 1ebc 6b4d 0e39 0b02 a4ba
00000200: dc28 9eba bfc2 04bb 5be6 883b 09a0 7f3a
00000210: dd3b 17bb 2a0e 02bc d836 0a3b 6a02 293c
00000220: d34e acb8 80c1 973b 7881 9e3b a16c 1b3a
00000230: 23ce f1ba 1080 a53b cf04 273c 5968 30bb
00000240: aee1 f03a 7c84 82bb a9ca 123c 525f c5bb
00000250: 9561 fc3b abd9 01bc 744d a6bb 1c56 97bb
00000260: 9e6f 97b9 a5c9 c2bb d9cd b7bb a362 853b
00000270: 1a66 3dbb 2294 11bc c3a8 0fba 82ec 05bc
00000280: 9f63 5b3b 4307 1e3c 45da 103b 93bc 8dbb
00000290: 083b 6939 6ffc 6fbb afd4 73bb 2c1c 003c
000002a0: 4e62 883b 43f6 bebb bdba d33b 40b8 893a
000002b0: 3b98 13bb f550 c53b 0d84 0bbb 8278 31bc
000002c0: b496 243b ee69 3bbb 3244 0ebc 7134 82b9
000002d0: 4e40 2ebb 6c39 b93b f7a4 9d3a 2706 fc3b
000002e0: 22d2 fd3b 9a4f d73b 7df3 02bc 679d b5bb
000002f0: 32a3 2dbb e376 e73b 0dbf 9c3b 411d 083c
00000300: bf3d 21bc 42cb 43bb 931c 323c df62 10bc
00000310: 9a00 6338 9b0d 72bc 54ab 50bc 6dfc aabb
00000320: 72c3 a8ba ac49 26bb 4bf9 393c 2f29 3a3a
00000330: b7d6 a7ba 95b7 60ba 3e9b 21bc 02b2 d1bb
00000340: 067b 06ba b65f a3ba e5bd dc3b adaf bbba
00000350: abba f8bb 937e 91bb 0ee3 4c3b 798d 87bb
00000360: 2a5e ad3b a66c 1bbb d227 d23b bc44 533c
00000370: b95e 2a3c e617 44bc d1a7 923b 092b 96bb
00000380: 241e 9d3a c6ba 2b3c ebec d83b a109 67bb
00000390: aa23 273c 7c82 a13b ee7f 5b3c a9b8 3e3b
000003a0: 56b5 b33b da49 a43b 032d 7a3b b763 27bc
000003b0: 5469 d53a 0eb3 213b 2ea9 1d3a 9129 b53a
000003c0: 60ea a0bb 79d1 25ba c13e 09bc cd5e 80bc
000003d0: ed5b c9ba 67f7 193b 2ea1 1c3b 27e4 c83b
000003e0: f93b 9b3b 2cfc 8abb e481 40bc fe0c 32bb
000003f0: 4927 a43b a732 0b3c 882c 2fbb ec42 053b
0.0034981656 -0.009061313 0.0022755053 -0.010433313 -0.010577998 0.0068960316 -0.000559156 0.010172091
0.000112388916 0.00055867137 0.004204193 -0.009625593 0.006423409 0.0075641135 0.0018486215 -0.0057853526
0.006153168 0.007804458 -0.0075089172 0.0047313957 0.001106234 -0.0014553544 -0.008632699 0.0047169537
-0.0001561109 -0.012166391 -0.0016631983 0.0073142033 -0.0019465104 0.0076727583 -0.0110904705 -0.004937113
-0.0035628506 -0.007702178 0.006628769 0.0045070266 0.0055438085 -0.0064759804 -0.0035041408 0.00759663
-0.012389604 -0.0025406447 -0.003968934 0.0092482045 0.0029849901 0.014640521 -0.0019273943 0.0015012954
-0.0060320366 -0.00493047 -0.008202198 0.0004923471 0.007739569 -0.0057165665 0.003023328 -0.0036916337
-0.0074459547 0.007737248 -0.0016971045 -0.0012851321 -0.0033451056 0.00012270066 0.00204598 -0.0021310013
0.009871175 0.008800936 -0.008904312 0.0065977788 0.0055092033 -0.002746992 0.00022553152 -0.003999458
-0.005015841 -0.00118181 -0.010848235 0.002314348 -0.004614837 0.0012867666 0.0030070231 -0.009229675
-0.0047658803 -0.004730072 0.010167582 0.0044062305 -0.0016153869 0.0040799035 -0.006777795 0.0010067046
-0.0007016624 -0.006206714 0.0025374088 -0.00033349448 -0.006875451 0.014461892 -0.0026001278 0.011640423
0.0036252602 -0.015825516 0.004789634 -0.0069646426 0.005314615 0.0065331063 0.007286009 0.005551277
0.005857813 -0.0007962528 0.002278956 -0.0122492425 -0.009883882 0.007965135 -0.0019117631 -0.0058611175
0.01053151 -0.0015502312 0.009893737 -0.0047652316 0.009750584 -0.0030519993 -0.00110034 0.005764904
0.008662491 0.0033431218 0.0013202346 0.0055962936 0.0032386857 -0.0096974755 0.00013571016 -0.0012512816
-0.001206662 -0.002025768 0.004177851 0.0009751325 -0.0023076453 -0.007937947 0.0021089818 0.010315517
-8.216281e-05 0.0046312213 0.004837211 0.0005928968 -0.0018448274 0.0050506666 0.010194018 -0.0026917665
0.0018377805 -0.0039830785 0.008959451 -0.006023326 0.0077020624 -0.007925431 -0.005075151 -0.0046184193
-0.00028884126 -0.005944448 -0.0056092557 0.0040705963 -0.0028899969 -0.008885415 -0.00054801645 -0.008174064
0.0033476127 0.009645286 0.0022102755 -0.0043254583 0.00022242602 -0.0036618968 -0.0037205627 0.007819217
0.0041621095 -0.0058276965 0.00646147 0.0010507181 -0.0022521156 0.0060216137 -0.0021288425 -0.010831954
0.002511424 -0.0028597075 -0.008683251 -0.00024834604 -0.0026588622 0.005652597 0.0012027313 0.007691163
0.007745997 0.0065707685 -0.007992622 -0.0055424455 -0.0026494977 0.007063733 0.004783517 0.008307756
-0.009841382 -0.002987579 0.01087107 -0.008812635 5.4121578e-05 -0.014773752 -0.01273616 -0.00521808
-0.001287563 -0.0025373502 0.01135094 0.0007101474 -0.0012805079 -0.0008572278 -0.009863673 -0.006399394
-0.0005130026 -0.0012464437 0.0067365044 -0.0014319323 -0.007590612 -0.0044401377 0.0031263265 -0.004136738
0.0052907662 -0.0023715883 0.0064134384 0.0128948055 0.01039856 -0.011968588 0.0044755717 -0.004582767
0.0011987132 0.010481542 0.0066200397 -0.0035253542 0.010201374 0.004928885 0.0133972 0.0029101765
0.0054842634 0.0050136866 0.0038173802 -0.010216645 0.0016282 0.0024673375 0.00060142844 0.0013821592
-0.004910752 -0.00063254643 -0.008376778 -0.015670205 -0.0015362479 0.002349341 0.0023899782 0.0061307135
0.004737374 -0.004241487 -0.011749718 -0.0027168388 0.005009566 0.008495963 -0.0026729424 0.0020334078

net_layers.2.linear_1.bias f4 [68]
00000000: 6e92 443c ba7e 403c fd03 d6bd 826e b63b
00000010: 8203 bb3d 7053 bbbd 317f ea3c 51a4 83bd
00000020: 79ec f23d 5dca e93c b00f cb3d 9897 5d3d
00000030: 2654 683c c3d7 633d 2193 14bd 29d1 97bd
00000040: b652 c23d b53f af3d 0cc7 9a3d 381a 383c
00000050: 78ab 95bc ce66 5dbd e376 a03d c23e 06bc
00000060: ee1b c0bd 8cb7 87bd 1c96 dfbd e290 623c
00000070: c063 723d 4aa5 0fbd f630 0d3d a007 0f3d
00000080: 0472 fd3b 9471 ed3d 5893 d6bd 8092 df3c
00000090: 5d91 87bc 066d d8bd 439b f33d 80ba ef3d
000000a0: 79f3 75bc 29de 7b3d c21b f6bd 3165 a5bd
000000b0: e416 973d 5e24 7e3c 690d 4c3d 738c 9d3d
000000c0: 099f 4bbc 38d3 4c3d 0894 7abd 15b5 013c
000000d0: f8e5 4ebc c67c 08bd ad1c cbbd 51a0 273d
000000e0: 70e3 8fbd 66a2 a6bc 6c06 8dbd 5fdd e0bd
000000f0: 555b 203d 1532 853d afae d9bd 6b30 bc3d
00000100: 7859 753d accd dcbd 377d 5ebd e548 a9bd
0.011997802 0.011748964 -0.104499795 0.005567373 0.091315284 -0.09146774 0.028625103 -0.06427825
0.1186151 0.028538877 0.099151015 0.05409965 0.014180219 0.05562569 -0.036273126 -0.07412941
0.09488432 0.08557073 0.075574964 0.01123672 -0.01827024 -0.05405312 0.07835176 -0.008193674
-0.09380327 -0.06626806 -0.10917303 0.013828488 0.05917716 -0.03506974 0.03447052 0.03491938
0.007734539 0.11593929 -0.10477322 0.027291536 -0.016548807 -0.105676696 0.11894848 0.11705494
-0.015011662 0.061491165 -0.12017013 -0.08075941 0.07377413 0.0155116 0.049817476 0.07692804
-0.012428054 0.05000612 -0.06117633 0.0079167085 -0.012628071 -0.03332212 -0.09917579 0.040924374
-0.07025802 -0.02034111 -0.068859905 -0.10979723 0.0391496 0.06503693 -0.106290214 0.091889225
0.059899777 -0.10781416 -0.054318633 -0.08265857

net_layers.2.linear_2.weight f4 [68, 68]
00000000: b803 29ba 38a4 20bc ece3 563c 21a1 3e3b
00000010: d226 68bb 58e6 66bb 40d7 c83b 5bbb 593a
00000020: 5441 ecba 883d ad3b eb98 423b f5bc 053b
00000030: 9dea a9bb c4b3 ca3b 3a7e 74bb faf6 aabb
00000040: a270 803b 2c41 743b 28cd 2c3a 3094 b2bb
00000050: 182a 823b 7a50 dbba a0e7 aaba 2efb 9cb9
00000060: 7671 2cbc 3824 0f3b ae1b 1f3c f321 593b
00000070: 8deb 0dbc b0bf 943b 68b1 25ba 3e50 b13b
00000080: 2067 e3bb d3b5 86bb ce13 da3a c889 07bc
00000090: ab68 ddba 788d 1bbc ed4a c83b 81cc acb9
000000a0: 53d1 b33b 3226 093b 517b 893b e9aa e7bb
000000b0: f9ec a4b9 3cbd e0bb ba0f 833b bae1 e63b
000000c0: adc2 903b 8580 e13b 4fc0 e03a c1cc c3bb
000000d0: 15c5 03bb 9bfa d9bb ae90 69bc 890b 44bb
000000e0: d5c6 0d3c 2b08 36bc 46cc 113b cf84 a038
000000f0: 43ee d4bb a85f 003c 41f0 073c c43c 03bc
00000100: 710f d2bb 42ca 993b e569 c7bb 0538 bdbb
00000110: 83f6 853b b748 f43b 6209 213c d14a 8b3a
00000120: d7ca b1b9 4245 4c3b 5e63 f83b f726 d6bb
00000130: ca3e e9bb 443e b7bb a373 74b9 9e86 c93a
00000140: fb28 7bba 3848 eb3a 1ae3 b13b e835 493c
00000150: 8831 173c 0e23 ae3a 2303 85ba 9230 81bb
00000160: b7cc 713b ba5e 4abb a409 1b3a 1fed a6bb
00000170: 7078 9a3b fbfb fe3b fba5 043c 86e4 883b
00000180: ca9c 01bc 5e2c 9cba e200 0ebc 5740 d23b
00000190: 03c9 b53b add1 cfba 9c71 16bc d39c 153c
000001a0: 5099 8b3b f496 183c f90d 5a3b bbee 983b
000001b0: ef5e 02bb 4794 0c3c 3699 28bc 70b8 c33b
000001c0: 4b78 4d3b d82d c4bb 4e69 d4bb a87e 623a
000001d0: bb9d 51bb 8b2a 093b 71b6 14bc 5acb 693b
000001e0: 74f7 1e3b af37 983b 0588 11bb 2a84 193c
000001f0: 22bf 06bc 816d e03b c04f 583b b2c2 a93b
00000200: 9bf1 873b 17a6 fc3b bfd2 c43b d9d8 29bc
00000210: 68a6 9b3b d1fb d63b 7790 a53b 7f15 c5ba
00000220: 23a9 273b f872 cf3b 9ff2 a9bb 0a79 e73b
00000230: 6494 0abc 650e f4ba 1399 97ba 2234 d6bb
00000240: 6caa 5abb a26e c5ba 7d76 683b ec48 dbba
00000250: a31f 6cbb ada1 073c 23a4 8cba cb6d 153c
00000260: ea60 113c 9044 c6bb 9975 213c 4b77 e8bb
00000270: d91d c33b fc57 a23b b1c9 92ba 2cb2 46bc
00000280: 4280 ff3b 94d9 ea3b fcf6 dbba ac48 52bc
00000290: 4e77 cd3a 8cdd 0bbc 7588 c73b 25ff 0d3c
000002a0: 6c95 873b 5162 b53b 8d33 e73b a9c9 fb3b
000002b0: 5dc9 823b 5391 31bc 17b5 a8ba 2aad 853b
000002c0: 394f 0bbc 93b2 3a39 012b d0bb 11cd a63b
000002d0: e703 22bc 999a d7ba 47f8 29bc ce08 81bb
000002e0: d576 cf3a d26b 01b9 b1f3 043c 5ed8 d73b
000002f0: ef7f 813b 160d 813b ae58 b5ba 795f 52bb
00000300: 2ce8 623b 454e 553c 0f96 41bb 877c 07bc
00000310: 0940 e5bb 2896 2bbc 0c33 3a3c 8498 823b
00000320: f21e b63b 1942 d13b 68cd 4139 3bfb 433b
00000330: adc2 e5ba 7ac1 e7bb ed03 923b d861 18bc
00000340: 7d12 f6bb da1c db3b 4d85 763c 2721 c438
00000350: 7cc5 febb c5d4 123c 8f8f ab3a 9e60 2abc
00000360: c8ac 433c 82f2 88ba de2c db3b 51ef d0bb
00000370: 8df0 a93b e7e7 523b 88ed d63b cf22 a13b
00000380: e88f cc3b 4c1e fe38 e68c e1bb 2f58 aabb
00000390: fd5e 1dbc 9d6e 983b 2d4e 0abc fd32 6ebb
000003a0: ef92 01bb e2be 02bc a7f4 943b 56e6 1cbc
000003b0: c732 c03b 4e3d 33bc a0e2 30bb 2e75 cb3b
000003c0: e392 2d3c 3b13 debb 93d6 d6bb d409 b9ba
000003d0: 0fad eb38 3bff 003c f598 c83b 09d9 a7ba
000003e0: ceb6 e13b 675c e9bb 7948 863b b4f3 753a
000003f0: f62f ef39 9f1f 91bb 4181 083b d1bd b5bb
-0.00064473925 -0.009804778 0.013115864 0.002908774 -0.003542353 -0.003523251 0.0061291754 0.0008305811
-0.001802484 0.005286876 0.0029693197 0.0020406817 -0.005185439 0.0061859805 -0.0037306682 -0.00521743
0.003919677 0.003727029 0.000659185 -0.0054497942 0.003972303 -0.0016732358 -0.0013039 -0.00029941782
-0.010525098 0.0021841656 0.009711189 0.0033131808 -0.008662117 0.0045394525 -0.0006320686 0.005411177
-0.0069397837 -0.0041110306 0.0016637982 -0.008272596 -0.0016892155 -0.009494178 0.0061124475 -0.00032958764
0.0054876 0.0020927307 0.0041956087 -0.0070699346 -0.00031457076 -0.006858496 0.0039996775 0.0070459517
0.0044177384 0.006881776 0.0017147156 -0.0059753363 -0.0020106484 -0.006652189 -0.014255686 -0.0029914102
0.008653362 -0.011110346 0.0022247 7.654132e-05 -0.0064981296 0.007835306 0.008297027 -0.008010093
-0.006410532 0.0046933005 -0.0060856217 -0.0057745003 0.0040882244 0.0074549573 0.009828897 0.0010627155
-0.00033911198 0.003116921 0.007580205 -0.0065354067 -0.0071180807 -0.0055921394 -0.00023312731 0.0015375202
-0.00095809967 0.00179506 0.005428684 0.012280919 0.009228118 0.0013285594 -0.001014803 -0.0039425576
0.0036895701 -0.0030879215 0.00059142173 -0.005094185 0.0047140643 0.0077815033 0.008096213 0.0041776327
-0.007910917 -0.0011915078 -0.008667203 0.0064163613 0.005547644 -0.0015855335 -0.00918236 0.009131628
0.0042602196 0.009313334 0.0033272489 0.0046671308 -0.001989301 0.008580274 -0.010290435 0.0059729144
0.0031352218 -0.0059869103 -0.00648228 0.0008640089 -0.0031984884 0.0020929899 -0.009076701 0.0035674185
0.002425638 0.00464531 -0.0022206318 0.009369889 -0.008224281 0.0068489914 0.003300652 0.00518068
0.0041486747 0.007710229 0.006006568 -0.010366642 0.004750062 0.0065607806 0.005052622 -0.0015036314
0.002558299 0.006330844 -0.0051863934 0.0070639895 -0.008458231 -0.0018620013 -0.0011566005 -0.0065369764
-0.003336574 -0.0015062878 0.0035471015 -0.0016730106 -0.00360296 0.008278293 -0.0010730069 0.009120415
0.008873204 -0.0060506538 0.009854698 -0.007094299 0.005954486 0.004954336 -0.0011199025 -0.01212744
0.007797272 0.0071670506 -0.0016781981 -0.012834709 0.0015675814 -0.008536708 0.006089265 0.008666788
0.0041376855 0.005535402 0.007055706 0.007683952 0.0039912895 -0.010837871 -0.0012871352 0.0040794807
-0.008502775 0.00017804866 -0.0063527827 0.005090364 -0.009888626 -0.0016449272 -0.010374135 -0.003937817
0.0015828261 -0.00012342565 0.008114741 0.0065870723 0.0039520185 0.0039383275 -0.0013835633 -0.0032100363
0.0034623249 0.013019149 -0.0029538905 -0.008269436 -0.006996159 -0.010472812 0.01136471 0.0039854664
0.005557888 0.0063860533 0.00018482434 0.0029904384 -0.0017529331 -0.0070726248 0.0044560344 -0.0093006715
-0.007509528 0.006686789 0.01504643 9.3521834e-05 -0.007775007 0.008961861 0.0013089048 -0.010399012
0.01194305 -0.001044825 0.006688698 -0.006376185 0.0051861466 0.0032181682 0.0065590777 0.0049174796
0.006242741 0.00012117307 -0.0068832515 -0.0051985006 -0.0096051665 0.004651858 -0.00844149 -0.003634631
-0.0019771417 -0.00798008 0.0045457664 -0.009576401 0.005865428 -0.010939909 -0.0026990548 0.0062090373
0.010594103 -0.006777195 -0.006556341 -0.0014117309 0.00011237908 0.007873352 0.0061217495 -0.001280577
0.006888247 -0.007121611 0.004097995 0.0009382323 0.00045621366 -0.0044288184 0.0020828994 -0.0055463095

net_layers.2.linear_2.bias f4 [68]
00000000: aeb2 f0bd 0447 19bb ba09 55bd 4262 303d
00000010: 6d82 553c ae8a be3c 69d2 bfbd e8eb 45bd
00000020: 1c40 92bd f3c6 b13d e042 d4bd e1fb 8bbb
00000030: f161 da3c 3679 663c 40c1 e3bd d4f8 a23d
00000040: 5343 b53d 2866 f6bd a047 cf3d f7c8 c53d
00000050: 7010 4cbd f5b9 233c 827e d33d 1859 20bd
00000060: e9c5 8f3b 21d7 c23d 0288 d5bd 1e82 97bd
00000070: abd4 1a3d a60c 963d 082a f5bd 24ef 0ebd
00000080: 6434 d73d a7c5 93bd 8763 8ebc e0ff 80bd
00000090: 568e 55bd f6c6 963d 9e35 b63c 56ce dbbd
000000a0: e808 953c de05 69bc 835a 513d a7d7 ef3d
000000b0: 45ef adbd 9ff6 e3bd c0bf e9ba f6ab efbc
000000c0: 5456 b63c 683d edbd 4438 593d df93 853c
000000d0: 12d3 b03d 752a 9d3c fcee b73c b079 abbd
000000e0: 43bc f53b 541c 283d 7d98 75bd 1859 d43d
000000f0: da0d 7bbd 4384 ccbc ea52 533d d03f c1bd
00000100: 8298 f7bc e5e9 88bd 00e6 d4bb 30b9 863d
-0.117528304 -0.0023388276 -0.05201123 0.043062456 0.013031584 0.023259487 -0.093663044 -0.04832068
-0.07141134 0.08680525 -0.10364318 -0.0042719697 0.02665803 0.014066985 -0.11120844 0.079576164
0.08850732 -0.120312035 0.10121083 0.096574716 -0.049820364 0.009993066 0.10326864 -0.039147466
0.0043876064 0.09513689 -0.10426332 -0.07397865 0.037800472 0.07326631 -0.119709074 -0.03489603
0.105080396 -0.072154336 -0.017381443 -0.06298804 -0.052137695 0.073621675 0.022242364 -0.10732715
0.018192723 -0.01422259 0.05111171 0.11711054 -0.08492903 -0.111310236 -0.0017833635 -0.029256802
0.022257961 -0.11583978 0.053032175 0.016305862 0.086340085 0.019185284 0.022452824 -0.083728194
0.007499249 0.04104264 -0.059959877 0.10368556 -0.061292507 -0.024965411 0.051592745 -0.094359994
-0.030224089 -0.06685237 -0.0064971447 0.065782905

net_layers.3.linear_1.weight f4 [68, 68]
00000000: 86bd 8ebb 6dc1 583c c72d b8bb a179 113c
00000010: fb25 ee3b 4af8 b5bb c893 3dbc 893c c13b
00000020: fb36 f4bb 9d2b af3b c424 e0bb 654f e93b
00000030: f310 85bb dbf4 40bc 2d50 2c3c 4f96 17bb
00000040: b48b 883b 58a0 85ba 8803 fb39 2d8c 5abb
00000050: 53e0 383c 819a ea3a ca97 863a 6fc5 35bc
00000060: 26b3 303c 9da4 c3ba 8652 2bbb 5a66 713b
00000070: f368 3e3b 92b4 153c 4bac 883b 20ed 84bc
00000080: 35f6 7abc bf48 cbba 2d70 273c 3f81 893b
00000090: 200f 963b bc9c 973b 6d9a 84bb ec34 d1b9
000000a0: 962a 56ba d2cd c93b b650 cabb b79f ef3b
000000b0: b4a7 1ebb d679 413c 6675 cbba bc79 00bb
000000c0: 12ff a8bb 6d90 613a 9bc4 eb3b 05b6 0d3c
000000d0: 342f ebbb bd22 76bb 7365 7e3c 7a61 5cbc
000000e0: 66b5 d5bb 9e2d d53b 0522 0d3c f22e 24ba
000000f0: 10c5 dabb c847 80b9 c282 bc3b f15a 303c
00000100: 84c3 09bc d7e2 44bc b497 de3a ac07 093c
00000110: 6e82 db3b 332d 393a 71dd 22bc f5c3 173c
00000120: 716f ccbb 66ee a0bb 05fa d9bb a58e a9bb
00000130: 2d3c 4ebb 6289 49bc efc7 e93b 175d 143c
00000140: 4480 8fbb 0749 31bc 6d3f 2d3b ba2a 7f3b
00000150: a9e9 8c39 bc16 4f3b f76f 9b3b 44e4 67bc
00000160: 7246 94ba ebf4 7a3a 81ef 563b 132a aebb
00000170: 2cc2 4b3b 57b4 e5bb fe68 d9bb 5d17 c8bb
00000180: e0cc 653a 55f5 85ba 6065 2d3c 648e 523c
00000190: bf01 5abc 8716 a73b 3f72 e73b 6808 05bc
000001a0: 8147 fd3b 3285 fd39 bc26 e63a e6ee 24bc
000001b0: 484e 5ebb 5905 713a 351a 14bc 9a51 05ba
000001c0: 01eb c93a 414b 2d3b e83c 7a3b 8ccb 69bc
000001d0: 8f9a 08bc d34a 4f3c ab8d adba 37b2 893b
000001e0: ce65 c9bb bd31 c53b c10d bf3b b48d 25bb
000001f0: fc8f e63b d77a 17bc b577 8ebc 9c43 663b
00000200: 720b 323c 5e87 95bb 92a3 f6bb 6fb5 d7bb
00000210: 77fe 03bb 57dc 25b9 5225 633b 4b0d c03b
00000220: d2ee 843a ebf6 893b 953b f23b a0e9 953b
00000230: ec30 9b3b 4009 3fbc 03ef b4bb 0773 d53a
00000240: c70b d039 7c9c 063c 971e 173c 5c4d 1cbb
00000250: b351 43bc 8dc3 813b 58ec 4c3b 8b82 303b
00000260: 72fa 5abb e877 933a 7738 2fbb 630d e6bb
00000270: d632 2dbc 88ba 1b3b 1663 0b3c 7251 f53b
00000280: ef5f e43a 484e 4c3b ecfd 16bc 5949 373b
00000290: ab1c 043c 7bc1 abb9 3e4d 24bb a11b 373c
000002a0: 89fd e13b 09fd a3bb 6dff 06bc 0c02 f9b9
000002b0: 593b 8eba e72b a43a 4a8c f1ba 5bad e739
000002c0: 50d6 34bc d993 c4bb 0da1 88bb a46c 503a
000002d0: 5c46 f2bb 5324 383b 47ac 9bba 092f 1d3c
000002e0: 99c8 803c fb06 b7ba 7a89 073c 612f 2dba
000002f0: b6b5 cebb f9d4 42bb d4ba a63b d37e f73b
00000300: 6dca 283c fc95 533c e53b 1ebb 8b0c 8e3a
00000310: 0bab a43b dfe7 e93b b0b6 2abc 128d 7e3a
00000320: bc50 ebba e507 ccbb 589e d73b 608e 50bc
00000330: f8ba d03b 18de a7bb cd37 b6ba 2151 83bb
00000340: 6e5a 4fbb 94a2 823b 143d 663b 6019 c33b
00000350: d96d d0bb cb20 0b3c a7cc 9d3b d027 0bbc
00000360: cc54 3339 2e92 db38 93a0 c93b bc4a 473b
00000370: 37b7 7d3b b3e8 d63b c00d 113b 3585 d0bb
00000380: 6bb9 9a3b c3eb 343c 6727 a9bb 2386 193c
00000390: bb6c 633b 3db2 adbb 3ae0 c03b d9b2 4e3b
000003a0: 1808 4c3c 03e2 48bb 3543 5fb9 16c0 19bc
000003b0: 49b0 04bc 0fdf 973b bf50 4f3c edbf dcbb
000003c0: d92a fabb e64e 713b c7a6 ab3b 3b99 6abb
000003d0: c375 0dbc 0372 ba3b 5f41 ea3a 5d8a 11bb
000003e0: e110 953b fecd 0abb 1985 03bb 2967 513a
000003f0: ce61 21bb 2185 32bc 9325 673b a05f 063b
-0.004356089 0.01322971 -0.0056206915 0.008879096 0.007267711 -0.00555328 -0.011570878 0.005897109
-0.0074528432 0.0053457753 -0.0068403203 0.0071200603 -0.0040608584 -0.011777128 0.010517162 -0.0023130362
0.0041670445 -0.0010194881 0.00047877082 -0.0033347711 0.011283952 0.0017898829 0.0010268625 -0.011094435
0.0107849 -0.0014926378 -0.0026141717 0.0036834688 0.0029054254 0.00913729 0.0041709295 -0.016226351
-0.015317489 -0.0015509351 0.010219616 0.0041963155 0.0045794398 0.0046268385 -0.0040467293 -0.00039903016
-0.0008169798 0.006158569 -0.0061741723 0.0073127407 -0.0024208846 0.011808833 -0.0015522658 -0.001960381
-0.00515736 0.000860459 0.007195068 0.008649354 -0.007177258 -0.0037557327 0.015527117 -0.013450975
-0.0065218685 0.006505682 0.008614068 -0.0006263099 -0.0066763237 -0.00024467544 0.0057528922 0.01076387
-0.008408431 -0.012016973 0.0016982467 0.0083636455 0.006698898 0.0007063925 -0.009940491 0.009263028
-0.006238871 -0.004911232 -0.006652119 -0.0051744753 -0.0031468973 -0.012300821 0.0071344296 0.0090553975
-0.004379304 -0.010820634 0.002643551 0.003893538 0.0002687697 0.0031599244 0.004743572 -0.014153544
-0.0011312498 0.0009573239 0.0032796564 -0.005315074 0.0031091077 -0.0070100236 -0.0066348305 -0.0061063007
0.00087661855 -0.0010220209 0.010583252 0.012851331 -0.01330608 0.005099121 0.0070631797 -0.00811968
0.007729471 0.0004835516 0.0017559151 -0.010066723 -0.003392117 0.0009194217 -0.009039451 -0.0005085707
0.001540512 0.002644256 0.0038183276 -0.014269721 -0.008337631 0.012652117 -0.0013241073 0.004202153
-0.0061461693 0.006017892 0.005830497 -0.0025261464 0.0070362072 -0.009245596 -0.017391065 0.0035135513
0.010866987 -0.004563256 -0.0075268233 -0.006582908 -0.0020140687 -0.00015817709 0.0034659696 0.0058609596
0.0010141975 0.004210343 0.0073923566 0.0045749694 0.0047360566 -0.01165992 -0.0055216565 0.0016284891
0.00039681626 0.00821602 0.009223602 -0.002384982 -0.011921334 0.003960079 0.0031268802 0.0026933278
-0.0033413437 0.0011250945 -0.0026736537 -0.007020639 -0.010571202 0.0023762304 0.008507511 0.0074865157
0.001742361 0.003117459 -0.009215813 0.0027967303 0.008063476 -0.00032759816 -0.0025070454 0.011176021
0.006896679 -0.0050045294 -0.008239609 -0.00047494506 -0.0010851427 0.0012525291 -0.001842865 0.00044188913
-0.011037424 -0.00599907 -0.0041695894 0.0007950759 -0.0073936414 0.0028097823 -0.0011876904 0.009593734
0.015720652 -0.0013963872 0.008272523 -0.0006606486 -0.0063082827 -0.0029728992 0.0050881896 0.0075529604
0.010302168 0.012914177 -0.0024144587 0.0010837478 0.0050252727 0.007138237 -0.010419533 0.0009710352
-0.0017953138 -0.006226527 0.0065801553 -0.012729257 0.0063699447 -0.005122911 -0.0013902128 -0.004007474
-0.0031639594 0.003986666 0.003513162 0.0059539527 -0.006360751 0.008491705 0.004815656 -0.008493379
0.0001710236 0.00010469962 0.006153175 0.0030409535 0.003871394 0.0065585016 0.002213344 -0.0063635358
0.0047218106 0.011042538 -0.005162168 0.00937036 0.003470226 -0.0053007887 0.005886105 0.0031539707
0.012453102 -0.0030652292 -0.00021291974 -0.009384176 -0.00809867 0.004634745 0.012653529 -0.0067367465
-0.0076345024 0.0036820709 0.0052383873 -0.00357969 -0.008634034 0.005689861 0.0017872265 -0.0022207715
0.0045491313 -0.002117991 -0.0020068346 0.00079880893 -0.0024624947 -0.010895998 0.0035270199 0.0020503774

net_layers.3.linear_1.bias f4 [68]
00000000: 8415 313c 4151 013d cc67 b13c 9a19 a8bd
00000010: 1204 b8bb a4d8 84bd 3319 39bd e79b 8a3d
00000020: 15ca e2bd 2cd9 c0bd e815 f7bc 69d7 2f3c
00000030: 0238 c33d 4825 8dbd c103 da3d 9d82 ed3c
00000040: dde1 ebbd 212b 853c 263b db3c 3eda 0dbd
00000050: 1976 adbd 4ffc cd3d 7f96 a3bd 4ed9 e33c
00000060: d372 183d 123f 6b3d 34f5 afbd 5813 f0bc
00000070: 9fae 2ebd 5102 9b3d b9a6 103d 9513 9cbd
00000080: e5d0 90bc c486 723d 30e8 c2bd 583c a43d
00000090: 4a89 7d3d f2d1 cfbd cb28 3bbd 7410 74bd
000000a0: f9ce abbd d061 b23d e774 a33d a7d0 9f3c
000000b0: 1a4b 55bd ff81 acbd 06ea f8bc 51c3 dabd
000000c0: 94f6 b9bd e159 efbd a3ad 06bd 59f0 8fbd
000000d0: 28f5 e33d 219c 733d e7b1 a6bd bd7e abbd
000000e0: 0238 afbd d989 c33d 5aa0 d0bd 63b6 d2bc
000000f0: 05ef ae3d 8d55 733d 3406 f23c d6ed 9bbd
00000100: ff18 bf3d b01b 543d 232f fcbc 22e1 143d
0.010808352 0.03157163 0.02165594 -0.08208008 -0.0056157196 -0.064866334 -0.045190047 0.06768017
-0.110737 -0.09416422 -0.030161813 0.01073251 0.09532167 -0.068918765 0.10645247 0.028992945
-0.115176894 0.016255917 0.026761603 -0.03463196 -0.08469791 0.1005789 -0.07987689 0.02781358
0.03721888 0.057433195 -0.08591691 -0.029306099 -0.042647 0.07568801 0.03531525 -0.076209225
-0.017677734 0.059210554 -0.095169425 0.08019322 0.061898507 -0.10147466 -0.0456932 -0.059586003
-0.08389086 0.087100625 0.07981282 0.019508673 -0.052073576 -0.08423232 -0.030385029 -0.10681785
-0.09080234 -0.11687065 -0.032880437 -0.070282646 0.11130744 0.059475068 -0.08139401 -0.08373783
-0.085556045 0.09547777 -0.10186835 -0.025721734 0.08541683 0.05940776 0.029543974 -0.07613723
0.093309395 0.051784217 -0.030784195 0.036347516
