thenet.pth (torch, 273251 bytes, 31 tensors)

net_layers.0.linear.weight f4 [68, 3]
-0.145576 0.12883341 -0.04372406 0.19112436 -0.2413567 -0.26769936 0.24509685 0.24924096
0.3248622 0.31533808 -0.14094023 -0.01076142 0.25797313 0.07795497 -0.26795995 -0.03572043
-0.02135249 0.2562369 -0.016255101 -0.12539876 -0.24339709 0.16362461 0.014837107 -0.12700701
0.24214284 0.092512056 -0.07242982 -0.19394183 0.32931185 0.31009358 0.3137452 0.23332255
0.109769985 -0.080996916 -0.22166407 -0.026257873 -0.05828508 0.026081085 0.2780497 0.17935793
0.31472433 0.12806086 0.26213726 0.027350744 0.21548593 -0.22706401 -0.29255068 0.29075465
0.20932925 -0.24460182 0.108819805 -0.31513605 0.2912578 0.2334497 0.11394378 -0.11169609
0.14120337 0.12970936 -0.29799914 0.22699861 -0.026936054 0.27299556 0.2906075 -0.007780393
0.06336125 -0.20071027 0.18496494 -0.25786692 0.200214 0.0765483 -0.22044897 0.17024803
-0.108458444 -0.113858745 -0.109680414 -0.24607007 -0.10159441 0.11300071 -0.04165443 -0.0342956
0.20105061 0.1756442 -0.15809982 0.19506285 0.09109239 -0.06047841 -0.2385767 -0.05757928
-0.032753628 0.2579356 -0.08531877 0.052564543 -0.17007141 -0.1872195 0.23105896 0.23189175
-0.20438299 -0.015751164 0.07091471 -0.051496666 -0.026750129 -0.08973734 0.0152539415 0.25427836
-0.25439203 -0.13633797 0.05484935 -0.16494617 -0.30872184 -0.21678934 0.31016695 1.7722448e-05
0.11361861 -0.14894693 -0.28942013 -0.24806798 0.086128995 0.23356411 0.026187062 -0.3096877
0.2750238 0.15991923 0.3067643 -0.30545935 0.060259104 -0.2619552 0.07404566 -0.1000061
0.17947654 -0.055569172 -0.18453646 -0.05456519 -0.22887802 0.1339297 -0.23871097 -0.07669421
0.06928913 -0.1501598 0.24177086 -0.32000607 0.16339712 0.29591712 0.04754913 -0.19712111
-0.30011588 -0.09410934 0.23353374 0.33100137 -0.06503968 0.05761246 0.060811244 -0.19073316
0.23758635 0.08850984 -0.12661898 -0.16592813 0.079606734 0.3253077 -0.11839633 0.11999893
0.24705386 -0.05501902 -0.053105872 -0.26236224 -0.07196772 0.09843811 0.096370265 0.09636979
0.31158817 -0.002329906 0.3028381 -0.0046366453 -0.07817066 -0.24710652 -0.10863944 0.08908355
-0.33205867 0.20919701 -0.11410439 -0.14441621 -0.07632526 0.060111683 0.091153026 0.119627915
0.07058203 0.118673205 0.13726673 0.06484775 0.17387299 -0.11785551 0.13599908 0.14632499
-0.28248832 -0.28854153 -0.21497357 -0.25937635 -0.042792123 0.31262463 -0.1823262 -0.22078013
0.13162875 -0.08916037 0.31291497 0.056687158
00000000: e011 15be e8ec 033e 0018 33bd 1bb6 433e
00000010: 3626 77be e40f 89be abfa 7a3e 0639 7f3e
00000020: 5754 a63e fe73 a13e a352 10be ab50 30bc
00000030: 0e15 843e dba6 9f3d 0c32 89be 964f 12bd
00000040: 6beb aebc 7c31 833e 6b29 85bc 8868 00be
00000050: 163d 79be 368d 273e 5617 733c 200e 02be
00000060: 4bf4 773e f676 bd3d 1656 94bd b098 46be
00000070: 909b a83e 96c4 9e3e 36a3 a03e 1bec 6e3e
00000080: 16cf e03d b6e1 a5bd e8fb 62be c01a d7bc
00000090: 56bc 6ebd 00a8 d53c 885c 8e3e 9ba9 373e
000000a0: 8c23 a13e 6322 033e db36 863e ab0e e03c
000000b0: 58a8 5c3e 7883 68be 34c9 95be cbdd 943e
000000c0: 685a 563e e678 7abe ebdc de3d 8359 a1be
000000d0: be1f 953e 700d 6f3e 5b5b e93d ebc0 e4bd
000000e0: 9e97 103e 88d2 043e 5893 98be 5372 683e
000000f0: 00a9 dcbc 13c6 8b3e 82ca 943e abf2 febb
00000100: 8bc3 813d fe86 4dbe 7367 3d3e 2207 84be
00000110: e604 4d3e 5bc5 9c3d 60bd 61be 8055 2e3e
00000120: 761f debd c62e e9bd 20a0 e0bd cbf9 7bbe
00000130: bb10 d0bd eb6c e73d d69d 2abd 8b79 0cbd
00000140: 36e0 4d3e 13dc 333e ebe4 21be 8ebe 473e
00000150: a68e ba3d 36b8 77bd 734d 74be 40d8 6bbd
00000160: ab28 06bd 2310 843e 9bbb aebd eb4d 573d
00000170: 3327 2ebe 78b6 3fbe b89a 6c3e 0875 6d3e
00000180: c649 51be 9608 81bc bb3b 913d 2bee 52bd
00000190: 1623 dbbc 36c8 b7bd abeb 793c c630 823e
000001a0: ac3f 82be 2e9c 0bbe b6a9 603d a6e7 28be
000001b0: ca10 9ebe 06fe 5dbe 34ce 9e3e abaa 9437
000001c0: e0b0 e83d 8b85 18be e02e 94be 8805 7ebe
000001d0: 6664 b03d 6e2b 6f3e 4086 d63c 638f 9ebe
000001e0: ebcf 8c3e dec1 233e 3610 9d3e 2b65 9cbe
000001f0: 40d2 763d fe1e 86be 40a5 973d 00d0 ccbd
00000200: b3c8 373e 809c 63bd 20f7 3cbe c07f 5fbd
00000210: 005f 6abe de24 093e a670 74be db11 9dbd
00000220: 76e7 8d3d 7ec3 19be c892 773e d6d7 a3be
00000230: 9351 273e 7382 973e e0c2 423d 1eda 49be
00000240: caa8 99be 66bc c0bd 7823 6f3e 0379 a93e
00000250: 8633 85bd 0bfb 6b3d 3615 793d 8e4f 43be
00000260: d649 733e a644 b53d 68a8 01be 10e9 29be
00000270: db08 a33d bb8e a63e c679 f2bd 00c2 f53d
00000280: b0fb 7c3e a05b 61bd 8b85 59bd 5854 86be
00000290: d063 93bd eb99 c93d c65d c53d 865d c53d
000002a0: 7c88 9f3e 56b1 18bb 980d 9b3e 00ef 97bb
000002b0: f017 a0bd 7e09 7dbe 5b7e debd 7071 b63d
000002c0: 9803 aabe be37 563e 90af e9bd d8e1 13be
000002d0: 6b50 9cbd ab37 763d 70ae ba3d 7bff f43d
000002e0: 508d 903d f00a f33d a68f 0c3e e6ce 843d
000002f0: c30b 323e 3b5e f1bd 5843 0b3e 38d6 153e
00000300: 4fa2 90be b7bb 93be 0822 5cbe facc 84be
00000310: cb46 2fbd 5610 a03e b8b3 3abe 3014 62be
00000320: b0c9 063e b699 b6bd 6436 a03e cb30 683d

net_layers.0.linear.bias f4 [68]
0.31161955 0.11438229 -0.24375065 0.5294926 0.4720572 0.093477435 0.56461406 -0.35697323
0.42475715 -0.42267263 0.5083516 0.19225396 -0.08271134 0.39603955 0.21922426 -0.06390539
0.5298669 0.13818614 0.53320736 0.34116244 -0.44262114 -0.5746163 -0.40331808 -0.32423508
0.28475738 -0.15632428 0.3020338 -0.48287645 0.46871525 0.18575662 0.09308596 -0.31592336
-0.3913255 -0.25946584 0.041416164 -0.38873428 0.3626121 -0.4729838 -0.27835363 -0.3726209
0.5087777 -0.15912108 -0.54039663 -0.5544797 0.37352467 0.053311486 0.16446799 0.55933875
0.46882212 0.43899316 0.25107443 -0.51786596 -0.50766903 -0.5069953 0.13560353 0.31879544
-0.2317181 0.3817246 -0.54004323 -0.36114255 0.06317501 -0.27815777 -0.4983881 -0.465747
0.23975402 0.17580356 0.058940724 0.16164401
00000000: 998c 9f3e 4341 ea3d c599 79be d48c 073f
00000010: 7bb1 f13e 1971 bf3d 8c8a 103f 32c5 b6be
00000020: c579 d93e 8c68 d8be 5523 023f 39de 443e
00000030: 9064 a9bd b2c5 ca3e 537c 603e d4e0 82bd
00000040: 5ba5 073f ab80 0d3e 4780 083f d8ac ae3e
00000050: 3d9f e2be 0e1a 13bf b57f cebe 2402 a6be
00000060: b8cb 913e 7913 20be 2da4 9a3e 953b f7be
00000070: 72fb ef3e fc36 3e3e daa3 be3d b5c0 a1be
00000080: d15b c8be b5d8 84be ffa3 293d 2e08 c7be
00000090: 4ba8 b93e ef2a f2be 5e84 8ebe 2bc8 bebe
000000a0: 413f 023f a3f0 22be 6f57 0abf 62f2 0dbf
000000b0: a03e bf3e 255d 5a3d 4c6a 283e d330 0f3f
000000c0: 7409 f03e b6c3 e03e d48c 803e dd92 04bf
000000d0: 99f6 01bf 72ca 01bf a7db 0a3e 2839 a33e
000000e0: 8247 6dbe 6871 c33e 4640 0abf ade7 b8be
000000f0: e661 813d b26a 8ebe ba2c ffbe 6476 eebe
00000100: 1482 753e d905 343e d46b 713d 0286 253e

net_layers.1.linear_1.weight f4 [68, 68]
0.0008728271 -0.008486958 -0.004577626 0.0070797713 0.008572973 -0.0044411803 0.0018844808 -0.007337076
-0.007513386 -0.009248098 -0.0038272543 0.00106249 0.00038748223 0.009210042 0.0005320111 0.004575047
0.0024602273 -0.008966681 -0.001298385 -0.000692045 -0.009849762 0.0054068887 -0.007090857 0.0050527374
0.0027740297 -0.0006732374 0.001574381 0.0069006616 -0.0054872553 -0.0022998569 0.0065340516 -0.006675537
-0.0070789354 0.0069404757 0.007195038 -0.0076050414 -0.0010916884 -0.0033748823 0.006876645 -0.009716703
0.007910515 0.008036217 0.006406954 -0.00435631 -0.0014917342 0.0045956806 0.0003399024 -0.0062750652
0.008850117 0.0029050899 0.009258256 -0.008491028 0.0053335363 0.00441754 -0.008813961 -0.0021451276
-0.0018649223 -0.0052429293 -0.0019895483 0.0038580731 -0.0038926702 -0.0032258292 0.0025054947 0.008020166
0.0052032033 -0.005958777 -0.008457468 0.0058651036 0.00072207424 0.009324511 0.0016401323 0.000245798
-0.009339651 0.0051671555 0.0055836425 -0.0004481403 0.0019800619 -0.004062102 -0.0038429045 -0.00980065
-0.0024399124 -0.009327924 0.0059804814 -0.0010369545 0.0031680607 -0.009410944 -0.003309674 0.0072186613
-0.0031921717 -0.0006768846 -0.0008341341 -0.0064154053 0.0072563617 -0.00825063 -0.0055551133 -0.0041322643
-0.003711684 -0.005967363 0.003978066 -0.0063825585 -0.008380669 0.001392958 -0.009672928 0.0031282334
-0.00060539215 0.008036501 -0.008120959 0.0029433165 0.00039056293 0.0065522026 0.002663122 -0.0025356468
-0.0014748316 -2.7978966e-05 -0.005330033 0.0039879857 -0.005983025 0.0047703404 0.006391092 -0.0059248786
0.0036191647 -0.0034722588 0.0030987684 -7.712393e-05 0.00926223 0.0032988738 0.003305348 -0.006429271
0.0025438278 0.0054107946 0.009084217 0.0058525777 -0.00030284774 0.0024716354 -0.007012707 0.0056556636
-0.0030378695 0.009794688 -0.003845134 -0.005690766 0.002214263 -0.0033420157 -0.0015549819 -0.0024977021
0.0072297095 -0.004283245 0.00093868934 -0.0069478718 -0.0019844184 -0.009890763 0.0032567072 -0.0025726766
0.00063492445 0.009113502 -0.0041423184 -0.00434105 -0.0010258686 -0.001194407 -0.0020839465 0.007094626
0.006593946 0.009410202 0.006643703 -0.003118637 -0.004488484 0.002368493 0.001688091 -0.008540373
0.007578998 -0.008012441 -0.0011127422 -0.0061165118 0.009784816 -0.008598654 -0.003045805 -0.0036685823
0.009884443 0.002313157 -0.007236945 -0.0050399126 0.0029404578 -0.0086891 0.0042831115 0.0066390517
0.0012183385 0.000851235 0.007876846 -0.0004339242 -0.0013130401 0.0035505088 0.0044189687 0.0014235514
-0.008008892 -0.001112256 0.0059518684 -0.009336893 0.0019980078 0.008073481 -0.007042544 0.0089026885
0.008644446 -0.0022058175 -0.0012635943 0.008843937 -0.0066152867 0.0029566367 0.0010810263 -0.00870454
0.00064842525 0.0018938291 0.0033887515 0.0016327397 -0.0038763448 5.74971e-05 -0.00752715 0.0068589705
-0.002033384 0.0028066204 0.008611523 0.005712979 -0.0046756775 -0.0050716936 -0.009089368 0.002425557
0.006799363 -0.0073540877 0.007942103 -0.0077514243 0.007702649 -0.0017871127 -0.006496121 0.0070638563
0.007498804 0.009806208 -0.004447632 -0.0069798264 0.007229745 0.0062993322 0.005256987 -0.008645372
0.0059235226 0.009218448 -0.0017018561 -0.0019601919 0.007011892 0.006125983 0.007933933 -0.0059923814
0.003924979 -0.0055707837 -0.0008831752 -0.0016830686 -0.0006844802 0.0012528991 0.0064175474 -0.0053901374
00000000: 6fce 643a e20c 0bbc e9ff 95bb 6dfd e73b
00000010: a875 0c3c 5287 91bb af00 f73a db6b f0bb
00000020: da32 f6bb 5685 17bc acd2 7abb 4043 8b3a
00000030: fc26 cb39 b7e5 163c a976 0b3a 47ea 953b
00000040: c43b 213b fce8 12bc 922e aaba 5b6a 35ba
00000050: e560 21bc 452c b13b 6b5a e8bb 6f91 a53b
00000060: 7fcc 353b 327c 30ba 765b ce3a f21e e23b
00000070: 6fce b3bb 32b9 16bb 991b d63b 77be dabb
00000080: 6af6 e7bb ee6c e33b 5ac4 eb3b b633 f9bb
00000090: fc16 8fba 212d 5dbb 7b55 e13b ce32 1fbc
000000a0: 1b9b 013c 56aa 033c 6df1 d13b 60bf 8ebb
000000b0: 4b86 c3ba 5d97 963b ee34 b239 109f cdbb
000000c0: 1500 113c 5263 3e3b f1af 173c f41d 0bbc
000000d0: f2c4 ae3b 03c1 903b 6f68 10bc 4595 0cbb
000000e0: 6970 f4ba e1cc abbb 1563 02bb bad7 7c3b
000000f0: 2b1c 7fbb 6f68 53bb 3a33 243b 0467 033c
00000100: a27f aa3b d841 c3bb 3191 0abc 0e30 c03b
00000110: 9549 3d3a d5c5 183c b5f9 d63a 73de 8039
00000120: 5605 19bc 3e51 a93b fdf6 b63b 5ff4 eab9
00000130: edc3 013b 621b 85bb 3dd9 7bbb e892 20bc
00000140: f0e6 1fbb 26d4 18bc eaf7 c33b 6bea 87ba
00000150: 3d9f 4f3b 5c30 1abc 1ee7 58bb 858a ec3b
00000160: c133 51bb f570 31ba cba9 5aba 5238 d2bb
00000170: c6c6 ed3b a72d 07bc ab07 b6bb f267 87bb
00000180: b93f 73bb de89 c3bb 705a 823b c824 d1bb
00000190: 134f 09bc ea93 b63a 337b 1ebc 0c03 4d3b
000001a0: 2eb3 1eba 87ab 033c c50d 05bc a8e4 403b
000001b0: 78c4 cc39 dcb3 d63b c687 2e3b 182d 26bb
000001c0: 234f c1ba 5fb4 eab7 8fa7 aebb a6ad 823b
000001d0: 400d c4bb 8450 9c3b 5e6c d13b 7c25 c2bb
000001e0: 822f 6d3b d68e 63bb b514 4b3b 98bd a1b8
000001f0: 9cc0 173c eb31 583b 8a9e 583b a2ac d2bb
00000200: 59b6 263b 094d b13b f8d5 143c fbc6 bf3b
00000210: 89c7 9eb9 29fb 213b daca e5bb 2553 b93b
00000220: fe16 47bb e679 203c a5fe 7bbb 9b79 babb
00000230: 2b1d 113b b805 5bbb 89d0 cbba 7db0 23bb
00000240: 33e7 ec3b 775a 8cbb 6012 763a f9aa e3bb
00000250: 040d 02bb de0c 22bc 7b6e 553b 5a9a 28bb
00000260: 0f71 263a cc50 153c 49bc 87bb 5e3f 8ebb
00000270: 7076 86ba a68d 9cba d292 08bb 097a e83b
00000280: 0712 d83b 3f2d 1a3c 6cb3 d93b 0c62 4cbb
00000290: 2214 93bb b838 1b3b ef42 dd3a ecec 0bbc
000002a0: 3e59 f83b 9d46 03bc 6fd9 91ba 056d c8bb
000002b0: 7e50 203c 5ee1 0cbc 219c 47bb 996c 70bb
000002c0: 5cf2 213c 5698 173b e523 edbb da25 a5bb
000002d0: b2b4 403b ba5c 0ebc 5859 8c3b 678c d93b
000002e0: a8b0 9f3a 6a25 5f3a e30d 013c 5280 e3b9
000002f0: 511a acba a7af 683b ffcc 903b 7596 ba3a
00000300: ba37 03bc 1ec9 91ba e407 c33b c5f9 18bc
00000310: 02f1 023b a246 043c 24c5 e6bb 95dc 113c
00000320: 6fa1 0d3c 7a8f 10bb 309f a5ba 29e6 103c
00000330: 0cc5 d8bb 22c4 413b 39b1 8d3a 7d9d 0ebc
00000340: 15fb 293a 5c3a f83a d115 5e3b a701 d63a
00000350: 460a 7ebb 0b29 7138 50a6 f6bb 37c1 e03b
00000360: 8642 05bb 47ef 373b 5817 0d3c f133 bb3b
00000370: 6d36 99bb 7330 a6bb 93eb 14bc 18f6 1e3b
00000380: 31cd de3b 8ffa f0bb 981f 023c a9ff fdbb
00000390: 8166 fc3b 8d3d eaba 6add d4bb ec77 e73b
000003a0: 87b8 f53b 38aa 203c 71bd 91bb 07b7 e4bb
000003b0: 7fe7 ec3b a16a ce3b ce42 ac3b 52a5 0dbc
000003c0: 1c1a c23b f908 173c d110 dfba 9076 00bb
000003d0: 03c4 e53b 78bc c83b 54fd 013c bd5b c4bb
000003e0: 1c9d 803b 1f8b b6bb e284 67ba 699a dcba
000003f0: b06e 33ba 5138 a43a 4a4a d23b c09f b0bb

net_layers.1.linear_1.bias f4 [68]
0.054603003 -0.09329625 0.10061483 -0.087277874 -0.008468962 0.07550646 -0.022234173 0.050768267
-0.05680096 -0.0117700035 0.09470441 -0.111431085 -0.044514827 0.053848952 -0.06355553 -0.04265685
0.111577556 -0.074646 0.06340173 0.04170359 0.08229681 0.025024433 -0.013286016 -0.0865218
-0.055792753 -0.06699211 0.0965981 0.011122118 -0.061753064 0.010707802 0.01995775 0.04831637
-0.016576823 0.09004652 -0.11740636 -0.051437013 -0.0264615 -0.0031240678 -0.053385295 -0.04503908
-0.042644344 -0.051041983 -0.08634152 0.072324574 -0.085494936 -0.014259095 0.08463343 -0.07844414
0.04950609 0.076227345 0.10673824 0.034675844 -0.10519015 -0.03267909 -0.05661926 0.11954289
0.011078764 -0.09770317 0.100027144 0.11449723 -0.080626525 0.1205048 0.09098862 -0.080316104
-0.058949202 -0.085703425 0.0013776517 0.09130237
00000000: 66a7 5f3d 1b12 bfbd 260f ce3d bebe b2bd
00000010: 67c1 0abc 22a3 9a3d 7124 b6bc 63f2 4f3d
00000020: 20a8 68bd f9d6 40bc 63f4 c13d fb35 e4bd
00000030: 2e55 36bd b890 5c3d 6729 82bd f3b8 2ebd
00000040: c682 e43d 01e0 98bd c4d8 813d 62d1 2a3d
00000050: 3b8b a83d 0a00 cd3c 97ad 59bc 5732 b1bd
00000060: f186 64bd 2933 89bd 3ad5 c53d 8b39 363c
00000070: c8f0 7cbd c76f 2f3c 6f7e a33c 63e7 453d
00000080: 1ecc 87bc 4f6a b83d bf72 f0bd 9eaf 52bd
00000090: cac5 d8bc 29bd 4cbb 8aaa 5abd e67a 38bd
000000a0: d6ab 2ebd 6611 51bd d3d3 b0bd e81e 943d
000000b0: f817 afbd fb9e 69bc 4b54 ad3d 52a7 a0bd
000000c0: e6c6 4a3d 151d 9c3d 9499 da3d 4208 0e3d
000000d0: ef6d d7bd 82da 05bd 99e9 67bd e7d2 f43d
000000e0: b483 353c 9918 c8bd 08db cc3d 867d ea3d
000000f0: 851f a5bd 38cb f63d 3e58 ba3d c57c a4bd
00000100: b874 71bd 4785 afbd 5292 b43a bdfc ba3d

net_layers.1.linear_2.weight f4 [68, 68]
-0.0054932195 -0.005708096 -0.0024938907 -0.0022291883 0.0030838663 0.0006443165 -0.0014372482 -0.007821626
-0.0076992745 -0.008240348 0.009461193 0.0062594283 0.00930123 0.0012407934 -0.006458127 -0.0068914797
-0.0007476453 -0.009700116 -0.00702821 -0.0023065826 0.0004725074 0.007936863 -0.006855656 0.0042721084
-0.0037380978 -0.00976233 -0.003995757 -0.009806323 0.0015725266 0.0052820896 0.0013074146 -0.0019332386
0.0043905065 -0.0035194678 -0.0022553413 -0.0018821129 -0.009127344 -0.0041277944 -0.007108167 -0.0044628642
-0.0007338553 0.0044547804 -0.003959268 -0.0048235045 -0.0002285295 0.006075707 0.0007023046 0.0092523
0.0070537883 -0.008269861 0.0020828228 0.00096483284 -0.0042403997 0.002391157 0.007851367 -0.0034220503
0.007466904 0.0057269377 -0.005848364 0.003422331 0.009312195 -0.00073146744 0.009647299 0.00957003
0.002969957 0.0018054966 -0.0070948927 -0.008001265 0.008564922 -0.005274403 -0.002017834 0.0066713025
0.00028691068 0.008046109 0.0005249892 0.0060801674 -0.0007910148 0.0013737855 0.009085098 0.00025183902
0.007135335 -0.0019619835 0.004156539 -0.004132235 -0.0009815572 0.007919437 -0.0056478535 0.0051291143
-0.009223039 0.00028631106 -0.007935986 -0.0020011724 0.003206541 -0.0070716953 -0.00556396 -0.0020440025
0.0072588087 -0.005760778 0.008620077 -0.0044715055 0.0044478774 0.0061558774 -0.009261051 0.008507472
0.006877259 -0.008164667 0.0044403314 -0.009631245 0.0069101257 -0.0044418518 0.0072408826 -0.007150161
0.008217239 -0.00899491 -0.0015995507 0.007614268 -0.0030756572 0.0067869527 0.007151634 -0.00065806985
0.0016785597 0.008727897 -0.005325609 -0.00059540285 -0.0011276677 -0.0030920203 -0.0034034338 -0.00081896666
-0.0028999422 0.0029283958 -0.008497195 -0.0037237767 -0.0053984057 0.0050658993 -0.009268139 0.0024111944
0.002222837 0.0024190273 0.009234236 -0.0057302513 0.0032090966 0.005931877 -0.0007585494 -0.00758583
-0.0027106097 0.0082919095 0.0061353487 -0.0018960801 0.0068446635 -0.0046655927 -0.0061547807 -0.0032714591
-0.0019084135 -0.008306155 -0.0004135018 0.0024930728 -0.008717193 -0.007826101 -0.006632554 0.0097118
-0.005339196 0.00075230765 -0.0023293009 0.0044355546 -0.007921259 -0.005807472 -0.0015635265 -0.009771672
-0.0069696163 -0.005133892 0.005602108 -0.007908454 -0.0063187582 -0.00630397 0.0048020305 -0.0011921584
-0.007263427 -0.0040555205 0.006935772 -0.009488205 -0.008515676 -0.0005309122 0.002154961 0.004269154
0.0064726346 -0.0030075416 -0.0016085072 0.0005311388 0.0057189777 0.0040275333 -0.007309011 0.00292523
-0.00867871 -0.0057564913 -0.0013441683 0.008393342 -0.0077225836 0.0035447946 0.0034596312 0.0064919214
0.0051693367 -0.0049975347 0.0014152465 0.0021319017 -0.0010619247 0.0038721617 0.004405392 0.00821515
0.0074808225 0.00080626254 -0.00069804705 0.0061008884 0.009057155 0.0035548664 -0.005253053 -0.00010679551
0.0031468687 0.006760073 0.008298715 -0.001942915 -0.0011019503 -0.009544689 -0.002414117 0.0065619857
0.005537203 0.00285662 0.0006575954 -0.0064403648 0.0076033864 0.005741826 0.0055544665 -0.0015027799
-0.009778417 0.005538776 0.008859622 0.0041264277 0.00072785676 -0.005417826 0.0013456165 0.0031472417
-0.0019822337 0.007847879 -0.0075616585 0.009870019 -0.0036981087 -0.005612502 -0.00320565 0.0056731976
-0.0052927635 0.0041998713 0.0064592822 0.0066687423 0.006143873 0.0031033682 0.0024648637 -0.0043857475
00000000: 7700 b4bb fb0a bbbb 8b70 23bb 9317 12bb
00000010: b11a 4a3b 59e7 283a 0c62 bcba 4726 00bc
00000020: 324a fcbb 8602 07bc 1f03 1b3c e41b cd3b
00000030: 3064 183c 1ea2 a23a b29e d3bb ecd1 e1bb
00000040: a0fd 43ba 3ced 1ebc e64c e6bb 092a 17bb
00000050: dfba f739 9e09 023c 69a5 e0bb 0bfd 8b3b
00000060: e0fa 74bb 2ef2 1fbc d7ee 82bb b3aa 20bc
00000070: 3d1d ce3a 6115 ad3b 8e5d ab3a b964 fdba
00000080: 3dde 8f3b dfa6 66bb 59ce 13bb 3bb1 f6ba
00000090: db8a 15bc 7342 87bb a0eb e8bb 383d 92bb
000000a0: 3260 40ba 68f9 913b bfbc 81bb 7d0e 9ebb
000000b0: 6ca1 6fb9 b916 c73b dd1a 383a f596 173c
000000c0: 7723 e73b 507e 07bc f87f 083b d6ec 7c3a
000000d0: 0df3 8abb f5b4 1c3b 05a3 003c 7a44 60bb
000000e0: eeac f43b 09a9 bb3b a2a3 bfbb 3049 603b
000000f0: 2d92 183c f3bf 3fba b40f 1e3c 9dcb 1c3c
00000100: 9ca3 423b 6aa6 ec3a 467c e8bb bd17 03bc
00000110: e353 0c3c e6d4 acbb a33d 04bb f19a da3b
00000120: 806c 9639 d4d3 033c 6e9f 093a 243c c73b
00000130: 1b5c 4fba 9810 b43a aad9 143c 4309 8439
00000140: 87cf e93b 9f94 00bb 9433 883b b367 87bb
00000150: 98a7 80ba 87c0 013c a111 b9bb 2112 a83b
00000160: 3b1c 17bc 051c 9639 f005 02bc 1a26 03bb
00000170: d524 523b aeb9 e7bb e151 b6bb acf4 05bb
00000180: 4ddb ed3b e9c4 bcbb 393b 0d3c b585 92bb
00000190: 80bf 913b 3eb7 c93b aabb 17bc ed62 0b3c
000001a0: a15a e13b 18c5 05bc 3380 913b 5fcc 1dbc
000001b0: 566e e23b f48c 91bb ed44 ed3b e64b eabb
000001c0: 99a1 063c 635f 13bc 04a8 d1ba 1c81 f93b
000001d0: f790 49bb 1665 de3b 4158 ea3b 5282 2cba
000001e0: 1e03 dc3a 74ff 0e3c 7282 aebb cf14 1cba
000001f0: 40ce 93ba 7ea3 4abb 250c 5fbb ecaf 56ba
00000200: f50c 3ebb 54ea 3f3b d237 0bbc 9b0a 74bb
00000210: 1ce5 b0bb d8ff a53b 64d9 17bc 2105 1e3b
00000220: 04ad 113b 8b88 1e3b 314b 173c d5c4 bbbb
00000230: b54f 523b 3160 c23b 63d9 46ba 8e92 f8bb
00000240: 7ca4 31bb cada 073c 090b c93b e485 f8ba
00000250: 3349 e03b d4e1 98bb 0bae c9bb fa65 56bb
00000260: bb23 faba 8a16 08bc 46cb d8b9 d262 233b
00000270: 8fd2 0ebc 0c39 00bc e555 d9bb 3e1e 1f3c
00000280: 6cf4 aebb 8336 453a 2fa7 18bb 2158 913b
00000290: 2bc8 01bc 9b4c bebb 3eef ccba 5d19 20bc
000002a0: 6161 e4bb 353a a8bb e391 b73b 7692 01bc
000002b0: 960d cfbb 8891 cebb 5a5a 9d3b 3342 9cba
000002c0: 0b02 eebb 2ce4 84bb 7945 e33b 6b74 1bbc
000002d0: 5585 0bbc ea2c 0bba 3f3a 0d3b 42e4 8b3b
000002e0: 6518 d43b 2d1a 45bb 8cd4 d2ba 1f3c 0b3a
000002f0: 4366 bb3b 66f9 833b 6e80 efbb 37b5 3f3b
00000300: 2631 0ebc f3a0 bcbb ce2e b0ba 3a84 093c
00000310: ba0d fdbb c94f 683b fbba 623b 2fba d43b
00000320: 8a63 a93b 5cc2 a3bb cb7f b93a 60b7 0b3b
00000330: 4830 8bba 18c4 7d3b 1b5b 903b d698 063c
00000340: b021 f53b 5d5b 533a 25fd 36ba f6e9 c73b
00000350: 7664 143c c3f8 683b cd21 acbb 67f7 dfb8
00000360: b23b 4e3b 9a83 dd3b 55f7 073c 69a9 feba
00000370: 516f 90ba 5461 1cbc 2a36 1ebb ed05 d73b
00000380: 6d71 b53b 2136 3b3b 7b62 2c3a b209 d3bb
00000390: d425 f93b ed25 bc3b 3e02 b63b edf8 c4ba
000003a0: a735 20bc 9f7e b53b f327 113c fc36 873b
000003b0: a4cd 3e3a 0588 b1bb 665f b03a f441 4e3b
000003c0: 5de8 01bb 6494 003c cac7 f7bb dcb5 213c
000003d0: f85b 72bb 14e9 b7bb e215 52bb 3be6 b93b
000003e0: eb6e adbb 139f 893b 63a8 d33b 7785 da3b
000003f0: 8b52 c93b e161 4b3b 8d89 213b 51b6 8fbb

net_layers.1.linear_2.bias f4 [68]
-0.10163101 0.008696591 -0.05171405 -0.00022632704 -0.109266765 0.025436798 0.0011372732 0.0964714
0.05986677 -0.036982078 0.04117727 -0.017126493 -0.03201309 0.12107008 -0.077905945 0.101291545
0.08140691 -0.111701995 0.10131768 -0.0038023405 0.08431658 0.00055176613 -0.09307104 -0.08993681
-0.037274398 0.039824277 -0.09517893 -0.017318934 0.078772016 -0.11182979 -0.03888458 0.034788616
-0.070454285 -0.092623964 -0.059771806 -0.029348254 -0.055668153 0.012654784 0.11515587 0.03161443
-0.070935324 -0.11164845 0.037599735 -0.10796268 -0.019706195 0.06561765 0.09015887 -0.06321189
0.11928638 -0.05455731 -0.101427406 0.013978875 -0.09589985 -0.06602584 -0.111696556 0.06667657
0.03407351 0.088511206 0.07577934 -0.062956 -0.010153448 -0.0076282592 -0.029757338 -0.01216197
0.066218555 -0.016944416 -0.07683099 0.03940483
00000000: eb23 d0bd 257c 0e3c 1dd2 53bd 3452 6db9
00000010: 41c7 dfbd d560 d03c 8e10 953a cc92 c53d
00000020: dc36 753d 857a 17bd 7fa9 283d dc4c 8cbc
00000030: 2820 03bd 97f3 f73d 278d 9fbd f171 cf3d
00000040: abb8 a63d 04c4 e4bd a57f cf3d b030 79bb
00000050: 2cae ac3d 66a4 103a 089c bebd ca30 b8bd
00000060: 0aad 18bd c81e 233d 2ced c2bd 70e0 8dbc
00000070: 3953 a13d 0407 e5bd 7045 1fbd 827e 0e3d
00000080: 564a 90bd a2b1 bdbd 48d3 74bd c06b f0bc
00000090: 4a04 64bd 0356 4f3c d7d6 eb3d 227e 013d
000000a0: 8a46 91bd f1a7 e4bd 2e02 1a3d 8a1b ddbd
000000b0: e36e a1bc 8c62 863d 37a5 b83d 3c75 81bd
000000c0: 6b4c f43d 7c77 5fbd 2cb9 cfbd a707 653c
000000d0: 2467 c4bd 8e38 87bd 2ac1 e4bd ba8d 883d
000000e0: aa90 0b3d 5d45 b53d 3332 9b3d 13ef 80bd
000000f0: a65a 26bc 7af6 f9bb a9c5 f3bc 0043 47bc
00000100: 989d 873d 04cf 8abc 9159 9dbd f666 213d

net_layers.2.linear_1.weight f4 [68, 68]
-0.00030649855 0.009428186 0.003633106 -0.0007857304 0.003444124 -0.00092783954 -0.003874036 0.0066485982
0.0017902689 -0.009619876 0.008422877 0.009816915 -0.008245554 -0.0020182757 -0.0054044835 -0.0054791663
-0.0031688586 -0.0020233747 -0.00086486916 -0.000318184 0.0063432623 0.005392241 0.007876965 -0.0024923044
-0.006648988 0.0005948198 0.0061888704 -0.007781815 0.0048457338 -0.0012551772 0.00080007163 -0.006046406
0.0054277587 -0.004624839 -0.004244454 0.0031055459 0.008581112 -0.005874953 0.0076436433 -0.0013334649
-0.0012643992 -0.0041633714 0.0013007822 -0.00769585 0.00561031 0.001056547 6.084693e-05 -0.0041040303
0.006480048 0.008222068 0.0060953726 0.00651605 0.006475322 -0.0054504164 0.004443083 0.005149311
0.008195968 -0.0029298924 -0.0030161617 0.0067695957 -0.0041062506 -0.009351452 0.00782907 -0.0082106115
-0.00080185983 -0.0008572795 0.00062813744 -0.0059380196 0.00037614498 -0.0064476123 -0.00082217716 -0.00230127
-0.0022524388 0.008728644 -0.006987294 -0.0057622185 0.00010970979 -0.0016722342 -0.005079948 0.008658757
-5.107247e-05 -0.005704927 -0.0050683166 0.009868319 -0.00281063 -0.0066350256 0.0046162186 -0.007399062
-0.0059294607 0.004066002 -0.0061974293 0.0035861763 0.00790745 -0.00043265178 0.0026669628 -4.258459e-05
0.0016363977 0.0035178224 -0.0035296802 -0.004470827 0.0022145107 0.0025872386 -0.0068896003 -0.0041780053
0.0009906766 0.0071613826 0.008468732 0.0052448497 -0.003940598 -0.0037892766 -0.0019403455 -0.0049863923
-0.0045405608 -0.0042025 -0.0034963249 -0.009113118 -0.00079066894 0.00033265862 -0.0010580402 0.00409063
-0.008073592 -0.0019920578 0.00127483 -0.001762591 0.0045213033 -0.00021840447 -0.0066694953 0.002862497
0.006963567 0.007237867 -0.004465258 0.003805667 0.0068574217 -0.0067904512 0.0042399075 -0.009521469
-0.004480356 0.008848854 -0.0004059771 0.009261768 -0.007684401 -0.009700232 -0.0024598152 -0.007356663
0.0063922266 -0.0051494185 -0.0049504554 -0.0063083866 0.009003607 0.0031195483 -0.0070853187 -0.0073039853
0.0089551015 -0.003168325 -0.0074955993 -0.007708548 0.0020322097 0.0015343482 -0.0060392045 0.007334213
0.004913291 -0.0047501456 0.0012886105 0.00014254589 0.0048616165 -0.0014781153 -0.008061674 0.0018810648
0.0027584822 -0.009611209 -0.008926454 -0.0060972874 -0.005480422 -0.007672235 0.00065545185 -0.003267329
0.005152837 -0.0065345094 0.0008326976 -0.006669277 -0.006692944 0.0071600843 0.007658243 0.0030939276
-0.0008315928 0.0036502057 0.0033957579 -0.003421119 -0.009866947 0.0037529112 -0.0072519695 0.009668398
0.00060149934 0.0007639152 -0.004727463 -0.0059237657 -0.0039212336 0.009168237 -0.0066669835 -0.003245423
-0.009849545 0.005367666 -0.009055965 -0.0057068435 -0.0019410135 -0.0025685101 0.0053894906 0.0041074264
0.0074560978 -0.004649364 0.0068275025 -0.0050137895 0.0027530633 0.0039934553 0.0077910842 -0.0073488527
-0.00050655456 -0.0090985065 0.0048480164 -0.0036648219 -0.0096320445 -0.005315065 0.0041509825 -0.0005092705
-0.004715766 0.00026093714 -0.0096601285 0.00089316093 0.009797046 -0.00044999816 0.0009970575 -0.009574742
-0.0042056534 -0.0053434167 -0.003838555 0.0071870247 0.005484998 0.0063415756 0.0035279759 -0.002195147
-0.003943295 -0.0004615337 0.007557087 -0.00096988946 0.0042172447 0.003438548 0.0028324865 0.0024054071
0.0057639866 0.00332328 0.007210872 0.0050869673 0.0025204958 -0.008958685 -0.006738307 0.005310909
00000000: 8ab1 a0b9 ae78 1a3c 6719 6e3b 79f9 4dba
00000010: d0b6 613b 423a 73ba 8ae3 7dbb 7cdc d93b
00000020: 75a7 ea3a af9c 1dbc 1b00 0a3c 20d7 203c
00000030: 5c18 07bc 0c45 04bb 1818 b1bb 948a b3bb
00000040: a0ac 4fbb 989a 04bb 63b8 62ba efd1 a6b9
00000050: 24db cf3b 65b1 b03b 630e 013c ee55 23bb
00000060: c1df d9bb aeed 1b3a 02cc ca3b 98fe febb
00000070: f6c8 9e3b c284 a4ba e6bb 513a ee20 c6bb
00000080: 57db b13b f68b 97bb 1015 8bbb 6a86 4b3b
00000090: cb97 0c3c ae82 c0bb 8777 fa3b a8c7 aeba
000000a0: 32ba a5ba e46c 88bb 027f aa3a 782d fcbb
000000b0: b1d6 b73b d67b 8a3a e535 7f38 1a7b 86bb
000000c0: 9556 d43b dab5 063c b1bb c73b 9784 d53b
000000d0: f02e d43b 6899 b2bb 4897 913b 8dbb a83b
000000e0: 6248 063c 7003 40bb ccaa 45bb 7cd3 dd3b
000000f0: ba8d 86bb d536 19bc 8045 003c cd85 06bc
00000100: e733 52ba 0ebb 60ba 97a9 243a b893 c2bb
00000110: 5335 c539 7e46 d3bb 6087 57ba e7d0 16bb
00000120: a79d 13bb 9602 0f3c acf5 e4bb fed0 bcbb
00000130: ff13 e638 de2e dbba b175 a6bb 76dd 0d3c
00000140: a636 56b8 65f0 babb 1f14 a6bb bbae 213c
00000150: 8c32 38bb a16a d9bb a643 973b d573 f2bb
00000160: ec4b c2bb 193c 853b ce13 cbbb 0e06 6b3b
00000170: 408e 013c 8ad5 e2b9 36c8 2e3b db9c 32b8
00000180: 657c d63a 448b 663b 3552 67bb 0480 92bb
00000190: 5321 113b a98e 293b 28c2 e1bb a6e7 88bb
000001a0: 97d9 813a 08aa ea3b 70c0 0a3c fddc ab3b
000001b0: 2220 81bb 8355 78bb 3153 feba e464 a3bb
000001c0: fcc8 94bb 20b5 89bb 9922 65bb 304f 15bc
000001d0: e544 4fba af68 ae39 f0ad 8aba b10a 863b
000001e0: 1947 04bc 2f8d 02bb 3218 a73a bd06 e7ba
000001f0: 7127 943b 8103 65b9 c88b dabb bb98 3b3b
00000200: a22e e43b a12b ed3b 4d51 92bb 7f68 793b
00000210: 39b4 e03b 6f82 debb ecee 8a3b efff 1bbc
00000220: f3cf 92bb c9fa 103c 53d9 d4b9 acbe 173c
00000230: 6dcd fbbb b9ed 1ebc da34 21bb 2910 f1bb
00000240: e275 d13b 74bc a8bb 6e37 a2bb 95b6 cebb
00000250: dd83 133c 5671 4c3b f62b e8bb 4556 efbb
00000260: 6bb8 123c aca3 4fbb a59d f5bb fd97 fcbb
00000270: d22e 053b 2f1c c93a 85e4 c5bb d653 f03b
00000280: acff a03b 1ca7 9bbb 98e6 a83a 5f78 1539
00000290: 324e 9f3b 52bd c1ba 1d15 04bc 108e f63a
000002a0: a7c7 343b 5578 1dbc 4340 12bc c1cb c7bb
000002b0: 1d95 b3bb 5f67 fbbb a1d2 2b3a af20 56bb
000002c0: 21d9 a83b 701f d6bb 6449 5a3a f389 dabb
000002d0: 7c50 dbbb 249f ea3b 00f2 fa3b 7ec3 4a3b
000002e0: 40ff 59ba 4a38 6f3b 5d8b 5e3b da34 60bb
000002f0: faa8 21bc 67f3 753b eea1 edbb 3368 1e3c
00000300: f0ad 1d3a 7b41 483a d5e8 9abb 261c c2bb
00000310: b17d 80bb 6036 163c b676 dabb 2ab1 54bb
00000320: fc5f 21bc 3fe3 af3b 785f 14bc 7900 bbbb
00000330: 9b69 feba 7354 28bb 539a b03b 9797 863b
00000340: 4852 f43b b159 98bb 3eb9 df3b b74a a4bb
00000350: bd6c 343b 88db 823b 5a4c ff3b a5ce f0bb
00000360: 4dca 04ba e711 15bc 1cdc 9e3b 822d 70bb
00000370: b9cf 1dbc ff29 aebb f704 883b 9180 05ba
00000380: b686 9abb 64ce 8839 8445 1ebc 0423 6a3a
00000390: ca83 203c bbed ebb9 b3af 823a 61df 1cbc
000003a0: 94cf 89bb d417 afbb 4490 7bbb 2281 eb3b
000003b0: 80bb b33b fecc cf3b 9d35 673b 75dc 0fbb
000003c0: c236 81bb 01fa f1b9 71a1 f73b 2e40 7eba
000003d0: d030 8a3b 4359 613b 3da1 393b 09a4 1d3b
000003e0: d3df bc3b 63cb 593b 2e49 ec3b 93b0 a63b
000003f0: e72e 253b 73c7 12bc 04cd dcbb 2207 ae3b

net_layers.2.linear_1.bias f4 [68]
-0.08236984 0.08159632 0.117721766 -0.1151446 0.07063111 -0.10387379 -0.09836381 0.037702102
-0.09279578 -0.036049202 -0.101340346 0.047800068 -0.06263147 -0.055862315 -0.07383261 0.027750013
0.0017670452 -0.036889415 0.050998483 0.07587954 -0.09699542 0.039638385 0.07199915 -0.04299686
0.092345536 -0.010529687 0.03630859 -0.12055175 0.04045924 -0.030053414 0.1033125 -0.11711673
0.032440823 0.025766732 -0.052762363 -0.073679626 0.109058715 -0.11385904 0.048653968 -0.0829994
-0.03626901 0.03216011 -0.1145317 0.078693025 -0.096871875 0.09197821 0.00010366576 0.078570396
-0.05842486 0.10869533 -0.092447326 -0.065449655 0.083785124 -0.11698312 -0.09191059 0.085683085
0.04566073 0.063312635 -0.050874114 0.09444421 0.07186608 0.005725542 -0.0662771 -0.08942181
0.036111683 -0.013748833 -0.0010640956 -0.030636782
00000000: 85b1 a8bd f91b a73d 1c18 f13d efd0 ebbd
00000010: 0ba7 903d c8bb d4bd f772 c9bd 856d 1a3d
00000020: b70b bebd 54a8 13bd 878b cfbd 01ca 433d
00000030: ee44 80bd e2cf 64bd 8d35 97bd ff53 e33c
00000040: 339c e73a 5b19 17bd c9e3 503d bb66 9b3d
00000050: 89a5 c6bd dc5b 223d 4a74 933d 7a1d 30bd
00000060: a81f bd3d b584 2cbc 51b8 143d d6e3 f6bd
00000070: 97b8 253d 9432 f6bc 8195 d33d e5da efbd
00000080: abe0 043d c114 d33c 591d 58bd 58e5 96bd
00000090: 2d5a df3d ee2e e9bd 6249 473d 97fb a9bd
000000a0: d08e 14bd 52ba 033d 998f eabd cf29 a13d
000000b0: c364 c6bd 125f bc3d 2267 d938 84e9 a03d
000000c0: e84e 6fbd a89b de3d 0655 bdbd 780a 86bd
000000d0: 8997 ab3d d994 efbd 9f3b bcbd 9d7a af3d
000000e0: bf06 3b3d 0eaa 813d 6061 50bd f76b c13d
000000f0: 862e 933d 549d bb3b 4abc 87bd c822 b7bd
00000100: d8e9 133d c942 61bc 2079 8bba fdf9 fabc

net_layers.2.linear_2.weight f4 [68, 68]
0.0021107653 -0.00016248904 -0.0062581287 0.0049091764 -0.0066153975 -0.00707981 0.001346202 -0.002144882
0.0016630805 -0.0010363737 0.0051674894 -0.009331378 -0.0007549835 0.0040258016 -0.0082891155 -0.0095463
-0.0075384565 -0.009259089 -0.006308206 -0.0092748655 0.0045728786 -0.008731782 0.009131724 -0.009527726
-0.006889132 0.0072839595 -0.004539421 0.005067546 -0.006249366 0.0040524104 -0.003650045 0.0040978384
-0.0058917874 0.0032142347 -0.0022669195 0.0017067003 -0.0074738446 -0.0025892935 0.008423459 0.00945846
-0.003175636 -0.0066118552 -0.008432225 -2.0212276e-05 0.0026683605 -0.0058719697 -0.0024157257 0.0019127135
0.0016537806 -0.0085970685 -0.008776457 0.005195164 0.004745377 -0.0050766133 0.0076468266 -0.008296529
0.00042772383 -0.0008894051 0.00020345773 0.0012860905 0.008400749 0.0051373225 -0.009359632 0.0012578294
-0.005713326 0.0053767064 -0.0024773034 -0.008722358 0.0066509754 -0.0075671757 -0.0025661988 0.0018654678
-0.0010676364 -0.004309452 0.0005639454 0.005569497 0.0056661605 -0.004153126 -0.007456033 0.0034083817
-0.0037355719 -0.004025823 0.0052924566 0.00061916205 -0.0017034473 0.0023638213 0.0077128126 -0.0033099407
0.009507316 -0.0037737999 -0.0028165695 -0.0013841006 -0.0018508161 -0.0010417502 -0.008075316 -0.0041227224
0.0048661632 -0.0077010742 0.0061007612 -0.0012717646 0.0068053533 0.006494657 0.0015248383 0.0013873111
0.0006775751 -0.007875353 -0.0057441546 -0.0069810576 -0.0065287505 -0.0007069186 -0.005161838 -0.0044805203
0.00090689666 -0.008499437 0.002440898 0.00714304 -0.0058209053 0.004275346 -0.0015678159 -0.008711759
-0.005076703 -0.009588428 -0.00978604 -0.006469268 -0.00014521465 0.0069764764 -0.009817275 0.0027079186
0.008598327 0.0028532122 0.0058563394 0.001958138 0.008450623 -0.0029233142 0.006698853 -0.009211471
-0.0033770152 8.850366e-05 -0.00040478847 -0.005300864 -0.004942435 -0.00061437575 0.0011599786 0.0042076414
-0.007831702 -0.0036500946 0.003914875 0.0016564435 -0.0054897657 0.009154685 0.003586488 0.0044158655
0.0052636275 -0.008634329 6.901612e-05 0.0016299754 -0.0036544206 -0.0026332804 -0.0068328422 -0.0015839417
0.0035675506 -0.0064349244 0.0037660792 0.0030340687 -0.0011793575 0.008467312 0.0020986667 -0.0013909396
-0.0023101838 0.0054573463 0.0061628297 0.0004390162 -0.003378918 0.0053900643 -0.0057370593 0.003962311
-0.008354297 0.005341506 0.00027261904 -0.004902302 -0.00044899015 0.0062745945 -0.008975043 0.009159975
-0.0026228933 -0.0016107722 -0.009457741 -0.007555621 -0.0017992951 0.004358287 -0.0070141084 -0.0022017995
0.00570777 -0.001131387 -0.005261398 -0.0064649195 -0.0026387419 0.0082186945 0.0060174307 -0.006793998
-0.0006357814 0.006067376 0.008481888 -0.00070034165 0.008567389 0.00792883 -0.008223869 -0.0021733448
-0.002744547 0.0067770826 -0.008706128 0.0018822748 -0.0070242523 -0.007758412 -0.0005388677 0.0010976491
-0.0025666237 0.003105291 0.0011865848 0.0016697295 -0.0014697183 0.009315522 -0.0063557127 -0.0040116445
-0.00012608357 0.00189589 -5.0348917e-05 -0.0048081386 -0.006515488 0.003659994 0.00646508 -0.0012715828
-0.0001540649 0.0039748284 0.0030201324 0.0047582593 0.0070527764 -0.009469426 -0.001564466 -0.0041337055
0.0026546412 0.008458248 0.0069280597 -0.008811064 0.0042790747 -0.00036227 -0.0076166736 -0.0062923054
0.007110957 0.004022779 0.0015014296 0.009525879 0.007886149 0.0078870235 -0.0014706131 0.00958091
00000000: c454 0a3b d261 2ab9 fd10 cdbb 28dd a03b
00000010: fac5 d8bb c0fd e7bb 0b73 b03a 2691 0cbb
00000020: b9fb d93a eed6 87ba 0b54 a93b a3e2 18bc
00000030: 16ea 45ba dfea 833b 12cf 07bc 1668 1cbc
00000040: 2805 f7bb 6fb3 17bc 11b5 cebb 9bf5 17bc
00000050: 16d8 953b c00f 0fbc 3a9d 153c 2e1a 1cbc
00000060: 3abe e1bb 48ae ee3b 6cbf 94bb a80d a63b
00000070: 7bc7 ccbb 15ca 843b 9835 6fbb 2947 863b
00000080: e50f c1bb e9a5 523b 9990 14bb 5cb3 df3a
00000090: 27e7 f4bb 23b1 29bb 8c02 0a3c a8f7 1a3c
000000a0: 551e 50bb 43a8 d8bb 5127 0abc 888d a9b7
000000b0: a9df 2e3b a769 c0bb 2751 1ebb 04b4 fa3a
000000c0: abc3 d83a b8da 0cbc 21cb 0fbc 323c aa3b
000000d0: 1c7f 9b3b b859 a6bb 3b92 fa3b 2aee 07bc
000000e0: 1f40 e039 f726 69ba 4557 5539 0992 a83a
000000f0: 4ca3 093c fc56 a83b 2459 19bc c0dd a43a
00000100: da36 bbbb 152f b03b 415a 22bb 39e8 0ebc
00000110: 6df0 d93b 12f6 f7bb ac2d 28bb b682 f43a
00000120: efef 8bba 4e36 8dbb bcd5 133a 5480 b63b
00000130: 33ab b93b f216 88bb bd51 f4bb 285f 5f3b
00000140: 7fd0 74bb 0deb 83bb 586c ad3b 434f 223a
00000150: 3546 dfba 57ea 1a3b c3bb fc3b 97eb 58bb
00000160: 93c4 1b3c db51 77bb 3296 38bb b66a b5ba
00000170: 1597 f2ba 568b 88ba 554e 04bc e717 87bb
00000180: 5674 9f3b 4b59 fcbb e5e8 c73b 57b1 a6ba
00000190: 71ff de3b 22d1 d43b 15dd c73a 70d6 b53a
000001a0: 4c9f 313a a007 01bc 7639 bcbb 5bc1 e4bb
000001b0: 21ef d5bb 8150 39ba a324 a9bb 54d1 92bb
000001c0: cebc 6d3a 3941 0bbc 79f7 1f3b 2a10 ea3b
000001d0: 4bbd bebb 3418 8c3b 2c7f cdba c4bb 0ebc
000001e0: 795a a6bb c818 1dbc a055 20bc 27fc d3bb
000001f0: c344 18b9 ed9a e43b a3d8 20bc 5677 313b
00000200: ffdf 0c3c f5fc 3a3b 89e6 bf3b 1b54 003b
00000210: 7b74 0a3c 1395 3fbb 0d82 db3b b6eb 16bc
00000220: ea50 5dbb 0a9b b938 ca39 d4b9 dfb2 adbb
00000230: 26f4 a1bb 0f0e 21ba 6c0a 983a 41e0 893b
00000240: 8a50 00bc 6d36 6fbb 5a48 803b 051d d93a
00000250: 7ee3 b3bb 88fd 153c 490b 6b3b f7b2 903b
00000260: 827a ac3b 0077 0dbc bfbc 9038 e6a4 d53a
00000270: 017f 6fbb 1d93 2cbb 09e6 dfbb 449c cfba
00000280: 91cd 693b 0fdc d2bb 53d0 763b 3ad7 463b
00000290: ac94 9aba 7bba 0a3c c989 093b 3050 b6ba
000002a0: 7466 17bb 8ad3 b23b 90f1 c93b c22b e639
000002b0: d670 5dbb 239f b03b f1fd bbbb 46d6 813b
000002c0: 76e0 08bc cd07 af3b 4fee 8e39 7da3 a0bb
000002d0: 7066 ebb9 1d9b cd3b 0f0c 13bc b813 163c
000002e0: d9e4 2bbb 8c20 d3ba a4f4 1abc 2595 f7bb
000002f0: 53d6 ebba f6cf 8e3b 9bd6 e5bb 114c 10bb
00000300: 3f08 bb3b 0c4b 94ba ce67 acbb add7 d3bb
00000310: beee 2cbb b4a7 063c de2d c53b 30a0 debb
00000320: 91aa 26ba d7d0 c63b 9ef7 0a3c 2297 37ba
00000330: 3c5e 0c3c ece7 013c 68bd 06bc ad6e 0ebb
00000340: dcdd 33bb 4a12 de3b 26a4 0ebc a9b6 f63a
00000350: b32b e6bb 473a febb cd42 0dba fede 8f3a
00000360: cd34 28bb 2382 4b3b 2e87 9b3a d3da da3a
00000370: 90a3 c0ba 22a0 183c 9543 d0bb 1d74 83bb
00000380: 4d35 04b9 837f f83a bd2d 53b8 978d 9dbb
00000390: e07f d5bb 83dc 6f3b 06d9 d33b 3dab a6ba
000003a0: 7b8c 21b9 473f 823b 6aed 453b 2ceb 9b3b
000003b0: fa1a e73b a725 1bbc c50e cdba 0974 87bb
000003c0: 7df9 2d3b 7794 0a3c c704 e33b 485c 10bc
000003d0: 7b37 8c3b 0eef bdb9 4a95 f9bb af2f cebb
000003e0: 0803 e93b 84d1 833b 9ecb c43a 6f12 1c3c
000003f0: e834 013c 9338 013c 96c1 c0ba 40f9 1c3c

net_layers.2.linear_2.bias f4 [68]
0.06394941 0.08349937 -0.07291003 0.06611086 0.03387033 -0.078674756 0.05038607 -0.0884318
-0.054690797 -0.05683035 0.011098005 -0.028549343 -0.109456725 0.046681385 -0.0065615615 0.11115358
0.023787614 0.018261278 0.07904763 0.047338463 0.07571099 0.057920482 0.061354723 -0.08043761
-0.035461586 0.05214411 -0.041317437 -0.09078941 0.03350953 -0.050279893 0.10918247 -0.09389431
0.054631915 -0.015113141 -0.036790922 0.10416858 -0.06910708 -0.027134337 -0.047442418 -0.07688111
-0.05248555 -0.027801609 -0.018855734 0.049527936 -0.00974902 0.11946608 0.0003886129 -0.10319146
0.095933504 -0.11590934 -0.011523944 0.044732362 0.086606294 0.08570033 -0.026056219 -0.049677137
0.09311004 -0.003113587 0.077192396 0.07063189 0.04181748 0.003652863 0.025407495 0.094645396
-0.08181601 0.087681256 0.080434486 0.08332689
00000000: e9f7 823d b801 ab3d db51 95bd 2165 873d
00000010: 9dbb 0a3d 3b20 a1bd a061 4e3d bb1b b5bd
00000020: 7503 60bd f1c6 68bd 68d4 353c 50e0 e9bc
00000030: d92a e0bd fb34 3f3d 5e02 d7bb 7da4 e33d
00000040: 3ede c23c ad98 953c b9e3 a13d fae5 413d
00000050: 5d0e 9b3d 073e 6d3d 174f 7b3d 79bc a4bd
00000060: 2b40 11bd 1095 553d 793c 29bd ccef b9bd
00000070: 4a41 093d 4af2 4dbd 0f9b df3d a94b c0bd
00000080: b7c5 5f3d 1c9d 77bc 14b2 16bd 5656 d53d
00000090: 0388 8dbd d448 debc fb52 42bd d873 9dbd
000000a0: 17fb 56bd 33c0 e3bc 5777 9abc cedd 4a3d
000000b0: 5bba 1fbc a2aa f43d bebe cb39 0b56 d3bd
000000c0: c978 c43d e061 edbd edce 3cbc 4839 373d
000000d0: a45e b13d a883 af3d da73 d5bc 417a 4bbd
000000e0: 7ab0 be3d 520d 4cbb 0c17 9e3d 74a7 903d
000000f0: ce48 2b3d df64 6f3b 6123 d03c 72d5 c13d
00000100: 278f a7bd 3b92 b33d d6ba a43d 4aa7 aa3d

net_layers.3.linear_1.weight f4 [68, 68]
-0.0016177411 0.0020592466 -0.005849498 -0.0063860877 0.0018377544 -0.0017677255 0.0021605475 -0.00220323
-0.0061298753 0.0008637242 -0.0016070649 0.0022123165 -0.004122584 -0.0060564475 0.0031768105 0.0011207957
-0.0029134843 0.0038398555 -0.0065910243 0.009044323 0.0041983947 0.0042516305 0.006532172 0.00818346
-0.0074797235 -0.001788083 -0.007516044 0.00757621 0.0053123794 -0.0045664776 0.0068802405 -0.004855793
0.0056135408 -0.0018762478 -0.0009135066 0.001770674 0.00086588075 -0.0073427917 0.0047437237 -0.007736453
-0.0014430708 -0.004248792 -0.004219048 0.0067146365 0.0004224689 -0.0094825635 -0.007346335 -0.002642145
-0.002964747 0.006074208 0.0041528237 0.0063088564 -0.0058105052 -0.008496591 -0.006533119 -0.00802065
-0.0053944057 -0.006243104 0.0075062816 -0.0004263546 0.00078819494 0.0022394788 0.004798488 -0.007649074
0.0075589404 -0.00043953912 0.00075606705 -0.00076004013 -0.0029384948 0.0036231284 0.00954298 0.0032941382
-0.00015608211 -0.0009388321 -0.0024517619 0.0011231187 0.0052941516 -0.0006946347 -0.009235764 -0.0010230665
0.0015438654 0.009240949 -0.003829805 0.0053310585 0.0076925154 0.0013258894 -0.00784555 -0.003245717
0.0026071616 -0.0072569093 -0.0031577703 -0.008328932 -0.006169082 0.00443095 0.0036033092 -0.008490317
0.002335154 0.0016226997 0.00403903 -0.0017438753 0.00035903347 -0.0061028656 0.008170379 0.007166915
0.008461334 -0.00026044965 -0.006786399 -0.0032075609 0.003310943 0.0025935783 -0.00075064576 -0.007776968
-0.007590943 0.00633697 0.008521623 -0.0051392037 0.0026521424 0.007847263 -0.0061936625 -0.0096134385
-0.0066052666 0.006531477 -0.005998839 -0.007950903 0.005210884 -0.0066696936 -0.007864932 0.006384898
0.0052347966 -0.0056481836 0.0033376778 -0.00082846964 -5.3231324e-05 0.0026234577 0.0054146755 0.00670873
0.0045604366 -0.004516103 0.006114334 -0.0034481632 0.00034036275 0.005613771 0.0020444144 -0.0030759168
0.005601132 0.00046647227 -0.009801153 0.0085138995 0.008533403 -0.0036864092 -0.00434114 0.009175548
-0.004426928 0.00079841085 0.0003829556 -0.00070932414 0.0031197267 -0.009138972 0.00052159216 0.005023886
0.0046516294 0.006783998 0.0037667495 0.008914404 -0.0023829534 -0.0055160276 0.0078058173 -0.001225875
-0.0035406763 0.00046218524 -0.00302276 0.0010144298 0.0034793196 -0.007534884 -0.0016515072 0.007666549
-0.005512889 -0.0016427527 0.0038454186 0.0038677945 -0.0048047192 -0.003613204 0.0021060829 0.0017737359
0.0066275564 0.002559289 -0.0022002226 -0.007526242 -0.002407612 -0.0013761652 0.0007190419 0.0012014855
-0.0056105223 0.005358065 0.006304032 -0.009567099 -0.0031959356 0.0003250725 -0.0074348506 0.0003688044
0.0072680577 -0.003170446 0.0054008784 0.0044655283 -0.009243937 0.00769517 -0.0014387637 0.0024696665
-0.0011272688 -0.0011378352 -0.005558422 -0.0098407 -0.0044454057 0.0050368886 -0.009304598 0.0026551995
-0.0090300115 -0.0036314698 -0.0032941278 -0.00012508854 0.002860213 0.0065713883 -0.0063985297 0.005913315
0.0010708269 0.00038248816 0.0015391866 0.003929731 0.002261439 0.0058429246 -0.005102836 0.009452628
0.0035802014 -0.005817996 -0.0075034346 -0.0032489547 -0.0017005731 -0.006018748 0.0052248086 -0.005158009
-0.009135544 -0.0097081745 -0.0038764817 -0.005861135 -0.007701617 -0.0083919 -0.008428615 0.005933306
-0.004766182 -0.009195163 -0.0052081347 -0.0023062378 -0.008890918 0.0018124701 0.008367268 -0.0018881197
00000000: 620a d4ba 6df4 063b 25ad bfbb 6342 d1bb
00000010: cee0 f03a 06b3 e7ba f997 0d3b 1164 10bb
00000020: 1fdd c8bb 8d6b 623a 26a4 d2ba 83fc 103b
00000030: be16 87bb 2a75 c6bb 0932 503b aae7 923a
00000040: 28f0 3ebb 16a6 7b3b 85f9 d7bb a42e 143c
00000050: b092 893b 4351 8b3b d50b d63b eb13 063c
00000060: 7818 f5bb 1c5e eaba 2649 f6bb db41 f83b
00000070: 7813 ae3b 64a2 95bb a473 e13b 581d 9fbb
00000080: cbf1 b73b 6eec f5ba 6478 6fba f615 e83a
00000090: 46fc 623a cd9b f0bb 3d71 9b3b 1282 fdbb
000000a0: 6c25 bdba 7339 8bbb f13f 8abb 7406 dc3b
000000b0: d17e dd39 c15c 1bbc 86b9 f0bb d627 2dbb
000000c0: 334c 42bb 260a c73b 6914 883b 86ba ce3b
000000d0: 0d66 bebb 4935 0bbc c613 d6bb 0b69 03bc
000000e0: 8ec3 b0bb f492 ccbb 41f7 f53b 5988 dfb9
000000f0: de9e 4e3a 38c4 123b a33c 9d3b 15a5 fabb
00000100: fdb0 f73b f171 e6b9 cd32 463a 6e3d 47ba
00000110: c393 40bb 0272 6d3b 295a 1c3c 78e2 573b
00000120: f9a9 23b9 f51b 76ba bdad 20bb 9c35 933a
00000130: 907a ad3b 2518 36ba 9a51 17bc 6a18 86ba
00000140: 875b ca3a 5967 173c 77fd 7abb 29b0 ae3b
00000150: 7f11 fc3b 77c9 ad3a 9f8a 00bc 18b6 54bb
00000160: eadc 2a3b 5ecb edbb 98f2 4ebb 1376 08bc
00000170: 0326 cabb 8131 913b 7f25 6c3b f81a 0bbc
00000180: 6209 193b c4b0 d43a d759 843b bf92 e4ba
00000190: a83c bc39 8cfa c7bb 0edd 053c 71d8 ea3b
000001a0: 68a1 0a3c f68c 88b9 7160 debb f135 52bb
000001b0: 68fc 583b 06f9 293b fcc6 44ba f0d5 febb
000001c0: 72bd f8bb 5ba6 cf3b 479e 0b3c c466 a8bb
000001d0: 91cf 2d3b ce91 003c 35f4 cabb af81 1dbc
000001e0: fe70 d8bb 0006 d63b e991 c4bb 8144 02bc
000001f0: 10c0 aa3b 728d dabb eadb 00bc 6838 d13b
00000200: a888 ab3b 6614 b9bb f1bc 5a3b a82d 59ba
00000210: b344 5fb8 51ee 2b3b 976d b13b e8d4 db3b
00000220: b76f 953b d1fb 93bb c05a c83b 94fa 61bb
00000230: b772 b239 b9f3 b73b 95fb 053b 5295 49bb
00000240: b389 b73b d990 f439 0495 20bc e27d 0b3c
00000250: b0cf 0b3c af97 71bb 1f40 8ebb 0a55 163c
00000260: c30f 91bb 724c 513a 6ec7 c839 f0f1 39ba
00000270: 5474 4c3b a0bb 15bc 75bb 083a 699f a43b
00000280: b26c 983b 4d4c de3b 92db 763b b80d 123c
00000290: 532b 1cbb cbbf b4bb f1c7 ff3b 8aad a0ba
000002a0: b10a 68bb 7451 f239 7f19 46bb 9ef6 843a
000002b0: 4c05 643b 30e7 f6bb 6377 d8ba ad37 fb3b
000002c0: 77a5 b4bb a251 d7ba 6b03 7c3b d37a 7d3b
000002d0: e870 9dbb 81cb 6cbb 3506 0a3b b37c e83a
000002e0: f92b d93b bfb9 273b 9c31 10bb b29e f6bb
000002f0: 07c9 1dbb 7160 b4ba 167e 3c3a 2a7b 9d3a
00000300: 79d8 b7bb b592 af3b 0e92 ce3b 52bf 1cbc
00000310: e772 51bb 7e6e aa39 0ca0 f3bb 175c c139
00000320: e328 ee3b 42c7 4fbb daf9 b03b 9153 923b
00000330: e273 17bc c427 fc3b e694 bcba 21da 213b
00000340: ddc0 93ba 6a23 95ba 6c23 b6bb e33a 21bc
00000350: c4aa 91bb 7c0c a53b 5072 18bc db02 2e3b
00000360: 9df2 13bc f4fd 6dbb 4be2 57bb 332a 03b9
00000370: 6972 3b3b cd54 d73b c2aa d1bb 7bc4 c13b
00000380: fd5a 8c3a b188 c839 88be c93a f9c4 803b
00000390: a734 143b 0176 bf3b b135 a7bb 32df 1a3c
000003a0: d0a1 6a3b e3a4 bebb 5fdf f5bb 6aec 54bb
000003b0: c4e5 deba eb38 c5bb df34 ab3b 8404 a9bb
000003c0: 40ad 15bc 090f 1fbc 920c 7ebb c40e c0bb
000003d0: d95d fcbb 2e7e 09bc 2c18 0abc 2e6c c23b
000003e0: a22d 9cbb 4fa7 16bc 00a9 aabb 4024 17bb
000003f0: 37ab 11bc 6890 ed3a de16 093c c97a f7ba

net_layers.3.linear_1.bias f4 [68]
0.11324167 -0.027340744 0.007023858 -0.06110616 -0.04063507 -0.0119296005 -0.05974959 0.07098565
0.08066772 0.008895031 -0.07038852 -0.083633885 0.013340256 0.0046560257 0.07966618 0.059091598
-0.10000248 0.10304708 0.1010954 0.11180594 -0.001161603 -0.0098068165 -0.05354031 -0.05012106
-0.03139078 0.08874376 0.060616903 -0.031827733 -0.050357983 -0.014214787 0.05067414 -0.116535716
0.09953984 0.09265894 0.11905291 -0.034599386 0.076477244 0.04593285 0.11086194 0.10533449
0.10451485 -0.09806786 0.013815014 -0.035104617 -0.0005786692 0.12070068 -0.055820104 0.0807268
0.038322866 0.06865211 0.06759985 0.040080167 0.061924994 0.01015154 0.031295598 -0.030514989
-0.025232458 0.046047896 -0.104974374 -0.080433965 -0.027986547 -0.0259917 0.011344903 0.11148502
-0.03538076 0.12002609 0.016275309 0.0012085425
00000000: 40eb e73d b2f9 dfbc 6428 e63b 744a 7abd
00000010: f670 26bd 5f74 43bc fcbb 74bd ed60 913d
00000020: 1e35 a53d 77bc 113c db27 90bd 3e48 abbd
00000030: 1791 5a3c 9391 983b 0628 a33d 080a 723d
00000040: 1ace ccbd 590a d33d 1b0b cf3d 83fa e43d
00000050: ee40 98ba c5ac 20bc 164d 5bbd be4b 4dbd
00000060: 9e93 00bd 4abf b53d 6e49 783d cc5d 02bd
00000070: 2c44 4ebd 23e5 68bc b08f 4f3d 47aa eebd
00000080: 8bdb cb3d f8c3 bd3d 03d2 f33d 16b8 0dbd
00000090: 1aa0 9c3d 1624 3c3d 960b e33d 9cb9 d73d
000000a0: e20b d63d cdd7 c8bd 5e58 623c dcc9 0fbd
000000b0: d5b1 17ba eb31 f73d 9fa3 64bd 1854 a53d
000000c0: 70f8 1c3d 7a99 8c3d ca71 8a3d 1a2b 243d
000000d0: 10a5 7d3d a552 263c d02f 003d 92fa f9bc
000000e0: 4db4 cebc b89c 3c3d cefc d6bd 90ba a4bd
000000f0: 0b44 e5bc 8cec d4bc f9df 393c 4252 e43d
00000100: 6aeb 10bd 3dd0 f53d cc53 853c f567 9e3a
